rnn/prod_stage1_rnn.pt (torch, 4081 bytes, 7 tensors)

rnn.weight_ih_l0 f4 [4, 1]
00000000: 89de 433f 3ccd 193e 1efc a73e 9a74 58bf
0.76511437 0.15019697 0.32809538 -0.8455292

rnn.weight_hh_l0 f4 [4, 4]
00000000: 54f4 ad3e 8715 673e aa78 033e 656a f9be
00000010: 4b86 c4be a309 cdbe 7e7e db3e 4acd a53c
00000020: c65c f43e 7614 353e b1d1 0a3e 8aa6 50be
00000030: b794 d7be a4ec bfbe 8c50 f7be 5547 b03e
0.3397547 0.22566806 0.12838998 -0.48713985 -0.38383707 -0.40046415 0.42869943 0.020239491
0.4772703 0.17683586 0.13556553 -0.2037603 -0.42105648 -0.3748523 -0.4830364 0.34429422

rnn.bias_ih_l0 f4 [4]
00000000: e27c ffbd 5d0e 1dbe 9420 7abe 6f56 fdbd
-0.124749914 -0.1533751 -0.2442649 -0.123700015

rnn.bias_hh_l0 f4 [4]
00000000: 38b9 6cbe 1546 c2be b154 563e 4787 39be
-0.2311753 -0.37944093 0.20930745 -0.1811801

classifier.0.weight f4 [32, 4]
00000000: e720 073f d44b 66be 2cf1 cabd 446c 0cbf
00000010: 0188 c5be 7773 17be 79d4 23bf c709 293f
00000020: c905 18bf 98c5 983d 9f0d 28bd 903f 473f
00000030: 3847 92be b7b8 cc3e 5585 07be 431c bcbc
00000040: 5405 233f 846c a2be b5f5 703e a66d 1cbf
00000050: 7260 afbe 8a0f 923e 1c84 d8be bebe 353e
00000060: a2e3 d43e f2a6 d03e 46cf f2bc 045f 16bf
00000070: 11f9 a6bd 1b3b 723e e2b4 37bf 9583 a03e
00000080: 081b 5abe f4fa 1cbd 45bd 18be 1535 d6be
00000090: e3dc b2be a826 0fbf b8af 483e f351 4f3f
000000a0: 600a e8bd 75b2 91bd 1eff 69be 4e49 cdbe
000000b0: c4bd 2bbf 8365 3e3e 128a f7be e399 f83d
000000c0: 8cb7 74be 565c 39be 9b89 c8be f5bb f03e
000000d0: 744e 54be 6107 23be fedf b5be 055d f9bd
000000e0: 2d71 143f 4493 d3be 3211 b73e 9edc 24bf
000000f0: 7bb2 653e a336 bd3e c0b9 e93e bbf6 61bf
00000100: b85e fcbc ac06 f93e a73a 11be fd3a 523f
00000110: f006 373f 3cf9 a4be 106a d33e ee11 5bbf
00000120: f6a4 6abe 77ac bc3e ab09 e73d 6ff7 14bc
00000130: fc64 19bf b653 c9be ce7c 37bf 6f9e 383d
00000140: c11e c83d 86f6 573e 768a b93e 2a95 66bf
00000150: bc86 aebe 36e7 8c3e 4f54 a0be 8247 34be
00000160: 8d5c e83e fce3 d4be c506 6c3e 2d6d 0dbf
00000170: f605 88be d7c4 81be adcf 1dbf cf37 e0bc
00000180: 84af 1ebe 1ef9 eb3e af63 dbbd 8cf8 21bf
00000190: f7d8 cabd e7fe a73d 3a2e c83c 6915 533f
000001a0: 00e7 e83e d4c1 12bf d505 873e 0efb 16be
000001b0: 0776 4cbb 87ec c0be 9236 113f 5ecb c0be
000001c0: b828 10be 629c e4be 2ee5 373e d7d9 14be
000001d0: 8bc8 813e d25a ddbd e9b3 25be d4f2 5cbf
000001e0: 00fc 493e 31bc 623e b1c5 0d3f 9128 50bf
000001f0: 123c 9cbe 7cdc dbbe 1790 02bf b14f 143f
0.5278458 -0.22489864 -0.09909281 -0.548527 -0.38580325 -0.1479014 -0.6399608 0.66030544
-0.5938383 0.07459563 -0.041028615 0.77831364 -0.2856996 0.39984676 -0.13234456 -0.022962695
0.63680005 -0.31723416 0.2353123 -0.6110481 -0.3425327 0.2852748 -0.4228829 0.17748544
0.4157992 0.4075237 -0.029639851 -0.5873873 -0.081529744 0.2365536 -0.7176038 0.3135039
-0.21299374 -0.038325265 -0.1491595 -0.41837373 -0.34934148 -0.5591836 0.19598281 0.8098442
-0.11330104 -0.07114116 -0.22851226 -0.4009499 -0.67086434 0.18593411 -0.48347527 0.121387266
-0.23898143 -0.1810163 -0.39167485 0.470184 -0.20733052 -0.15920784 -0.35522455 -0.12175945
0.5798519 -0.41323292 0.35755306 -0.64399135 0.22431366 0.36955747 0.45649529 -0.88267106
-0.030806884 0.48637903 -0.1418253 0.8212126 0.7149496 -0.322214 0.41291857 -0.85574234
-0.2291449 0.3685033 0.11281141 -0.009092196 -0.59919715 -0.3932168 -0.7167481 0.04507297
0.09771491 0.21090135 0.3623845 -0.90071356 -0.3408717 0.2752015 -0.31314322 -0.17605403
0.4538311 -0.41580188 0.23049457 -0.55244714 -0.26567048 -0.2534549 -0.61645013 -0.027370362
-0.15496641 0.460885 -0.107123725 -0.6326988 -0.09904664 0.08202916 0.024436105 0.82454544
0.4548874 -0.5732701 0.26371637 -0.14744207 -0.003119828 -0.37680456 0.5672389 -0.37655157
-0.14078033 -0.4465056 0.17958519 -0.14536224 0.25348315 -0.10808338 -0.16181912 -0.86308026
0.19725037 0.22142102 0.5537978 -0.813119 -0.3051458 -0.42941654 -0.51001114 0.579341

classifier.0.bias f4 [32]
00000000: a728 9d3e 7880 e33e 9c29 91be 54f6 8e3e
00000010: 4bb5 25be 4b1d 043e 0001 043f 32b6 933d
00000020: da99 da3e b8ed a8be 20e5 1bbe 8aa2 a93e
00000030: 9426 80bd c682 adbd bb34 42bd b96b cb3e
00000040: 4a0d 843e 75d0 c33e f60f 80be 7bfe a7be
00000050: bf30 0b3e 8092 d83d 336a 9dbd 8362 e1bd
00000060: 0fe4 a93e 15a8 f33d 4c1b 813d bb76 b0bc
00000070: e76d febe 17fc 91be 50e1 5dbd a8d6 27be
0.30695078 0.4443395 -0.28352058 0.27922308 -0.16182439 0.129018 0.51564026 0.072124854
0.42695504 -0.32993865 -0.15224123 0.3313182 -0.06257358 -0.08472209 -0.04741357 0.39730623
0.2579139 0.38244978 -0.25012177 -0.3281134 0.13592814 0.10574818 -0.076862715 -0.11005118
0.33181807 0.118972935 0.063040346 -0.02154099 -0.49693224 -0.28512642 -0.054169953 -0.16390479

classifier.3.weight f4 [1, 32]
00000000: e926 753e 65d2 1dbe 1e4a 79be a304 913d
00000010: d665 473e 9fbd b1bb d510 593e 0cac abbe
00000020: d4bf 153d 9379 86be 476c 223d d773 cbbd
00000030: 5ac9 bfbe 8347 07be 1c88 943e 334d 273f
00000040: c0c5 bfbe 41be ab3e 42c6 eabd ff61 9abe
00000050: 0dc0 df3e abc2 d8ba d08f 303e 7dfb 39be
00000060: 504d f63d 8e8c 06bf 9bdf e33e 0120 0f3e
00000070: 2aec 713c 767a c63d 97d5 313e 7d41 d5be
0.23940624 -0.1541229 -0.2434468 0.070809625 0.19472441 -0.005424216 0.21197827 -0.335297
0.036559895 -0.2626463 0.039654043 -0.09934204 -0.37458307 -0.13210873 0.29010093 0.6535217
-0.3745556 0.3354359 -0.11463596 -0.3015289 0.4370121 -0.0016537508 0.1724236 -0.18162341
0.12026465 -0.5255822 0.44506535 0.13977052 0.014765779 0.09691326 0.17366634 -0.41651526
