lnn/prod_stage1_pi_hlnn.pt (torch, 79709 bytes, 31 tensors)

cell_los.gleak f4 [32]
0	0x3f34ac1c	0.7057512
1	0x3f13de59	0.5776115
2	0x3e55e8f6	0.20889649
3	0x3f4b6b8c	0.7946098
4	0x3e64a151	0.22327162
5	0x3ef0f27d	0.47060004
6	0x3d208184	0.039186016
7	0x3f1a76e5	0.6033767
8	0x3f1cbe45	0.6122783
9	0xbd77c6af	-0.060492214
10	0x3f52ae3e	0.8229712
11	0x3f139b8a	0.5765921
12	0x3f3f867e	0.74814594
13	0x3eb729d6	0.35774106
14	0x3f395e7e	0.7240981
15	0x3e2b9557	0.16756187
16	0x3f4dd2ea	0.80399954
17	0x3ee95cf7	0.4557874
18	0x3e46c037	0.19409262
19	0x3f04db1a	0.5189682
20	0x3e86a1d6	0.26295346
21	0x3eb07749	0.34466007
22	0xbd0ae9b8	-0.033914298
23	0x3f149b79	0.5804973
24	0xbe33cbe7	-0.17558251
25	0xbc0aca47	-0.008471078
26	0x3e8eb332	0.2787109
27	0x3e02f027	0.12786923
28	0x3e9eda3a	0.3102587
29	0xbd83ee6b	-0.06441959
30	0x3f3b62fe	0.73197925
31	0xbeae225b	-0.34010586

cell_los.vleak f4 [32]
0	0x3e04d408	0.12971509
1	0x3d18e642	0.037328966
2	0xbe00ec30	-0.12590098
3	0x3dbe5294	0.09293094
4	0xbc7f008c	-0.015564095
5	0x3de8eef1	0.113736995
6	0xbd489e52	-0.04897911
7	0xbdcdbeeb	-0.1004618
8	0xbb8bf97f	-0.0042716856
9	0xbd88002b	-0.06640657
10	0x3c67dc19	0.014151596
11	0x3e1aa9e7	0.15103875
12	0x3da79238	0.08182186
13	0xbdfac743	-0.122450374
14	0x3dc7d1a9	0.097567864
15	0x3bf8250a	0.007572775
16	0x3dc4c411	0.09607709
17	0xbe18602f	-0.14880441
18	0xbe5606c4	-0.20901018
19	0xbe19662d	-0.14980383
20	0xbe56bf48	-0.20971406
21	0x3e1303ed	0.14356966
22	0x3b1a34ee	0.0023530084
23	0x3d7a5fa3	0.061126363
24	0x3cf3a426	0.029741358
25	0xbd1e8c92	-0.038708277
26	0x3e080df4	0.13286573
27	0xbe4ab095	-0.19793923
28	0xbd1c793b	-0.038201552
29	0xbe295ae2	-0.16538575
30	0x3c2d1eb8	0.010566406
31	0xbe49c4a0	-0.19703913

cell_los.cm f4 [32]
0	0x3f342f1a	0.7038437
1	0x3f2dc4c2	0.67878354
2	0x3f3cb521	0.7371388
3	0x3f19e948	0.60121584
4	0x3f09c137	0.5381045
5	0x3f110327	0.56645435
6	0x3f207793	0.62682456
7	0x3f29fd26	0.664019
8	0x3f57b828	0.84265375
9	0x3f1c33f9	0.61016804
10	0x3f019b5e	0.50627697
11	0x3f180585	0.5938342
12	0x3f139b8f	0.5765924
13	0x3f3f6947	0.74770015
14	0x3f07f842	0.53113186
15	0x3f3326d3	0.69981116
16	0x3f3cf10a	0.73805296
17	0x3eed8544	0.46390736
18	0x3f2ad87c	0.6673658
19	0x3f282e06	0.65695226
20	0x3f2b6750	0.6695452
21	0x3f0c0fef	0.5471181
22	0x3f63e528	0.8902154
23	0x3f0d144d	0.551091
24	0x3f2a2157	0.6645712
25	0x3f3f3957	0.7469687
26	0x3f3f69bc	0.7477071
27	0x3f038eb2	0.5138961
28	0x3f3d6330	0.73979473
29	0x3f477dec	0.77926517
30	0x3f19e78d	0.60118943
31	0x3f63a696	0.88926065

cell_los.w f4 [32, 32]
0	0x3f490e81	0.78537756
1	0x3e084cb7	0.13310514
2	0x3e988b44	0.2979375
3	0xbe2d41bf	-0.16919611
4	0x3e882087	0.26587316
5	0x3f0f1677	0.55893654
6	0x3ed59c5f	0.41720864
7	0x3de20e98	0.1103794
8	0x3f0a23af	0.539607
9	0x3cbc8e38	0.023017034
10	0x3c01e38c	0.007927787
11	0x3e11f6e3	0.14254336
12	0xbe38a725	-0.1803251
13	0x3d5f8aca	0.05457572
14	0x3f70a32b	0.93998975
15	0x3ead3e6c	0.33836687
16	0x3f347cc2	0.70502865
17	0x3d3ecbcd	0.04658108
18	0x3b77188a	0.0037703835
19	0x3e9a56a9	0.3014424
20	0x3f0951f3	0.5364067
21	0xbe745ce0	-0.23863554
22	0x3d8b3fa6	0.06799249
23	0x3d4c9980	0.049951077
24	0x3d5e65eb	0.054296415
25	0x3e1cb7e3	0.15304522
26	0x3ef23dc9	0.47312763
27	0x3d1bf1cf	0.038072404
28	0x3e1e1ef3	0.15441494
29	0x3de05c9d	0.109551646
30	0x3e4b164c	0.19832724
31	0xbb4ba50d	-0.003107372
32	0x3f289f2b	0.6586787
33	0x3e8b8b5c	0.2725476
34	0x3f4da0dd	0.8032358
35	0x3f118394	0.568414
36	0x3d336447	0.043796804
37	0x3f5b837b	0.857475
38	0x3ea1f0ec	0.3162912
39	0x3ec5a5b9	0.38603
40	0xbcba6094	-0.02275113
41	0xbd598d98	-0.05311355
42	0x3f210c7b	0.6290967
43	0x3e63dbc8	0.22251809
44	0x3f142199	0.57863766
45	0x3dacf2a6	0.08444719
46	0x3f73a2b7	0.9517016
47	0xbd798617	-0.060918894
48	0x3f07e80c	0.5308845
49	0x3ee65fd7	0.44994995
50	0x3f122f7e	0.5710372
51	0x3f3ed04c	0.74536586
52	0x3f58bb61	0.8466092
53	0xbd297b25	-0.041377205
54	0x3f3091f5	0.6897271
55	0x3e3317ae	0.17489502
56	0x3d372ab5	0.044718463
57	0x3d29aa73	0.04142232
58	0x3f5bb5c8	0.8582425
59	0x3d70a8b3	0.058754634
60	0x3f15e199	0.5854736
61	0x3f3be4e7	0.7339615
62	0x3f089276	0.5334848
63	0xbddb7b85	-0.10716919
64	0x3f2d0e8f	0.6760034
65	0x3f088ea6	0.53342664
66	0x3ee1d504	0.4410783
67	0xbe81a9b2	-0.2532478
68	0x3f148742	0.5801889
69	0x3ea6bd27	0.32566187
70	0x3e8ed1f6	0.27894562
71	0x3f594dd0	0.8488436
72	0x3f0c42bf	0.54789346
73	0x3e15d59f	0.14632271
74	0x3e84b8a6	0.25922126
75	0x3eec934a	0.46206123
76	0x3f3b0842	0.73059475
77	0x3e469362	0.1939216
78	0x3e575ea6	0.210322
79	0x3dba7266	0.09103851
80	0x3e04d69a	0.12972489
81	0x3ee42ff2	0.4456783
82	0x3f4ef42e	0.8084134
83	0xbd32891d	-0.043587793
84	0x3f0077f5	0.5018304
85	0x3f1a2fb3	0.60229033
86	0x3ee4d8f2	0.44696766
87	0x3e474f35	0.19463809
88	0x3f15da55	0.58536273
89	0x3f2b6ccf	0.66962904
90	0x3f26dcff	0.65180963
91	0x3eac01f6	0.33595246
92	0x3e975a43	0.29561052
93	0x3f00d95f	0.5033168
94	0x3eb7a807	0.35870382
95	0x3e1c651b	0.15272944
96	0x3f284321	0.6572743
97	0x3f0b41ed	0.5439747
98	0x3ec623e2	0.3869925
99	0x3e2ee7dd	0.17080636
100	0x3eea0c09	0.45712307
101	0x3e8d10c6	0.2755186
102	0x3f0502db	0.5195748
103	0x3f083f24	0.53221345
104	0xbd1e72a8	-0.038683563
105	0x3e7329be	0.23746392
106	0x3f56c2f1	0.83891207
107	0x3f2d05cb	0.67586964
108	0x3e73a77c	0.23794359
109	0x3d4c7311	0.049914423
110	0x3e3130be	0.1730375
111	0xbe5b1e5f	-0.21398304
112	0x3e5eb52a	0.21748796
113	0x3f0c0e98	0.5470977
114	0x3f40a9e4	0.7525923
115	0x3f397e35	0.724582
116	0xbde46cba	-0.111535504
117	0xbcb3bef3	-0.021941638
118	0x3e802c87	0.25033972
119	0x3f60fd9d	0.87886983
120	0x3e3ddc5f	0.18541096
121	0x3e03254a	0.12807193
122	0x3eccf524	0.40030777
123	0x3dd45fe6	0.10369854
124	0x3dd59bc9	0.10430104
125	0x3f3f26ac	0.74668384
126	0x3e79d179	0.24396314
127	0x3ce6d329	0.02817686
128	0xbe1f2038	-0.15539634
129	0x3f03ba62	0.5145627
130	0x3f399e6a	0.72507346
131	0x3f077b50	0.52922535
132	0xbdc6e821	-0.09712244
133	0xbe9140f8	-0.2836988
134	0x3d6b2072	0.05740399
135	0x3f4e01fa	0.80471766
136	0x3f0805bd	0.53133756
137	0x3f58aa20	0.8463459
138	0x3f265cc7	0.64985317
139	0x3f2051c8	0.6262479
140	0x3e8af3c9	0.27139118
141	0x3d8c0fac	0.06838927
142	0x3d91585a	0.0709693
143	0xbe0d2137	-0.13782202
144	0x3f24fe23	0.6445028
145	0x3e55fe0b	0.20897691
146	0x3e6b6823	0.22988944
147	0x3e0dee38	0.13860404
148	0x3e9447a6	0.28960913
149	0x3c90a047	0.017654551
150	0xbd105ba8	-0.03524366
151	0x3ecd93fb	0.40151963
152	0x3d87553f	0.06608056
153	0x3f32b7a8	0.6981149
154	0x3ea59455	0.3233973
155	0x3d9584c1	0.073007114
156	0x3eb608c5	0.35553566
157	0x3e470a8c	0.19437617
158	0x3de2883e	0.110611424
159	0xbe7ad3c8	-0.2449485
160	0x3f1fbc38	0.62396574
161	0xbe4667a2	-0.1937547
162	0x3f2a6329	0.66557556
163	0x3f02f30e	0.5115212
164	0x3f3b1e02	0.73092663
165	0x3cdfad76	0.027304392
166	0x3f509397	0.81475204
167	0x3df9c6cc	0.121961206
168	0x3f262cc8	0.6491208
169	0x3f5cd8d5	0.8626836
170	0x3ec21ee6	0.379142
171	0x3eb25154	0.34827673
172	0x3ebb06a8	0.36528516
173	0xbe3b2398	-0.18275297
174	0x3f2c644b	0.67340535
175	0xbdc09bb8	-0.09404701
176	0x3f585412	0.8450328
177	0x3f335730	0.7005491
178	0x3f5c0247	0.85940975
179	0x3ea3f74a	0.32024604
180	0xbc37417e	-0.011185048
181	0x3e75c7b5	0.24001963
182	0x3f291efa	0.6606289
183	0xbe56d394	-0.20979148
184	0x3e585d24	0.2112928
185	0x3e266b4d	0.1625187
186	0x3ebcc1f3	0.36866722
187	0x3d9b1b0b	0.075735174
188	0x3e023002	0.12713626
189	0x3e32f2f5	0.17475493
190	0xbd313ad3	-0.04326899
191	0x3f3c4b77	0.7355265
192	0x3f1ebdb0	0.6200819
193	0x3df081e1	0.117435224
194	0x3ec3e6ec	0.38262117
195	0x3d96b1a6	0.073581025
196	0xbe1e45b4	-0.15456277
197	0xbe8f3869	-0.27972725
198	0x3f3921a5	0.7231696
199	0xbd04725a	-0.032335617
200	0x3dcaf1a2	0.09909369
201	0x3e759888	0.23983967
202	0x3e26c331	0.16285397
203	0x3eaad856	0.33368176
204	0x3efdd32f	0.49575183
205	0x3ea9cc14	0.33163512
206	0x3ea12af4	0.31478083
207	0x3e0f6542	0.1400347
208	0x3dafda6e	0.08586584
209	0x3f50a729	0.81505066
210	0x3e5a7095	0.21332009
211	0x3f028c31	0.50995165
212	0x3e88ecac	0.26743066
213	0x3ee1f797	0.4413421
214	0x3f5c272d	0.8599728
215	0x3f1655e4	0.5872481
216	0xbe206e66	-0.15667114
217	0x3ee10535	0.43949285
218	0x3f6cc0b3	0.92481536
219	0x3ee990bc	0.45618236
220	0x3f308bc3	0.6896326
221	0x3f650aaa	0.894694
222	0x3e4840cf	0.19555973
223	0x3e7e89ad	0.24857207
224	0xbdf8012d	-0.12109599
225	0x3e2b4a35	0.16727526
226	0x3f4498ad	0.76795465
227	0x3f2be097	0.6713957
228	0x3db2a7df	0.08723425
229	0xbe1a0ab3	-0.15043144
230	0x3d60c8fa	0.054879166
231	0xbe714a89	-0.23563589
232	0x3cd13460	0.02553767
233	0x3e062a24	0.13102013
234	0x3f497da3	0.7870733
235	0x3f1586a3	0.58408564
236	0x3c019e6d	0.007911307
237	0x3d740354	0.059573486
238	0x3f3b25bd	0.7310446
239	0xbe0a2ca7	-0.13493596
240	0x3ef2aa7b	0.4739569
241	0x3f1c33b2	0.6101638
242	0x3e1be89b	0.1522545
243	0x3ec9bd73	0.3940235
244	0x3eca8a49	0.39558628
245	0x3ea138f3	0.3148876
246	0x3dcc1e56	0.099667236
247	0xbda12eb9	-0.0787024
248	0xbe1be797	-0.15225063
249	0x3e362ecc	0.17791289
250	0x3f6a99b5	0.9164079
251	0x3e5d2cb9	0.21599092
252	0x3ce745d6	0.028231543
253	0x3f04dc66	0.518988
254	0x3f03bbfb	0.5145871
255	0x3f10189a	0.5628754

cell_los.erev f4 [32, 32]
0	0x3b25b736	0.0025286204
1	0xbdaec924	-0.08534458
2	0x3d0d7313	0.03453357
3	0x3d93d416	0.072181866
4	0x3e8559b5	0.26045004
5	0xbe44abf6	-0.19206223
6	0x3dc0d455	0.09415499
7	0x3e6b07aa	0.22952142
8	0x3e4473d7	0.19184814
9	0x3ddb9e8f	0.10723602
10	0xbe2acea1	-0.16680385
11	0x3e19f817	0.15036045
12	0x3baa8ed9	0.005205017
13	0xbe295424	-0.16536003
14	0x3e1fe3a6	0.15614185
15	0xbd336822	-0.04380048
16	0xbdcd96f6	-0.10038559
17	0x3e8087f2	0.25103718
18	0xbd442de1	-0.047895316
19	0xbe1cb041	-0.1530161
20	0x3d1d2e3c	0.03837417
21	0x3d032b30	0.03202361
22	0x3d90c4ce	0.070687875
23	0xbd9733ab	-0.07382902
24	0xbd791902	-0.060814865
25	0xbb0425d9	-0.002016416
26	0xbe089a39	-0.13340081
27	0xbe042f9f	-0.12908791
28	0x3e325422	0.17414907
29	0x3d863fde	0.065551504
30	0xbdad0029	-0.08447296
31	0x3e4e06f2	0.20119837
32	0x3df95e40	0.1217618
33	0x3e292c61	0.16520835
34	0xbdd290bc	-0.10281512
35	0x3e9af0d5	0.30261865
36	0x3e507389	0.20356573
37	0x3e8378e7	0.2567818
38	0xbdfb881a	-0.12281819
39	0x3ea54174	0.322765
40	0x3e11daac	0.14243573
41	0x3e361fed	0.17785616
42	0x3e6884ae	0.22706863
43	0x3d7e8c9e	0.06214582
44	0xbdcde8da	-0.100541785
45	0x3e76ede2	0.24114183
46	0xbe698de3	-0.22808032
47	0x3e1a1c7b	0.15049927
48	0xbe8bd04f	-0.27307364
49	0x3dbf8bef	0.09352862
50	0x3d919695	0.07108799
51	0xbcd6b083	-0.026207214
52	0xbc866c91	-0.01640919
53	0x3e96c379	0.2944601
54	0x3e9e3f04	0.30907452
55	0x3e307dd8	0.17235506
56	0x3cb51a0f	0.022107152
57	0x3de72d20	0.11287904
58	0x3de1bd73	0.11022463
59	0x3dc96aad	0.098348
60	0x3d4f0025	0.050537247
61	0x3e1147ee	0.14187595
62	0xbdebf7e7	-0.11521893
63	0xbdc02cef	-0.093835704
64	0x3cc84804	0.024448402
65	0xbda0c14f	-0.07849371
66	0xbd21b354	-0.03947766
67	0x3e143fdf	0.1447749
68	0x3c87aa26	0.016560625
69	0x3dcf5329	0.101232834
70	0xbdf91b4e	-0.12163411
71	0x3e1425ed	0.14467593
72	0x3e22fc00	0.15916443
73	0xbe15ddef	-0.14635442
74	0xbe48fad8	-0.1962694
75	0xbe23b791	-0.15987994
76	0xbdeafe69	-0.11474306
77	0xbda4a617	-0.080394916
78	0xbc935245	-0.017983565
79	0xbd825745	-0.063643016
80	0xbddbf5fc	-0.10740277
81	0xbd87473d	-0.066053845
82	0xbd900501	-0.070322044
83	0x3e0ba917	0.13638721
84	0xbdfa0cc5	-0.12209467
85	0xbdd5b7f7	-0.10435479
86	0x3dab7d37	0.08373492
87	0xbc8113c5	-0.015756497
88	0x3e36e066	0.17859039
89	0x3dd94e17	0.106105976
90	0x3e3bbfdd	0.18334909
91	0xbe33aaf4	-0.17545682
92	0x3dd90338	0.10596317
93	0x3e1b9b2d	0.15195914
94	0xbde6ed1e	-0.11275695
95	0x3e0b307d	0.13592716
96	0x3e11ec3a	0.1425027
97	0x3c7beb56	0.015375933
98	0x3d1a4e61	0.037672404
99	0xbc4544d3	-0.012040335
100	0xbe464407	-0.19361888
101	0x3ca9b9a4	0.020718403
102	0x3b347ec0	0.002754137
103	0xbe05e9db	-0.1307749
104	0x3dd24324	0.10266712
105	0xbe246798	-0.16055143
106	0x3de5d3b0	0.11222017
107	0x3e3d0a9b	0.18461077
108	0x3d03fd5b	0.03222404
109	0xbdfd63f3	-0.123725794
110	0x3db48227	0.08813887
111	0x3cf814bf	0.03028333
112	0x3d29bde1	0.04144085
113	0x3d66b99d	0.05632936
114	0x3e226548	0.15858948
115	0xbe25e59c	-0.1620087
116	0xbdbcd056	-0.092194244
117	0x3dc82aa2	0.097737566
118	0x3cfbe942	0.030750874
119	0x3e1e9dc9	0.15489878
120	0xbdc71556	-0.097208664
121	0xbc51f075	-0.012813677
122	0x3c7beacb	0.015375803
123	0xbdb5d83f	-0.08879136
124	0x3df3be9b	0.119015895
125	0x3ba86081	0.0051384573
126	0xbe526994	-0.20548087
127	0x3cf49499	0.029856013
128	0xbd8fe1ff	-0.07025527
129	0x3d8b7143	0.06808712
130	0xbd519b38	-0.05117342
131	0xbe0f0f31	-0.13970639
132	0xbd3d8cd8	-0.046276897
133	0xbd12312f	-0.035691436
134	0xbda829e8	-0.08211118
135	0x3e3541fc	0.17700952
136	0xbc4e6b43	-0.012598815
137	0x3e2061f9	0.15662374
138	0x3adb7e36	0.0016745988
139	0xbe391e5a	-0.18077984
140	0x3d63682d	0.05551927
141	0x3e3ec256	0.18628821
142	0xbe0f960b	-0.1402208
143	0xbe045cae	-0.1292598
144	0x3e1dc6c1	0.1540785
145	0x3e3661a0	0.17810678
146	0xbdb9713a	-0.090547994
147	0x3d8e71a3	0.06955268
148	0xbd5b7614	-0.053579405
149	0xbe13a90e	-0.14419958
150	0x3d5220e4	0.0513009
151	0x3d9f56ae	0.07780205
152	0xbde6987a	-0.11259551
153	0x3db054c8	0.08609921
154	0xbe375e6b	-0.17907111
155	0x3df376a6	0.11887865
156	0x3e247629	0.160607
157	0x3deb9b26	0.115042016
158	0x3c9f89a9	0.019474821
159	0x3d3a1f91	0.04544026
160	0xbd61dc17	-0.055141535
161	0xbc17b793	-0.009260076
162	0xbb9fe14c	-0.0048791524
163	0xbd6045b4	-0.054753974
164	0xbe0076d0	-0.12545323
165	0x3e13309e	0.14374015
166	0x3de1461d	0.10999701
167	0xbdfd88b5	-0.123795904
168	0x3e070f98	0.13189542
169	0x3df0cd14	0.117578655
170	0x3e26606d	0.16247721
171	0x3d914afe	0.07094382
172	0x3e5b4f0b	0.21416871
173	0xbc93938c	-0.018014692
174	0x3dcc8d3d	0.099878766
175	0x3e3b2801	0.18276979
176	0xbe6fc43c	-0.23414701
177	0xbdccaf4d	-0.099943735
178	0x3db1aa31	0.086750396
179	0x3d964a89	0.07338435
180	0xbde9b759	-0.11411924
181	0x3d58604c	0.05282621
182	0x3da744f7	0.08167451
183	0x3dd9835e	0.106207594
184	0xbe417d21	-0.18895389
185	0x3e1f1349	0.155347
186	0x3dd015a8	0.101603806
187	0xbdce9094	-0.1008617
188	0x3c623604	0.013806824
189	0x3d059f10	0.032622397
190	0x3df21f34	0.11822358
191	0x3e1bc523	0.1521192
192	0x3d35e8ae	0.044411354
193	0xbd1a5c80	-0.03768587
194	0x3e0a8546	0.13527402
195	0xbd7e9647	-0.062155034
196	0xbdbcf951	-0.09227241
197	0xbc99b5d7	-0.018763466
198	0xbe53ddb7	-0.20690046
199	0xbb6c171b	-0.0036024514
200	0xbe0548b5	-0.13016017
201	0x3c81f606	0.015864383
202	0xbce4f844	-0.027950414
203	0x3c68d261	0.0142103145
204	0xbe45c9c5	-0.1931525
205	0xbe5a67fe	-0.21328732
206	0x3da06be1	0.07833076
207	0x3e18b363	0.1491218
208	0xbe3ca343	-0.18421654
209	0x3d778b9b	0.060435873
210	0xbe1724d2	-0.1476014
211	0xbd4e358f	-0.050344046
212	0x3e0d4807	0.13797008
213	0x3e1006c8	0.14065087
214	0xbe2395d6	-0.15975127
215	0x3de06af4	0.109579
216	0x3d963f95	0.07336346
217	0xbcd687a7	-0.026187731
218	0x3e37a7ab	0.17935054
219	0xbde9e8fe	-0.11421393
220	0xbdb07ec8	-0.086179316
221	0xbdf9b6a5	-0.1219304
222	0xbbf1f65d	-0.007384105
223	0x39002c4d	0.00012223535
224	0x3d816445	0.06317953
225	0xbd37159f	-0.044698354
226	0xbdce4b07	-0.10072904
227	0x3e4c9bc9	0.19981302
228	0xbe1f593b	-0.15561382
229	0xbca527c2	-0.02016056
230	0xbc670af2	-0.014101731
231	0xbcfda1fe	-0.030961033
232	0x3dc6707e	0.09689425
233	0x3d36e7b9	0.04465458
234	0x3dfbaa98	0.122883976
235	0xbd00019f	-0.031251546
236	0xbd9e87ef	-0.07740771
237	0x3e3ccf11	0.18438365
238	0x3c652430	0.013985679
239	0xbd3cf2c5	-0.04612996
240	0xbe383fc7	-0.17993079
241	0x3d64923c	0.055803522
242	0xbe2bf01c	-0.16790813
243	0x3d0df5b8	0.034658164
244	0x3d823014	0.063568264
245	0xbe216ab0	-0.15763354
246	0xbdd17995	-0.10228268
247	0xbdcd34de	-0.10019849
248	0x3db7cfc0	0.08975172
249	0x3e3586bd	0.1772718
250	0xbc4ece06	-0.012622362
251	0x3e364e92	0.1780341
252	0xbce93832	-0.028469179
253	0xbe09cdf2	-0.13457468
254	0x3dbeec7d	0.0932245
255	0x3db3bf91	0.08776773

cell_los.mu f4 [32, 32]
0	0x3f5c8da4	0.86153626
1	0x3f7d5650	0.9895983
2	0x3f1cac7b	0.61200684
3	0x3ef19ede	0.4719152
4	0x3f2d82ad	0.6777752
5	0x3f21a7ef	0.6314687
6	0x3f13881a	0.5762955
7	0x3eb54431	0.35403588
8	0x3ef06ab1	0.469564
9	0x3f10d4fb	0.5657498
10	0x3f5c0112	0.85939133
11	0x3f4eeab0	0.80826855
12	0x3f7bd188	0.98366594
13	0x3f584026	0.8447288
14	0x3ee432ef	0.4457011
15	0x3f32b1ab	0.6980235
16	0x3ecb978c	0.3976406
17	0x3ee49b38	0.44649673
18	0x3f6a4c57	0.91522735
19	0x3f2b6cbc	0.6696279
20	0x3f4b5230	0.79422283
21	0x3f501a49	0.8129011
22	0x3f0dcf8a	0.55394804
23	0x3f21260d	0.62948686
24	0x3f950acf	1.1643924
25	0x3f5dfaa2	0.8671056
26	0x3f1ebfa8	0.62011194
27	0x3f188156	0.5957235
28	0x3ea95cf0	0.33078718
29	0x3f058be9	0.5216661
30	0x3f4fffdc	0.81249785
31	0x3f0f14d1	0.5589114
32	0x3f6ea74b	0.9322402
33	0x3f4b2b85	0.7936328
34	0x3f0c91ed	0.54910165
35	0x3f4ded8e	0.80440605
36	0x3f03e4a3	0.51520747
37	0x3f077669	0.52915055
38	0x3ef66925	0.48127094
39	0x3e859fc6	0.2609846
40	0x3f306251	0.6890002
41	0x3f2f1bee	0.6840199
42	0x3ede9c9a	0.43478853
43	0x3f71457e	0.9424666
44	0x3ed9f2aa	0.4256795
45	0x3eab5bf0	0.3346858
46	0x3eaa39ea	0.3324731
47	0x3f2c7400	0.673645
48	0x3ecf9450	0.4054284
49	0x3f299b9b	0.6625306
50	0x3f5c7248	0.8611188
51	0x3efe6747	0.4968817
52	0x3f32e674	0.69882894
53	0x3f308130	0.68947124
54	0x3f0e64de	0.5562266
55	0x3f6945b8	0.9112201
56	0x3f915ee5	1.1357085
57	0x3f019913	0.506242
58	0x3ed97425	0.42471424
59	0x3f107fc0	0.5644493
60	0x3f1c3ef5	0.61033565
61	0x3f200eaa	0.62522376
62	0x3f2cff2d	0.6757687
63	0x3f8b6713	1.0890831
64	0x3f6e8f49	0.93187386
65	0x3f1d69e5	0.6148971
66	0x3f2d00a9	0.6757913
67	0x3f6c348e	0.9226769
68	0x3f26de25	0.65182716
69	0x3f5c365a	0.86020434
70	0x3eb1a6cd	0.3469757
71	0x3f40cb3c	0.7531011
72	0x3eec5de0	0.4616537
73	0x3ed43e1e	0.41453642
74	0x3ef6114d	0.48060074
75	0x3f2f7b55	0.68547565
76	0x3f46875f	0.7755031
77	0x3f4cf247	0.80057186
78	0x3f08175f	0.5316066
79	0x3f47672f	0.7789182
80	0x3ee73982	0.45161062
81	0x3f44e95b	0.7691857
82	0x3f23b151	0.6394244
83	0x3f56476c	0.8370273
84	0x3f516118	0.8178878
85	0x3eee4355	0.46535745
86	0x3f32beec	0.69822574
87	0x3f10cce1	0.5656262
88	0x3f35e6e2	0.71055424
89	0x3ee4ef59	0.44713858
90	0x3f26b81c	0.6512468
91	0x3ee357aa	0.4440282
92	0x3f5ee995	0.8707517
93	0x3f4a80c5	0.79102737
94	0x3edf8370	0.43654966
95	0x3f0616c3	0.5237848
96	0x3f391d00	0.72309875
97	0x3f60817b	0.8769757
98	0x3f2fc8ab	0.6866557
99	0x3f103fde	0.56347454
100	0x3f33c54a	0.70222914
101	0x3f071d6b	0.52779263
102	0x3f05d011	0.5227061
103	0x3f066f17	0.5251326
104	0x3f4202c4	0.7578547
105	0x3f1fcf59	0.6242576
106	0x3ec96314	0.39333403
107	0x3ed61713	0.4181448
108	0x3f2c082d	0.67199975
109	0x3ef31d86	0.47483462
110	0x3f192752	0.59825623
111	0x3f695b70	0.9115515
112	0x3f1f8610	0.6231394
113	0x3f12dd85	0.5736926
114	0x3f1da4e2	0.61579716
115	0x3ec01c90	0.3752179
116	0x3f12d2eb	0.57353085
117	0x3f41c6b2	0.7569381
118	0x3f72cbfd	0.9484251
119	0x3f14866b	0.58017606
120	0x3f871b57	1.0555218
121	0x3f34d308	0.7063451
122	0x3f4431ed	0.7663868
123	0x3f06f4a8	0.52717066
124	0x3f54c64a	0.83115065
125	0x3f6b8a15	0.9200757
126	0x3f12a55a	0.57283556
127	0x3f8ad863	1.0847286
128	0x3f69f483	0.9138872
129	0x3f80762a	1.0036061
130	0x3f560465	0.83600456
131	0x3ee12f1f	0.43981263
132	0x3f10f3f0	0.5662222
133	0x3f283f54	0.6572163
134	0x3f2a442c	0.6651027
135	0x3ed03c56	0.40671033
136	0x3f10fdcd	0.5663727
137	0x3f015160	0.50514793
138	0x3edb2bc1	0.4280682
139	0x3f0d0296	0.5508207
140	0x3f50dfb1	0.81591326
141	0x3eeabb8c	0.45846212
142	0x3f366afe	0.7125701
143	0x3f1ff5ca	0.6248442
144	0x3f0a2422	0.53961384
145	0x3f499e9c	0.78757644
146	0x3f6f855e	0.9356288
147	0x3f18f757	0.5975241
148	0x3efc04b3	0.49222335
149	0x3f0a92c5	0.541302
150	0x3f4b502e	0.7941922
151	0x3f76478c	0.9620292
152	0x3f7568c8	0.9586301
153	0x3f0d5aa7	0.5521645
154	0x3eaa4dc1	0.33262447
155	0x3ecb2226	0.3967449
156	0x3f079621	0.52963454
157	0x3f1e8969	0.6192842
158	0x3f2de958	0.6793418
159	0x3f1f6232	0.6225921
160	0x3f3b9dbf	0.73287576
161	0x3f365396	0.7122129
162	0x3ee30d3d	0.44346038
163	0x3f085f5c	0.53270507
164	0x3f1ad0a8	0.60474634
165	0x3f5caaaf	0.8619794
166	0x3f320eeb	0.69554013
167	0x3f290af1	0.6603232
168	0x3f23f0a1	0.64039046
169	0x3f42114e	0.75807655
170	0x3f1ac001	0.60449225
171	0x3ef3212f	0.47486255
172	0x3ed91e2d	0.42405835
173	0x3f26263e	0.649021
174	0x3f1bc60b	0.60849065
175	0x3ed8d0a0	0.42346668
176	0x3ef2b430	0.47403097
177	0x3f2192d2	0.63114655
178	0x3f68daba	0.9095875
179	0x3f514ca1	0.8175755
180	0x3f4c5c5f	0.7982845
181	0x3f72ce1a	0.94845736
182	0x3f167cc6	0.5878414
183	0x3f5478a6	0.82996595
184	0x3f062eb8	0.5241504
185	0x3ef9a7d0	0.48760843
186	0x3f14b99b	0.5809571
187	0x3f2b29e0	0.6686077
188	0x3ef8fde4	0.48631203
189	0x3f51d1a4	0.8196051
190	0x3f5a11e0	0.85183525
191	0x3f17bf73	0.59276503
192	0x3f6b42aa	0.91898596
193	0x3f54f5aa	0.83187354
194	0x3f1a2605	0.60214263
195	0x3f48e3cc	0.7847259
196	0x3f78d8b0	0.9720564
197	0x3f61bb35	0.8817628
198	0x3eb53cb4	0.35397875
199	0x3f38777a	0.72057307
200	0x3f40789e	0.7518405
201	0x3f5b03c7	0.8555264
202	0x3f39ee76	0.7262949
203	0x3f040504	0.51570153
204	0x3ef225df	0.47294518
205	0x3f0619d8	0.52383184
206	0x3edc9d89	0.4308894
207	0x3f3673c3	0.7127039
208	0x3f20d3a1	0.6282292
209	0x3f5952b2	0.8489181
210	0x3f153e7d	0.58298475
211	0x3f312db5	0.6921037
212	0x3f45a389	0.7720266
213	0x3f4200dd	0.7578257
214	0x3f30373e	0.6883429
215	0x3f457463	0.7713072
216	0x3f482062	0.7817441
217	0x3f1990ab	0.5998637
218	0x3f1c0232	0.6094085
219	0x3f2c12b9	0.6721607
220	0x3f6c03f3	0.92193526
221	0x3f602470	0.875556
222	0x3f559e30	0.834445
223	0x3f907f93	1.1288933
224	0x3f32e07e	0.698738
225	0x3f7fa6ef	0.99864095
226	0x3f5e6309	0.86869866
227	0x3f206560	0.62654686
228	0x3ee15301	0.4400864
229	0x3f38bae7	0.7216019
230	0x3f16a951	0.58852106
231	0x3f4c71b2	0.79860985
232	0x3ed8120e	0.42201275
233	0x3f581c57	0.84418243
234	0x3efe62f9	0.49684885
235	0x3ef79de8	0.4836266
236	0x3f0819fb	0.53164643
237	0x3f0a1923	0.53944606
238	0x3ea9b787	0.33147833
239	0x3f2e87d0	0.68175983
240	0x3f0a00a4	0.5390723
241	0x3f5843e9	0.8447862
242	0x3f6489c1	0.89272696
243	0x3ed4afb1	0.41540292
244	0x3f37e5e0	0.71835136
245	0x3eee7ccb	0.46579584
246	0x3f010c97	0.50409836
247	0x3f2bee6a	0.67160666
248	0x3f2584e4	0.646559
249	0x3ecb352b	0.39689
250	0x3ec37065	0.38171688
251	0x3edced14	0.43149626
252	0x3f65ac68	0.89716196
253	0x3f4ae5b0	0.79256725
254	0x3f13b471	0.57697207
255	0x3f170ea7	0.5900673

cell_los.sigma f4 [32, 32]
0	0x40f1ad3d	7.5523973
1	0x40937c92	4.6089563
2	0x40f5b3a9	7.678181
3	0x40e89523	7.268205
4	0x40f86bfb	7.763181
5	0x4046e4a6	3.1077056
6	0x40b27872	5.577203
7	0x4098922e	4.767844
8	0x40c37f9f	6.1093287
9	0x4070383c	3.7534323
10	0x40d1938b	6.5492606
11	0x40adbe2f	5.429466
12	0x40928a86	4.5794096
13	0x40568532	3.3518796
14	0x40da6557	6.8248706
15	0x409b09ac	4.8449306
16	0x40e9c968	7.3058357
17	0x40bf68cb	5.981542
18	0x40cdf035	6.435572
19	0x40a5c535	5.180323
20	0x40a6bf30	5.2108383
21	0x409aef44	4.841707
22	0x4066deb5	3.607343
23	0x40e6e96b	7.2159934
24	0x40892033	4.2851806
25	0x40e4411d	7.1329484
26	0x40954a7a	4.6653414
27	0x40e5def9	7.1834683
28	0x40f66513	7.699838
29	0x40830bf1	4.0952077
30	0x40f5d631	7.6823964
31	0x40b66d39	5.700833
32	0x4076fab3	3.8590515
33	0x40d804f9	6.750607
34	0x40df6d6d	6.9821076
35	0x40f74d35	7.7281747
36	0x404d1288	3.204256
37	0x40f8752b	7.7643027
38	0x40ee0440	7.438019
39	0x40ffbfea	7.992177
40	0x40de0e9d	6.939284
41	0x408baa53	4.3645415
42	0x40ed57ac	7.416952
43	0x41000b45	8.002751
44	0x40928807	4.579105
45	0x40a5a05c	5.175825
46	0x40ee172b	7.440328
47	0x40f6bdab	7.710653
48	0x40e246dc	7.07115
49	0x40f295f1	7.5808034
50	0x408d6bf4	4.419428
51	0x40a7e06a	5.2461443
52	0x4093c459	4.617718
53	0x40dc258f	6.879585
54	0x40c3ed06	6.1226835
55	0x406c585f	3.6928937
56	0x40b2c9b5	5.5871224
57	0x40657f50	3.5858955
58	0x404c18d8	3.1890163
59	0x40fb9387	7.8617587
60	0x408e22b5	4.4417367
61	0x40d52c65	6.6616693
62	0x40a0f00e	5.0293036
63	0x40aa618b	5.324407
64	0x40ba07d1	5.813454
65	0x40f47374	7.6390934
66	0x40a89de7	5.269275
67	0x40f95508	7.79163
68	0x40e3266d	7.0984406
69	0x40ea695e	7.325362
70	0x404ea471	3.2287867
71	0x408d597d	4.417174
72	0x40648c7e	3.571075
73	0x40a1c9f9	5.055905
74	0x409e4b90	4.946724
75	0x40c06f9e	6.013625
76	0x40f95341	7.791413
77	0x40db1824	6.846697
78	0x40706353	3.7560623
79	0x4085eb11	4.1849446
80	0x40ec547c	7.385313
81	0x40c05fce	6.011695
82	0x40cc1dab	6.3786216
83	0x4088a559	4.270184
84	0x40aa5062	5.3223124
85	0x40c8770a	6.264531
86	0x40811647	4.0339694
87	0x40ec87f8	7.3915977
88	0x40de3aa9	6.9446607
89	0x4084b0d0	4.1465836
90	0x40906005	4.511721
91	0x409fc41e	4.99269
92	0x40beeefe	5.966674
93	0x40949104	4.642702
94	0x40febe63	7.9607406
95	0x405609b3	3.344342
96	0x40881d19	4.253552
97	0x408ca360	4.394943
98	0x40c7bea8	6.2420235
99	0x40bedcf6	5.964473
100	0x409a90b1	4.8301625
101	0x40fae63b	7.8406043
102	0x405d663b	3.4593647
103	0x40cf363e	6.4753714
104	0x40875dda	4.2302065
105	0x40a04968	5.0089607
106	0x404ba94c	3.182208
107	0x40685e0c	3.6307402
108	0x40671b5a	3.6110444
109	0x40d7ddf5	6.7458444
110	0x40922713	4.56727
111	0x40e22cae	7.067954
112	0x40885ea7	4.2615542
113	0x40a03bbb	5.0072913
114	0x40bbf6b9	5.8738675
115	0x40f5c90e	7.680793
116	0x409fd756	4.995036
117	0x40e3b216	7.115489
118	0x40cca23f	6.3948054
119	0x40e44f0e	7.13465
120	0x40ecdefe	7.4022207
121	0x40d8f86f	6.7803264
122	0x409df788	4.936466
123	0x40a12dfb	5.036863
124	0x40d1a47d	6.551329
125	0x40e0344a	7.006383
126	0x40ac4d6b	5.3844504
127	0x40e3c11b	7.1173224
128	0x40851798	4.15913
129	0x40e79abc	7.2376385
130	0x40ab34f0	5.350212
131	0x4075ac72	3.8386502
132	0x40912df6	4.5368605
133	0x407b5149	3.9268363
134	0x40c17085	6.0449853
135	0x40836f7a	4.107358
136	0x40a0a002	5.019532
137	0x40adb1c4	5.42795
138	0x408297c6	4.081027
139	0x40b20ece	5.564307
140	0x40ad03a7	5.406696
141	0x40cb8ee0	6.361191
142	0x40e9dc7e	7.3081656
143	0x4084f562	4.154954
144	0x40dd5a83	6.917299
145	0x40b016b6	5.5027723
146	0x4087d768	4.2450447
147	0x408e75a4	4.4518604
148	0x40c83f22	6.2577066
149	0x40c2cfe1	6.087876
150	0x40b4e574	5.6530094
151	0x409097dd	4.518538
152	0x40e014d5	7.002543
153	0x40bfc38c	5.9926205
154	0x40468138	3.101637
155	0x40a48bac	5.14205
156	0x409c9fba	4.894498
157	0x409052b3	4.510095
158	0x408b7bcb	4.3588614
159	0x4070f268	3.7647953
160	0x4101ef1e	8.120878
161	0x4066c4dd	3.6057656
162	0x40fd6d68	7.9196053
163	0x406995fb	3.649779
164	0x409fe888	4.997135
165	0x40927695	4.5769753
166	0x40874801	4.2275395
167	0x40d033a3	6.5063033
168	0x40e01a02	7.003175
169	0x407e5c6b	3.9743907
170	0x408cdb55	4.401774
171	0x40da0581	6.813172
172	0x40a84234	5.2580814
173	0x40cbeb34	6.3724613
174	0x40db3587	6.850284
175	0x40962ec5	4.693209
176	0x40834791	4.102486
177	0x40d2b2ca	6.584325
178	0x40968872	4.704156
179	0x407a719f	3.913185
180	0x408b0b53	4.3451324
181	0x40991b13	4.784555
182	0x410242bc	8.141293
183	0x40c6a470	6.207573
184	0x40d4ad1c	6.6461315
185	0x40bd0f08	5.908085
186	0x40784d18	3.8797054
187	0x40ef3ec9	7.476414
188	0x40a96dc0	5.294647
189	0x40a0d5f7	5.0261188
190	0x40f3c739	7.618069
191	0x408e27e4	4.4423695
192	0x40ca3abf	6.319671
193	0x406d2842	3.7055821
194	0x40db12bc	6.846037
195	0x40d62fec	6.69335
196	0x4069dcfd	3.654113
197	0x40e65907	7.1983676
198	0x40b77976	5.733577
199	0x408f1126	4.4708433
200	0x40f69484	7.7056293
201	0x40d9e417	6.809093
202	0x40d105ed	6.5319734
203	0x40914f35	4.540919
204	0x4084acde	4.146102
205	0x4086dc19	4.2143674
206	0x40ce7999	6.4523435
207	0x40c96d18	6.294567
208	0x40806bc9	4.0131574
209	0x40fc38ea	7.8819475
210	0x40e1e13b	7.058744
211	0x4095877d	4.672789
212	0x40db5ad6	6.8548384
213	0x40912d2e	4.536765
214	0x40ccc66c	6.3992214
215	0x40f744c2	7.7271433
216	0x405f3366	3.487512
217	0x4090fd2d	4.5309052
218	0x40ad19a9	5.4093823
219	0x40c1c867	6.055713
220	0x4065f978	3.5933514
221	0x407db3be	3.9640956
222	0x40aff8c2	5.499116
223	0x40afbc62	5.491746
224	0x40ca96aa	6.3308916
225	0x40c1bded	6.0544343
226	0x40c3cf13	6.1190276
227	0x40b824fa	5.7545137
228	0x40bb3a36	5.850856
229	0x40b49e77	5.644344
230	0x40d02378	6.5043297
231	0x40eebc0b	7.4604545
232	0x408cbfd8	4.3984184
233	0x408e76f6	4.4520216
234	0x40d4f6ab	6.655111
235	0x406b52a1	3.6769183
236	0x40e6ff67	7.218677
237	0x40d6d78c	6.713812
238	0x40bbb0e3	5.8653426
239	0x40959eee	4.6756506
240	0x40b1a389	5.551213
241	0x406a399a	3.6597657
242	0x4056d10f	3.35651
243	0x40fda55d	7.926436
244	0x40551c8c	3.3298674
245	0x405cc1b4	3.4493227
246	0x40962d4f	4.693031
247	0x40b86637	5.7624774
248	0x40c86918	6.262829
249	0x408b5caf	4.355064
250	0x40aae018	5.339855
251	0x40a07253	5.0139556
252	0x40f7407a	7.7266207
253	0x40f89b35	7.768946
254	0x40d5108a	6.658269
255	0x40b6a080	5.7070923

cell_los.sensory_w f4 [1, 32]
0	0x3fa78c15	1.3089625
1	0x3f9f459f	1.2443122
2	0x3f64f2fe	0.89433277
3	0x3fb9f2ca	1.4527218
4	0x3f38f3c6	0.7224697
5	0x3f83479b	1.0256227
6	0x3f4d3150	0.8015337
7	0x3f271115	0.6526044
8	0x3f063b15	0.524339
9	0x3f832815	1.0246607
10	0x3f7e6a6d	0.9938114
11	0x3e9a7154	0.30164587
12	0x3f690618	0.91024923
13	0x3f86a70b	1.0519727
14	0x3ebf3d6b	0.37351546
15	0x3fa7c732	1.3107665
16	0x3de80f70	0.113310695
17	0x3f7d762a	0.9900843
18	0x3f02b91e	0.51063716
19	0x3ee7ae29	0.4525006
20	0x3f63af99	0.88939816
21	0x3fc197c7	1.5124444
22	0x3f954808	1.1662607
23	0x3f93353d	1.1500622
24	0x3fa1ba33	1.2634948
25	0x3f226781	0.63439184
26	0x3f829ab3	1.020346
27	0x3fa443ce	1.2833192
28	0x3ee80d85	0.45322815
29	0x3ebc76c6	0.36809367
30	0x3f98968d	1.1920944
31	0x3f3e541d	0.74347097

cell_los.sensory_mu f4 [1, 32]
0	0xbdcfbc30	-0.10143316
1	0xbe185a08	-0.14878094
2	0x3e82bf5d	0.25536624
3	0xbc90c378	-0.017671332
4	0x3d6c13bc	0.057636008
5	0xbe3592b7	-0.17731749
6	0x3e9e20ab	0.308843
7	0xbde4a42f	-0.11164128
8	0x3ef4c356	0.4780528
9	0x3c9970d3	0.018730557
10	0x3dfd030e	0.12354098
11	0x3f512cb9	0.81708866
12	0xbcbaa032	-0.022781465
13	0xbcdd6aa1	-0.027028384
14	0x3f4e1b72	0.8051063
15	0xbe04c9b5	-0.1296757
16	0x3f539c05	0.8265994
17	0xbc3a4cb6	-0.011370828
18	0xbc658d74	-0.014010776
19	0x3e8a490a	0.2700885
20	0x3d81fd64	0.063471586
21	0xbe2572ca	-0.1615707
22	0x3efe86dd	0.49712268
23	0xbda70c8d	-0.08156691
24	0x3f4e5c64	0.80609727
25	0x3b415159	0.002949795
26	0x3f5f29ae	0.87172973
27	0x3e0a9ac5	0.13535602
28	0x3d443547	0.04790237
29	0x3e452f9b	0.19256441
30	0x3ccff92d	0.025387371
31	0x3f3f3fb1	0.7470656

cell_los.sensory_sigma f4 [1, 32]
0	0x40e65ef1	7.1990895
1	0x40f5820d	7.6721253
2	0x40965b7d	4.698668
3	0x40ec26b2	7.3797235
4	0x40a8de4f	5.2771373
5	0x408bb890	4.3662796
6	0x4069de8e	3.6542087
7	0x40ee9164	7.455248
8	0x40863af6	4.1946974
9	0x40d98883	6.797914
10	0x40355202	2.8331304
11	0x40c64764	6.1962147
12	0x405f850e	3.492496
13	0x40c7b603	6.240968
14	0x4102ef95	8.183492
15	0x40d9f463	6.8110824
16	0x40a38429	5.109883
17	0x4038d2f7	2.8878763
18	0x40871c48	4.2222023
19	0x4062af91	3.5419657
20	0x40edca4e	7.4309454
21	0x4083d8d2	4.1202173
22	0x40c1bb4c	6.0541134
23	0x40ef75c8	7.4831276
24	0x40e4d2ef	7.1507487
25	0x40457959	3.0855315
26	0x40bd7ad2	5.9212427
27	0x4089b224	4.3029957
28	0x40d7cd4a	6.7438097
29	0x40998468	4.797413
30	0x40a06d49	5.0133405
31	0x41010fcd	8.066358

cell_nlos.gleak f4 [32]
0	0x3f0f35a1	0.55941206
1	0x3efaef42	0.49010664
2	0x3eb215b2	0.34782177
3	0x3f1feca7	0.6247048
4	0x3f0c022e	0.54690826
5	0x3ea4b217	0.32167122
6	0x3ebe9377	0.37221882
7	0xbe15d9ae	-0.1463382
8	0x3ebd950c	0.37027776
9	0x3f039111	0.5139323
10	0xbe44beab	-0.19213359
11	0x3e64bcd6	0.2233766
12	0x3f13eb3d	0.5778082
13	0x3ecba7e4	0.39776528
14	0x3e5f9a83	0.21836285
15	0x3ebc099d	0.36726084
16	0x3eac6865	0.33673397
17	0x3f7e19da	0.99258196
18	0x3ee6f046	0.4510519
19	0x3e06b346	0.13154325
20	0x3f233fbc	0.63769126
21	0x3dd7e4ed	0.10541711
22	0x3ea81f5a	0.3283642
23	0x3e8844bf	0.2661495
24	0xbdd88593	-0.10572352
25	0x3f08db5f	0.53459734
26	0x3e01f43d	0.12690826
27	0x3e4d8f20	0.20074129
28	0x3e33cf47	0.17559539
29	0x3f73224e	0.9497422
30	0x3f1204cf	0.5703859
31	0xbdeea635	-0.11652795

cell_nlos.vleak f4 [32]
0	0x3d8c00e3	0.06836107
1	0xbd37f623	-0.04491247
2	0x3e48bcdd	0.19603296
3	0x3db74fae	0.089507446
4	0xbe3221b4	-0.17395669
5	0x3e44b899	0.19211043
6	0xbdb484c3	-0.08814385
7	0xbdb1ec4d	-0.08687649
8	0xbc5bf9db	-0.013426269
9	0x3dedcc79	0.11611266
10	0x3c841e3c	0.016127698
11	0xbe839e68	-0.25706792
12	0xbdb2260d	-0.08698664
13	0x3e00c875	0.12576468
14	0xbdac11aa	-0.08401807
15	0xbe033607	-0.12813579
16	0xbe76383b	-0.24044888
17	0xbe7a5d35	-0.24449618
18	0xbe36fae3	-0.17869143
19	0xbc7beaef	-0.015375837
20	0xbcbb9732	-0.022899244
21	0x3e6dccde	0.23222682
22	0x3df89692	0.12138094
23	0xbd4bca51	-0.04975349
24	0x3db04b4e	0.08608113
25	0x3dc1ac4e	0.09456693
26	0xbe78472f	-0.24245904
27	0x3d8049d4	0.062640816
28	0xbe391b75	-0.1807688
29	0x3e3042fd	0.17213054
30	0xbdf1f5f5	-0.11814491
31	0xbb843d19	-0.0040356037

cell_nlos.cm f4 [32]
0	0x3f27fed0	0.6562319
1	0x3f2da34a	0.67827284
2	0x3f2c0bee	0.67205703
3	0x3f250c13	0.6447155
4	0x3f355ede	0.7084788
5	0x3f6937ea	0.91100943
6	0x3f198641	0.5997048
7	0x3f15160e	0.5823678
8	0x3f1ae780	0.6050949
9	0x3f40407d	0.750984
10	0x3f133b83	0.5751268
11	0x3edf922e	0.43666214
12	0x3f2d76f1	0.67759615
13	0x3f02338c	0.50859904
14	0x3f23a0ce	0.63917243
15	0x3f25a0eb	0.64698666
16	0x3f085bfb	0.5326535
17	0x3f276afb	0.65397614
18	0x3ecd85c4	0.40141118
19	0x3f050adb	0.5196969
20	0x3f1c966c	0.61167026
21	0x3f0d5686	0.5521015
22	0x3f358ede	0.70921123
23	0x3f2533f3	0.64532393
24	0x3f45dd9a	0.7729126
25	0x3f22c041	0.63574606
26	0x3f0ee4d4	0.55817914
27	0x3ed7ebf3	0.42172202
28	0x3f31383c	0.6922643
29	0x3f286847	0.65784115
30	0x3f257b18	0.6464095
31	0x3f1ce2cd	0.6128357

cell_nlos.w f4 [32, 32]
0	0x3f19df74	0.6010659
1	0xbc4cdd9a	-0.012504006
2	0x3edc7333	0.4305664
3	0x3e631585	0.22176178
4	0x3ecc9c40	0.3996296
5	0x3f0d4f13	0.5519878
6	0x3eddfc6c	0.43356645
7	0x3be479cc	0.006972527
8	0x3f265e90	0.6498804
9	0xbd2a9456	-0.04164537
10	0x3e9f16a9	0.31071976
11	0x3f188561	0.5957852
12	0x3f5ed775	0.8704751
13	0x3f7f3316	0.99687326
14	0x3e8c9f56	0.27465314
15	0x3f108e3b	0.56467026
16	0x3dc9ee7f	0.09859943
17	0x3e3b0deb	0.18267028
18	0x3eb2ea7f	0.3494453
19	0x3f32f4d5	0.69904834
20	0x3dd57e9f	0.10424542
21	0x3f18d045	0.59692794
22	0x3f0a7422	0.54083455
23	0x3f51115e	0.81667125
24	0x3e258910	0.16165566
25	0x3f4be42b	0.7964503
26	0xbd941179	-0.07229895
27	0x3eb3d490	0.3512311
28	0x3f30656a	0.68904746
29	0x3f1c19cd	0.6097687
30	0x3f33483e	0.7003211
31	0x3e44d358	0.19221246
32	0x3f54f9c2	0.831936
33	0xbe21dd22	-0.15807012
34	0x3e288a42	0.16458991
35	0x3e97dff7	0.2966306
36	0x3c2185b2	0.009858536
37	0xbe811b28	-0.2521603
38	0xbe91d204	-0.28480542
39	0x3f27f054	0.65601087
40	0x3f09c429	0.5381494
41	0x3e962a49	0.29329136
42	0x3e43bd84	0.19115263
43	0xbe0e7177	-0.13910471
44	0xbbfb7f31	-0.0076750745
45	0x3e2b763f	0.16744326
46	0xbe996da9	-0.29966477
47	0x3f4e5e95	0.8061307
48	0x3e3a13b1	0.18171574
49	0x3bad93d2	0.0052971626
50	0x3d6360d6	0.05551227
51	0x3ed050fe	0.40686792
52	0x3f02aaa4	0.51041627
53	0x3dfcf012	0.12350477
54	0x3f5e8062	0.86914647
55	0x3f77d610	0.9681101
56	0xbe1f97d9	-0.15585269
57	0x3f2ac37e	0.6670455
58	0x3e63e40b	0.2225496
59	0x3e56b53b	0.20967571
60	0x3eeca525	0.46219745
61	0x3e760167	0.24023972
62	0x3f33621d	0.70071584
63	0x3f494130	0.78615093
64	0x3dfe4a33	0.12416496
65	0xbd022120	-0.03176987
66	0xbc7e0710	-0.0155046135
67	0x3f21e980	0.6324692
68	0xbd2de0b8	-0.042450637
69	0xbdc0f388	-0.0942145
70	0x3dc6aeef	0.09701335
71	0xbdb729d3	-0.08943524
72	0xbd86e790	-0.06587136
73	0x3f4bd66c	0.79624057
74	0x3f1e17ea	0.6175524
75	0x3f59368b	0.8484885
76	0x3e499bae	0.19688293
77	0x3bb85dcc	0.005626416
78	0x3e680f45	0.22662075
79	0x3e92904b	0.28625712
80	0xbbdc30f0	-0.006719701
81	0x3ee9030c	0.45510137
82	0x3e5816a3	0.21102385
83	0x3ee296f7	0.44255802
84	0x3f81f923	1.0154155
85	0x3f0833da	0.5320412
86	0x3f1f7edc	0.6230295
87	0x3df59435	0.11991159
88	0x3cb9a247	0.022660388
89	0x3d6fd132	0.058549114
90	0x3ebd5d12	0.3698507
91	0x3e9c5a19	0.3053749
92	0x3ba189e9	0.0049297702
93	0x3b353b83	0.002765388
94	0x3e024196	0.12720332
95	0x3e955acf	0.29170844
96	0x3ebc3658	0.3676021
97	0xbe0f3ccf	-0.1398804
98	0x3f5ff0d2	0.8747684
99	0x3f1e471f	0.6182727
100	0x3e10892b	0.14114825
101	0x3f02b6d0	0.510602
102	0x3f12c7ad	0.5733593
103	0xbe14d7ce	-0.14535448
104	0xbd561045	-0.05226161
105	0x3f40f883	0.753792
106	0x3ed49b4d	0.41524735
107	0x3f0dda4a	0.5541121
108	0x3daf14fb	0.085489236
109	0x3e9fc01b	0.31201252
110	0x3f408234	0.75198674
111	0x3e5ad8cb	0.21371762
112	0x3e836b4e	0.25667804
113	0x3e13f2ce	0.14448091
114	0x3ed0daac	0.40791833
115	0x3f0d291a	0.5514084
116	0xbe9ee8ae	-0.31036896
117	0x3f094f12	0.53636277
118	0x3f2c06fb	0.6719815
119	0x3dfc9f87	0.12335115
120	0x3e013870	0.12619185
121	0x3dba219f	0.09088444
122	0x3e19c046	0.15014753
123	0x3ecd62eb	0.4011453
124	0xbdde12a7	-0.108434014
125	0x3f3315eb	0.6995532
126	0x3ea3c36c	0.31985033
127	0x3ea2882c	0.31744516
128	0x3ef08dd6	0.46983212
129	0x3f2d0ad5	0.67594653
130	0x3e3a543c	0.18196195
131	0xbdce876b	-0.10084423
132	0x3c150c39	0.009097152
133	0x3cf77f00	0.030211926
134	0xbccbcc1b	-0.024877599
135	0x3f474ebf	0.7785453
136	0xbd1ecfc2	-0.038772352
137	0xbbe8bbcc	-0.0071024653
138	0xbdbc8c6a	-0.09206469
139	0x3e32b2fe	0.17451093
140	0x3ed6f07b	0.41980347
141	0x3e380557	0.17970787
142	0x3eb8503f	0.35998723
143	0x3ec1421c	0.3774575
144	0x3e6f22cd	0.23353119
145	0x3ef6e4d2	0.4822145
146	0x3ed41016	0.41418523
147	0x3f6a19f9	0.9144588
148	0x3f17fe09	0.59372
149	0x3f5920c8	0.84815645
150	0x3f2a3d48	0.6649976
151	0x3f265444	0.6497233
152	0x3ee4c77f	0.44683453
153	0xbe6001f5	-0.21875747
154	0x3dc1d773	0.09464922
155	0x3f2b9fed	0.670409
156	0x3f026a61	0.5094357
157	0x3f55af1a	0.8347031
158	0x3ea0d127	0.3140957
159	0x3eb6d37d	0.35708228
160	0x3f225362	0.6340848
161	0x3ee5ff29	0.44921234
162	0x3f80c9fa	1.0061638
163	0xbcaf1ce0	-0.021376073
164	0x3e837c24	0.2568065
165	0x3ed9be04	0.42527783
166	0x3f1f88f8	0.6231837
167	0xbcb278bc	-0.021786086
168	0x3e496566	0.19667587
169	0x3f299d7a	0.66255915
170	0x3ed8d9a5	0.4235355
171	0x3f4a52eb	0.7903277
172	0x3e8650ca	0.26233512
173	0x3d9a8fc5	0.07546953
174	0x3dcab053	0.098969124
175	0x3daea9eb	0.08528503
176	0x3d367ba0	0.04455149
177	0x3f37da38	0.7181735
178	0x3eead8c8	0.45868516
179	0x3c145880	0.009054303
180	0x3f5e58b7	0.8685412
181	0x3f20729f	0.626749
182	0x3f29cb70	0.66326046
183	0x3eb1be4d	0.347155
184	0x3edd507c	0.43225467
185	0xbda13c37	-0.07872813
186	0x3f51d508	0.81965685
187	0x3e45e85a	0.19326916
188	0x3f1d03e5	0.6133407
189	0x3e5ca676	0.21547875
190	0x3f2d37e2	0.67663395
191	0x3dd1bd34	0.10241166
192	0x3e9f9a34	0.31172335
193	0x3ec206c1	0.37895778
194	0x3e48425c	0.19556564
195	0x3e2754d6	0.16340956
196	0x3e83a576	0.25712174
197	0x3ee4f92f	0.44721362
198	0x3f48905f	0.7834529
199	0x3e74e878	0.23916805
200	0x3f40aef9	0.7526699
201	0x3e21a1b3	0.1578434
202	0x3e06b368	0.13154376
203	0x3ebda5ae	0.37040466
204	0x3eaddab1	0.3395591
205	0x3e8a370d	0.26995125
206	0x3f4fd91b	0.8119065
207	0x3f005f41	0.50145346
208	0x3df6863e	0.120373234
209	0x3e20c649	0.1570064
210	0x3ea5e9d1	0.3240495
211	0xbe6306b7	-0.2217053
212	0x3f335c44	0.7006266
213	0x3f5c52e2	0.8606397
214	0x3f15e39c	0.5855043
215	0x3ebfe688	0.3748057
216	0x3e3901bc	0.18067068
217	0x3e34cc55	0.17656071
218	0x3eb66927	0.356271
219	0x3f53c0c1	0.82715994
220	0x3dd1afad	0.102385856
221	0x3f01c203	0.50686663
222	0xbe0b4486	-0.13600358
223	0x3e97f33f	0.2967777
224	0x3ec7b613	0.390061
225	0xbd741d02	-0.059597977
226	0x3f26b287	0.6511616
227	0x3cd064c5	0.025438676
228	0x3d7271a4	0.059190407
229	0x3f34f982	0.7069322
230	0x3f2ac41f	0.6670551
231	0x3e4a02f8	0.19727695
232	0x3de59214	0.11209503
233	0xbb408077	-0.0029373446
234	0x3cc2899f	0.023747263
235	0x3dfdabcf	0.123862855
236	0x3f0701a4	0.5273688
237	0x3bba4a08	0.0056850947
238	0x3f34a64b	0.7056624
239	0x3f054636	0.5206026
240	0x3e17e501	0.14833452
241	0x3f250bed	0.6447132
242	0x3f443811	0.7664805
243	0x3ec4be08	0.38426232
244	0x3dcbb5d6	0.09946792
245	0x3ed7acb9	0.42123964
246	0x3efc27e6	0.4924919
247	0x3f5ee79d	0.87072164
248	0x3e4a927b	0.1978244
249	0x3e31db52	0.1736882
250	0xbdf459fc	-0.11931226
251	0x3f3d2645	0.7388652
252	0x3f4d0959	0.8009239
253	0x3f470822	0.77746785
254	0x3d0ec33a	0.03485415
255	0x3f2c50b3	0.6731064

cell_nlos.erev f4 [32, 32]
0	0xbdb98b9b	-0.09059831
1	0x3e22b393	0.15888815
2	0x3d854b17	0.06508463
3	0xbe48703f	-0.19574068
4	0x3dc3b1f2	0.09555425
5	0x3db9076d	0.090346195
6	0x3e3f0588	0.18654454
7	0xbcd16604	-0.02556134
8	0xbda0ba96	-0.078480884
9	0xbedd6e70	-0.4324832
10	0xbe51bc3f	-0.20481966
11	0xbd115000	-0.035476685
12	0x3e1b775e	0.15182254
13	0xbe3575d9	-0.17720737
14	0x3d83ec09	0.064415045
15	0xbe26b8ff	-0.16281508
16	0xbe5bd306	-0.21467218
17	0xbe0315e0	-0.12801313
18	0xbe445eef	-0.1917684
19	0xbe543a18	-0.20725286
20	0xbd1d88d9	-0.038460586
21	0xbd645ae6	-0.05575075
22	0x3e642131	0.22278287
23	0x3d50471b	0.05084906
24	0x3d1158c7	0.035485055
25	0xbd9459f8	-0.07243723
26	0xbd9c6ef8	-0.07638353
27	0xbe4c7031	-0.19964673
28	0x3e16fc08	0.1474458
29	0x3e422b7d	0.18961902
30	0xbe52e13c	-0.20593733
31	0xbe598ae5	-0.2124439
32	0xbe8ef397	-0.2792022
33	0x3bf6fdf2	0.007537597
34	0xbd302a4b	-0.043009084
35	0xbd171483	-0.036884796
36	0x3e23f907	0.16012965
37	0xbdf0c787	-0.11756807
38	0xbd7a1577	-0.061055627
39	0xbdb6a6f0	-0.089185596
40	0x3dfd9a50	0.123829484
41	0x3ea0ed61	0.31431106
42	0x3d8eea74	0.06978312
43	0xbdf4bee6	-0.119504735
44	0x3e3fea42	0.18741706
45	0x3e66b266	0.22528991
46	0x3dba805c	0.09106514
47	0x3e87ee90	0.26549196
48	0xbe3e088d	-0.1855795
49	0xbe2a78ce	-0.16647646
50	0x3e30ad1b	0.17253534
51	0xbdce105e	-0.100617155
52	0xbe97093a	-0.29499227
53	0x3d3b82ab	0.04577891
54	0xbe722c08	-0.23649609
55	0x3e8b235e	0.2717542
56	0x3e19d537	0.15022741
57	0xbdc44f73	-0.09585466
58	0xbdd1894c	-0.102312654
59	0x3d3d4f37	0.046218123
60	0xbd70d8b9	-0.058800433
61	0x3cc318f5	0.023815611
62	0xbd9a0f02	-0.07522394
63	0x3e6203a2	0.22071698
64	0x3df21718	0.11820811
65	0x3c568a15	0.013094445
66	0xbce9f0e1	-0.028557243
67	0xbe67ef31	-0.22649838
68	0xbd889ac7	-0.066701464
69	0x3e019fcd	0.12658615
70	0xbdd2ebce	-0.102988824
71	0x3ddeeacb	0.10884627
72	0xbcf5b325	-0.02999265
73	0xbdf69c89	-0.120415755
74	0x3ce08f14	0.027411975
75	0x3d28217b	0.041047554
76	0xbe2e71ba	-0.1703557
77	0x3aee4c93	0.001818078
78	0xbe4a6e54	-0.1976865
79	0xbd974f74	-0.07388201
80	0xbe0dc161	-0.138433
81	0x3d429f6f	0.04751533
82	0xbe8175c5	-0.25285164
83	0x3c1594b8	0.009129696
84	0xbe82ee20	-0.255723
85	0x3dbe6547	0.09296661
86	0x3d431b39	0.047633383
87	0xbe052c6f	-0.13005231
88	0x3d06a701	0.03287411
89	0x3e199a4f	0.1500027
90	0x3d779f0a	0.060454406
91	0xbe6936d7	-0.22774826
92	0xbdc48b12	-0.09596838
93	0x3e426002	0.18981937
94	0xbb2eee78	-0.0026692431
95	0xbcaadab7	-0.020856244
96	0xbcf113ec	-0.029428445
97	0xbd54bd6c	-0.05193846
98	0xbd7a5e12	-0.06112487
99	0x3dc0e12d	0.09417949
100	0x3dfea249	0.12433297
101	0xbdd8e537	-0.10590594
102	0xbbd9558a	-0.0066325115
103	0x3d223080	0.039597034
104	0xbdc49701	-0.09599114
105	0x3e907882	0.2821694
106	0x3e2b1e44	0.16710764
107	0xbceba040	-0.028762937
108	0xbd8938e9	-0.06700308
109	0x3d219de4	0.039457217
110	0x3e665fe3	0.22497515
111	0x3d819528	0.063272774
112	0x3cb9a4de	0.022661623
113	0xbeb0e736	-0.345514
114	0xbe61ebfe	-0.2206268
115	0xbdb112d5	-0.0864617
116	0xbe0aac1b	-0.13542216
117	0x3e88d1e8	0.26722646
118	0xbd4490f9	-0.04798982
119	0xbcb08fcc	-0.021552943
120	0xbce2bbfa	-0.027677525
121	0x3ca73239	0.02040969
122	0xbe2106cb	-0.15725248
123	0xbd45211c	-0.04812728
124	0x3dabea89	0.083943434
125	0x3e486ff6	0.1957396
126	0x3e3c5b0d	0.18394108
127	0x3d901602	0.07035448
128	0xbe27c9f4	-0.16385633
129	0x3e313444	0.17305094
130	0x3e41e081	0.18933298
131	0xbd4f373a	-0.050589778
132	0xbcc3ac3f	-0.023885844
133	0x3e066df4	0.13127881
134	0xbd890eab	-0.06692251
135	0x3d9a183e	0.07524155
136	0xbc114074	-0.0088654645
137	0x3dfc82ae	0.12329613
138	0x3d5bc782	0.053657062
139	0x3e1b9f04	0.15197378
140	0x3e2c67d7	0.16836487
141	0xbe2f3619	-0.1711048
142	0x3e0d5dc7	0.13805304
143	0xbce8f4cd	-0.028437043
144	0xbe047af8	-0.12937534
145	0xbde4fe0a	-0.111812666
146	0xbda75115	-0.08169762
147	0xbe321e26	-0.17394313
148	0xbea73654	-0.32658637
149	0xbced7a3d	-0.028988952
150	0xbce56278	-0.028001055
151	0x3dbe5bb4	0.09294835
152	0x3de0af25	0.10970906
153	0x3d7934e2	0.06084145
154	0x3e0e79d0	0.13913655
155	0xbe40c266	-0.18824157
156	0xbe088a66	-0.13334045
157	0x3e07a9b3	0.13248329
158	0xbe18d353	-0.14924364
159	0x3e4601a0	0.19336557
160	0x3dd15693	0.10221591
161	0xbe002058	-0.12512338
162	0x3e5fcbb5	0.21855052
163	0x3c81514e	0.01578584
164	0x3ddd647f	0.10810184
165	0x3e60cc0b	0.21952836
166	0xbdadd17b	-0.08487221
167	0x3dfcdd42	0.12346889
168	0xbdac9011	-0.08425916
169	0xbe180d69	-0.14848866
170	0x3c8811b9	0.016610013
171	0xbe5f1c80	-0.21788216
172	0xbe18da6f	-0.14927076
173	0x3dfeacb8	0.12435287
174	0xbe1b57ba	-0.15170184
175	0x3d7d5700	0.061850548
176	0x3d5142d6	0.05108913
177	0xbe559e03	-0.20861058
178	0xbd4c3b08	-0.049860984
179	0xbd8117f7	-0.06303399
180	0x3d933c73	0.07189264
181	0xbda89790	-0.08232033
182	0x3e5c4177	0.21509348
183	0xbe67d4ba	-0.22639742
184	0x3dedb903	0.11607554
185	0x3d87921a	0.066196635
186	0xbdd48606	-0.103771254
187	0xbde1ad84	-0.110194236
188	0xbe370aee	-0.17875263
189	0x3d37f09f	0.04490721
190	0x3cdff975	0.02734063
191	0xbdf6cd6e	-0.12050901
192	0x3def74b6	0.11692183
193	0xbd76c149	-0.060242925
194	0xbd49cf11	-0.04926974
195	0x3e39e4b0	0.18153644
196	0x3b04fde5	0.0020292934
197	0x3d23d06d	0.039993692
198	0x3dc52bf4	0.09627524
199	0xbde53ab2	-0.11192836
200	0xbd34ba29	-0.04412285
201	0x3e3dc2e9	0.18531384
202	0xbe015151	-0.12628676
203	0xbccd4b39	-0.025060283
204	0x3e2997cc	0.16561812
205	0xba6e9db0	-0.0009102477
206	0xbca79bdc	-0.020460062
207	0x3dadba43	0.08482792
208	0xbe8f2ccc	-0.27963865
209	0x3c4325c7	0.011910862
210	0x3dcf9202	0.10135271
211	0xbdc3f407	-0.09568029
212	0xbe5d16e1	-0.21590759
213	0x3cbe9ed3	0.023269093
214	0x3df124cd	0.11774597
215	0xbdcd04b8	-0.10010666
216	0x3d5dfcb4	0.054196075
217	0xbe337456	-0.17524847
218	0x3bf3c4c6	0.0074392287
219	0x3df6ad24	0.12044743
220	0x3d1ca3b3	0.038242053
221	0x3cfa2875	0.03053687
222	0x3bd8b640	0.006613523
223	0x3e27d751	0.1639073
224	0x3d3f9a3e	0.046777956
225	0xbd669ddd	-0.056302894
226	0xbe3bd696	-0.18343577
227	0x3e5dafe0	0.21649122
228	0xbd36be13	-0.044614863
229	0x3d56d0c5	0.052445192
230	0xbd269e55	-0.04067834
231	0x3d93cf75	0.07217304
232	0xbe3c2ea9	-0.18377174
233	0xbc81a8f1	-0.015827628
234	0x3b6120db	0.0034351859
235	0xbe6284dc	-0.22120994
236	0x3bfa57c9	0.0076398593
237	0x3da43f23	0.08019855
238	0x3e4a87da	0.19778386
239	0x3e41ef9d	0.18939061
240	0xbdb0d3e8	-0.08634168
241	0xbe257380	-0.16157341
242	0xbe49b2f2	-0.19697168
243	0x3dacc8a5	0.084367074
244	0x3b9cc6f2	0.0047844583
245	0x3e7b603e	0.24548432
246	0xbe02a4cc	-0.12758178
247	0x3e2ff482	0.17183116
248	0x3da69e0a	0.08135612
249	0x3e3d42f1	0.18482567
250	0xbd649e3b	-0.055814963
251	0xbe1deebd	-0.15423103
252	0xbe0e4f1a	-0.13897362
253	0xbe0a5947	-0.13510619
254	0x3d9edf1f	0.07757401
255	0xbdc65e8a	-0.09686001
