lnn/prod_stage1_pi_hlnn.pt (torch, 81979 bytes, 14 tensors)

cell.gleak f4 [64]
0.3633949 0.6236769 0.1284132 0.86172 0.46531942 0.47563863 0.042848118 -0.032632917
0.77622825 0.3014096 0.91490495 0.43199363 0.73140436 0.29699156 -0.26886535 -0.28343117
0.74527466 0.34669796 -0.26399904 0.70836985 -0.03603459 -0.0017674213 -0.48635015 0.9960196
0.09699505 -0.6595465 -0.3316864 -0.14039974 0.20319074 -0.20570001 0.9324551 0.1896585
0.6016189 0.5389349 0.26477078 1.0723482 0.4641701 0.28028813 0.029267667 0.2642695
0.065235764 0.3574147 0.8532256 0.9214762 0.74331415 0.24101374 0.60691947 -0.4711067
0.1959245 0.124899454 -0.49150494 0.22767563 -0.5144627 1.007911 0.4892611 0.51536804
0.33850676 0.29194114 0.40753448 0.0794292 0.38862768 0.1087728 0.4399687 -0.07762842
00000000: e50e ba3e 4aa9 1f3f c07e 033e af99 5c3f
00000010: 593e ee3e e886 f33e 8281 2f3d 18aa 05bd
00000020: e5b6 463f 5c52 9a3e 3637 6a3f 452e dd3e
00000030: 513d 3b3f 470f 983e b8a8 89be e41d 91be
00000040: 52ca 3e3f 6582 b13e e22a 87be ba57 353f
00000050: 0299 13bd d1a8 e7ba e302 f9be 24fb 7e3f
00000060: 57a5 c63d 0ad8 28bf cdd2 a9be f3c4 0fbe
00000070: 3c11 503e 06a3 52be 61b5 6e3f d635 423e
00000080: b203 1a3f a3f7 093f 0990 873e b542 893f
00000090: b4a7 ed3e ed81 8f3e bfc2 ef3c 554e 873e
000000a0: 549a 853d 0fff b63e fe6c 5a3f dde5 6b3f
000000b0: d649 3e3f 4ecc 763e 135f 1b3f e634 f1be
000000c0: 6fa0 483e 49cb ff3d 89a6 fbbe cd23 693e
000000d0: d4b3 03bf 3a03 813f 6e80 fa3e 29ef 033f
000000e0: c250 ad3e 4f79 953e 5ca8 d03e c7ab a23d
000000f0: 35fa c63e 46c4 de3d 9443 e13e a6fb 9ebd

cell.vleak f4 [64]
-0.07377412 -0.084936924 0.02350784 -0.1778578 -0.30642694 -0.22146139 0.015535078 -0.011429657
0.053143024 -0.59658134 -0.3164164 -0.2024209 -0.18758991 -0.034600683 -0.003448341 0.13352469
-0.16926451 -0.17239437 -0.016877979 -0.30109656 -0.15709338 -0.2619141 0.018071264 -0.3767845
-0.2094561 -0.009080579 -0.03644556 -0.55449337 0.038184643 -0.040430337 -0.22100507 -0.29400218
-0.082542896 -0.17277434 -0.1530188 -0.8056872 -0.17148168 -0.06567618 -0.5307653 -0.21515313
-0.06938653 -0.22016238 -0.91831815 -0.57550526 -0.22129278 -0.19598739 0.04220399 -0.035544943
-0.41168475 -0.24184155 -0.2376506 -0.17419349 -0.054610793 -0.37261936 -0.1455122 -0.16140746
-0.40838766 -0.1301282 -0.09932346 -0.2099112 -0.1871089 -0.19456102 -0.3930457 -0.1616487
00000000: e316 97bd 69f3 adbd 8393 c03c 5b20 36be
00000010: fee3 9cbe c6c6 62be d786 7e3c 7543 3bbc
00000020: 80ac 593d 8eb9 18bf 5501 a2be 6d47 4fbe
00000030: 9217 40be 72b9 0dbd 90fd 61bb b2ba 083e
00000040: ad53 2dbe 2688 30be b043 8abc 5429 9abe
00000050: 16dd 20be 9b19 86be 300a 943c e6e9 c0be
00000060: a97b 56be b5c6 14bc f147 15bd 47f3 0dbf
00000070: 8067 1c3d 489a 25bd 274f 62be 7487 96be
00000080: 400c a9bd c2eb 30be f6b0 1cbe 8441 4ebf
00000090: e598 2fbe 3c81 86bd 3ce0 07bf 1a51 5cbe
000000a0: 861a 8ebd 3f72 61be e616 6bbf 5054 13bf
000000b0: 939a 62be ebb0 48be 17de 2c3d 9397 11bd
000000c0: 58c8 d2be 50a5 77be ae5a 73be c75f 32be
000000d0: 91af 5fbd f7c7 bebe 2601 15be ff47 25be
000000e0: 3018 d1be 5440 05be 196a cbbd f6f2 56be
000000f0: 7a99 3fbe 013b 47be 493d c9be 3d87 25be

cell.cm f4 [64]
0.56163627 -0.060914543 0.945256 0.08995621 0.07846258 0.007607299 0.52299 0.32080954
0.6263372 -0.09921533 0.3370708 -0.0672203 0.19515267 0.28846255 0.25979042 0.7106113
0.053559188 0.1541278 0.98066455 -0.10008816 0.07846772 -0.029754464 0.85618883 0.0018476285
0.043711405 0.3286258 0.45277858 -0.185545 0.619672 0.6489849 0.035314556 -0.029361552
0.730142 0.36509392 0.23082465 -0.041604575 0.19377337 0.5794418 -0.18228433 0.29093525
0.29442844 0.3719748 0.08810505 -0.21888082 -0.0043236245 0.18200515 0.45589578 0.38887477
-0.33351332 0.11080564 1.0310639 0.05885813 0.44821998 0.2808877 0.30378374 0.14140637
0.27468583 0.055781953 0.24296339 0.03443678 0.16313975 0.14761479 0.16068763 0.15032065
00000000: 65c7 0f3f 8781 79bd 4cfc 713f f63a b83d
00000010: fdb0 a03d a646 f93b ace2 053f 2641 a43e
00000020: a257 203f 6831 cbbd 8b94 ac3e ccaa 89bd
00000030: 1ad6 473e 5db1 933e 4003 853e 9fea 353f
00000040: e160 5b3d aed3 1d3e d50c 7b3f 05fb ccbd
00000050: afb3 a03d a2bf f3bc 312f 5b3f 202c f23a
00000060: bb0a 333d a441 a83e 98d2 e73e 82ff 3dbe
00000070: d3a2 1e3f e023 263f ffa5 103d a387 f0bc
00000080: 96ea 3a3f 97ed ba3e 4c5d 6c3e 8f69 2abd
00000090: 876c 463e 4c56 143f bea8 3abe 77f5 943e
000000a0: 53bf 963e 7b73 be3e 6c70 b43d 4b22 60be
000000b0: 31ad 8dbb 8f5f 3a3e 2c6b e93e 981a c73e
000000c0: 42c2 aabe 11ee e23d e7f9 833f 3915 713d
000000d0: 177d e53e 83d0 8f3e 8b89 9b3e d5cc 103e
000000e0: 9fa3 8c3e 9e7b 643d 65cb 783e 950d 0d3d
000000f0: 1b0e 273e 5528 173e 4c8b 243e a8ed 193e

cell.w f4 [64, 64]
0.51621795 0.6999847 0.45571995 0.25987917 0.32378274 -0.0533594 0.39727908 0.5728319
-0.0795105 -0.04088411 0.7927995 0.37955707 0.3279326 -0.51069456 -0.09954607 -0.38716948
0.07574229 0.48230258 0.4725393 0.6666624 -0.16354723 0.33692196 0.15882549 0.79550195
0.4287384 0.18969952 0.63403314 0.012777123 0.07416967 0.6851599 0.13358694 0.45113164
-0.26221007 0.38571343 0.8074249 0.37403196 -0.007644122 -0.09358198 -0.46724412 0.48134452
0.5413816 0.80618334 0.3801947 0.6909525 0.2362612 0.064439744 0.11783165 -0.23544638
0.79929775 0.028896831 -0.4199046 -0.04365493 0.18084742 -0.04422106 0.069095924 -0.11332954
0.034078874 0.605776 0.31884012 -0.020542065 0.18113828 0.154843 0.12852976 -0.4227205
0.4505105 0.114460126 0.52331406 0.48608792 0.6662482 -0.07001714 0.8557623 0.08929606
0.6896112 0.7324715 0.124556124 0.107463464 0.020163253 -0.28254238 0.6675546 -0.5271808
0.47479472 0.35036325 0.84951913 0.29833478 0.33335084 0.479586 0.5164807 -0.16390797
0.23958795 0.0021757844 0.24022473 0.11153015 -0.20433855 0.04423112 -0.1969691 0.73254853
0.67612034 0.22118975 0.07430536 0.09456967 -0.42741695 -0.07976014 0.22666775 -0.06645965
0.14340103 0.13776174 -0.09319322 -0.058908388 0.46515247 0.41071808 0.18326397 -0.19654354
0.085327804 0.21454513 -0.4133593 0.5554283 0.19304621 0.3199114 0.90234494 0.6541416
-0.32839084 0.58242625 0.9083821 0.17437746 0.6462925 0.82683086 0.11253227 -0.03399342
0.02251957 0.25263023 0.8914451 0.040537756 0.30812907 -0.019295985 0.23986195 -0.09380804
-0.18090765 0.10004146 0.50621694 0.37651503 -0.068266265 0.071957625 0.6985567 -0.21352021
0.027929075 0.19911705 0.20612566 0.24183188 0.24405208 0.44547457 0.035579924 -0.080355346
0.053357914 0.087501064 0.5476023 -0.260134 -0.051492814 0.47153866 0.56471604 0.60758454
1.1064775 0.7158426 -0.05611175 0.08433964 0.62004244 0.41496244 0.115701355 0.8731357
0.19093317 0.10831254 -0.4502379 0.12651727 0.5052684 0.30860484 0.6217914 -0.47409412
0.09259825 0.118905805 0.2586945 0.6291273 0.13922314 0.2211397 0.03796423 -0.015818238
0.25987068 0.5641792 0.3503628 -0.26739192 0.55611277 0.08643644 0.41501695 0.47368535
0.22360055 0.8362736 -0.0610357 0.19955508 0.863014 0.06033778 0.261401 0.19729203
0.8748951 0.515859 0.39309445 -0.05376516 -0.35419583 0.3852709 0.44615403 -0.04509349
-0.0059537725 0.5878792 0.20738728 0.36037013 0.6290916 -0.23144297 -0.09478918 0.028061021
0.035679683 0.3507299 0.09930228 -0.014955338 0.87122214 0.42349008 0.517338 0.00046170247
0.229122 0.4986561 -0.01758231 0.20648655 0.24555974 0.23480646 -0.11685576 0.7150376
0.79137796 0.32679966 0.2907682 -0.18188809 0.037195478 0.3904794 0.49751827 0.062109515
0.023826512 0.6072716 -0.42375812 0.79870373 -0.202192 0.3790594 0.2959853 0.33537453
-0.036348153 0.62523955 0.4440517 0.65845037 0.7962154 0.23045698 -0.19761282 0.34947646
00000000: dc26 043f 3332 333f 2054 e93e e20e 853e
00000010: dac6 a53e 638f 5abd 2a68 cb3e 1da5 123f
00000020: 67d6 a2bd 1976 27bd e8f4 4a3f 4e55 c23e
00000030: c8e6 a73e e1bc 02bf cfde cbbd 143b c6be
00000040: c61e 9b3d 5df0 f63e acf0 f13e 63aa 2a3f
00000050: ed78 27be 0981 ac3e 26a3 223e 04a6 4b3f
00000060: 9983 db3e 9740 423e ff4f 223f 2357 513c
00000070: 45e6 973d a466 2f3f 04cb 083e bafa e63e
00000080: 6640 86be 3b7c c53e 66b3 4e3f 1e81 bf3e
00000090: 8b7b fabb e9a7 bfbd 9f3a efbe ca72 f63e
000000a0: fc97 0a3f 0862 4e3f e1a8 c23e 43e2 303f
000000b0: 75ee 713e fcf8 833d b851 f13d db18 71be
000000c0: c79e 4c3f 0cb9 ec3c bcfd d6be 83cf 32bd
000000d0: 1130 393e 2421 35bd 2a82 8d3d 5119 e8bd
000000e0: 4a96 0b3d 2314 1b3f 033f a33e d547 a8bc
000000f0: 507c 393e 2a8f 1e3e 4e9d 033e d26e d8be
00000100: 50a9 e63e 126a ea3d e9f7 053f 84e0 f83e
00000110: 3e8f 2a3f 2565 8fbd 3d13 5b3f dae0 b63d
00000120: 5c8a 303f 4183 3b3f 4817 ff3d ce15 dc3d
00000130: 682d a53c 65a9 90be dce4 2a3f 52f5 06bf
00000140: 4b18 f33e d062 b33e 167a 593f 56bf 983e
00000150: f6ac aa3e 4c8c f53e 1438 043f 7ed7 27be
00000160: 8b56 753e 9b97 0e3b 79fd 753e eb69 e43d
00000170: 203e 51be b12b 353d 45b2 49be 4d88 3b3f
00000180: 3916 2d3f 917f 623e 692d 983d bead c13d
00000190: 65d6 dabe 4959 a3bd 971b 683e ff1b 88bd
000001a0: b8d7 123e 6a11 0d3e 16dc bebd ec49 71bd
000001b0: 7728 ee3e a449 d23e 8da9 3b3e b642 49be
000001c0: 58c0 ae3d b8b1 5b3e d5a3 d3be 8d30 0e3f
000001d0: e8ad 453e 6dcb a33e 1400 673f d375 273f
000001e0: d822 a8be e319 153f bb8b 683f 0190 323e
000001f0: 6d73 253f 30ab 533f 5277 e63d af3c 0bbd
00000200: f67a b83c c058 813e bf35 643f eb0a 263d
00000210: 18c3 9d3e 9d12 9ebc 5f9e 753e 6e1e c0bd
00000220: db3f 39be 89e2 cc3d 6f97 013f 94c6 c03e
00000230: 2fcf 8bbd 855e 933d 9dd4 323f 0ba5 5abe
00000240: 84cb e43c 57e5 4b3e 9b12 533e c7a2 773e
00000250: cae8 793e 3e15 e43e 41bc 113d 5891 a4bd
00000260: d48d 5a3d c233 b33d aa2f 0c3f 4930 85be
00000270: 21ea 52bd 846d f13e 3b91 103f a98a 1b3f
00000280: 0ea1 8d3f 7641 373f 6fd5 65bd 43ba ac3d
00000290: 1abb 1e3f f575 d43e d5f4 ec3d d285 5f3f
000002a0: fc83 433e f7d2 dd3d 9585 e6be be8d 013e
000002b0: 4559 013f 7401 9e3e b92d 1f3f 77bc f2be
000002c0: 27a4 bd3d e384 f33d 9b73 843e 7d0e 213f
000002d0: 8390 0e3e 7272 623e 6180 1b3d 4095 81bc
000002e0: c50d 853e 0c6e 103f c162 b33e 98e7 88be
000002f0: 685d 0e3f 9705 b13d 1a7d d43e e386 f23e
00000300: 8bf7 643e 0716 563f 9200 7abd 2b58 4c3e
00000310: 7cee 5c3f bf24 773d 5ad6 853e ec06 4a3e
00000320: 20f9 5f3f 560f 043f ad43 c93e db38 5cbd
00000330: 2859 b5be 3a42 c53e 4d6e e43e f4b3 38bd
00000340: dd17 c3bb 407f 163f 555d 543e 6f82 b83e
00000350: 260c 213f 63ff 6cbe d420 c2bd 3ae0 e53c
00000360: dc24 123d df92 b33e fe5e cb3d 3c07 75bc
00000370: 6a08 5f3f b1d3 d83e 4370 043f a810 f239
00000380: f59e 6a3e da4f ff3e c708 90bc 3671 533e
00000390: 0374 7b3e 1b71 703e 1352 efbd b40c 373f
000003a0: bf97 4a3f 4952 a73e 92df 943e df40 3abe
000003b0: 495a 183d eaec c73e b7ba fe3e 8c66 7e3d
000003c0: d12f c33c 2776 1b3f d3f6 d8be d977 4c3f
000003d0: 6b0b 4fbe 1314 c23e 638b 973e 36b6 ab3e
000003e0: cde1 14bd b30f 203f bf5a e33e 3490 283f
000003f0: c6d4 4b3f eafc 6b3e 045b 4abe 94ee b23e

cell.erev f4 [64, 64]
-0.008850466 0.09034808 -0.16293335 0.13911326 -0.08403422 -0.060524713 -0.031138955 -0.19690023
-0.031614695 -0.06762844 -0.23400316 -0.09341659 0.14904906 -0.04686408 -0.032664683 0.06767916
-0.09387362 0.18564503 -0.094190724 -0.21742906 -0.08279069 -0.35384497 -0.042541087 -0.111962214
-0.10657094 0.121279314 -0.17202163 -0.19452341 -0.10010841 0.04244741 0.07359555 -0.26465523
-0.109143816 -0.007420646 0.18348286 -0.10326607 -0.13465035 0.14895423 -0.1891606 -0.0680008
0.06651013 0.15764385 -0.077381305 -0.5007778 -0.06717336 0.20248124 -0.16433528 -0.10567829
-0.3346192 -0.11060314 -0.12663302 -0.020714344 0.04617044 0.044589147 0.16198121 0.021265307
0.05412732 0.104657516 -0.20865312 0.10793002 -0.107554235 0.15544981 -0.23270948 0.096980125
0.033552404 0.17635274 -0.0033653565 -0.048119318 -0.05121422 0.08615324 -0.21225034 -0.09975221
-0.1755083 -0.29693195 -0.0334327 0.06262454 0.10144713 -0.047798157 0.17609407 0.0924482
-0.0440829 0.039203305 -0.20996723 -0.21686938 -0.4561504 -0.020134868 -0.08792944 -0.048276663
0.09895286 -0.07582447 -0.052976735 -0.45972523 0.051645994 -0.11089159 -0.054871067 0.003896385
-0.08595029 -0.11311404 0.042947307 -0.30126378 0.02536548 0.12063535 -0.095883735 -0.04336154
0.1912985 -0.07593535 -0.14833853 -0.09635282 0.20329303 0.27363268 -0.07346818 0.0848917
-0.32460704 -0.015992405 -0.0036578786 0.07749839 -0.10163073 -0.066408515 0.19468753 0.23594266
-0.051186964 0.1860743 -0.18158962 -0.004756535 0.11112173 0.09968671 -0.13537359 0.005170955
0.0901305 -0.13939635 -0.21944499 -0.01545129 -0.37133804 -0.21640071 -0.30987176 0.17773056
0.0068640844 -0.20443147 -0.07733332 -0.16092268 -0.15489638 -0.19035956 -0.22546154 0.18457383
-0.03597025 -0.0144532705 -0.27362478 -0.14522468 -0.23532058 -0.29289266 0.13226624 0.061479338
-0.19872011 0.13259414 -0.010407576 -0.20309393 0.09197552 -0.19148807 0.1639708 0.010119481
-0.38905573 -0.17792445 -0.21189654 -0.21141203 -0.11887278 -0.20318358 -0.46850234 -0.21621071
-0.13116299 0.14536278 -0.1485048 -0.07002291 -0.0730178 -0.045808133 -0.15465064 0.028550949
-0.4148605 0.026920272 -0.15239815 0.019902965 0.1773225 -0.07077279 0.17067118 -0.08243952
-0.11980559 -0.102629945 -0.032584406 -0.043345567 -0.103736795 -0.22219294 -0.25742 0.066611215
-0.10028707 -0.17420116 0.1024243 0.16027866 -0.26597768 0.016131876 0.05632795 -0.1923286
-0.230833 0.029255737 -0.040782306 0.07728929 -0.015135556 0.03637642 0.11514462 0.0064781075
0.003803922 -0.1406804 -0.083548166 -0.02884797 -0.46127537 -0.17685688 0.21657103 -0.15280183
-0.06211297 -0.015466444 -0.031185362 0.010766402 -0.14718695 -0.062273633 -0.016616622 -0.08458696
-0.23122488 0.07157163 -0.07541576 -0.41305304 -0.07907773 -0.15889671 -0.19559228 0.19846092
-0.14040984 -0.083747916 -0.6000699 -0.29246578 0.06133241 -0.056338467 -0.045049537 0.107087694
-0.17464909 0.108916916 0.069520146 0.2143006 0.018575437 0.09801772 0.1691227 0.12626839
0.09924618 -0.062219046 -0.1691345 0.06411771 0.11202094 0.23295781 -0.28430074 0.11535964
00000000: 8c01 11bc 6a08 b93d 00d8 26be b573 0e3e
00000010: 221a acbd c3e8 77bd 1f17 ffbc 37a0 49be
00000020: 697e 01bd c880 8abd 869e 6fbe 3251 bfbd
00000030: 51a0 183e 8df4 3fbd 67cb 05bd 5f9b 8a3d
00000040: d040 c0bd bb19 3e3e 11e7 c0bd b9a5 5ebe
00000050: 2a8e a9bd 2b2b b5be 903f 2ebd 724c e5bd
00000060: dd41 dabd 4a61 f83d 7026 30be 2531 47be
00000070: a305 cdbd 56dd 2d3d 44b9 963d e480 87be
00000080: cb86 dfbd e428 f3bb eee2 3b3e 297d d3bd
00000090: c8e1 09be 7587 183e 51b3 41be 0144 8bbd
000000a0: 7736 883d 646d 213e 177a 9ebd f932 00bf
000000b0: 3092 89bd 3e57 4f3e 8247 28be dc6d d8bd
000000c0: 3553 abbe e683 e2bd 16ac 01be 21b1 a9bc
000000d0: 371d 3d3d 1ca3 363d 67de 253e 9534 ae3c
000000e0: 9cb4 5d3d ae56 d63d 2aa9 55be 6a0a dd3d
000000f0: 6545 dcbd 3c2e 1f3e 654b 6ebe 849d c63d
00000100: 3f6e 093d d095 343e 508d 5cbb c318 45bd
00000110: 00c6 51bd 1c71 b03d 2758 59be e34a ccbd
00000120: 73b8 33be 7707 98be baf0 08bd 4b41 803d
00000130: 83c3 cf3d 00c8 43bd 0152 343e 7b55 bd3d
00000140: 4590 34bd a593 203d a601 57be 0213 5ebe
00000150: 8c8c e9be e1f1 a4bc 5a14 b4bd c0bd 45bd
00000160: cca7 ca3d dc49 9bbd 22fe 58bd 1b61 ebbe
00000170: c08a 533d 211b e3bd 7cc0 60bd 7e5a 7f3b
00000180: b506 b0bd 55a8 e7bd 84e9 2f3d 3f3f 9abe
00000190: 44cb cf3c ab0f f73d b15e c4bd df9b 31bd
000001a0: c1e3 433e fe83 9bbd 0ee6 17be a154 c5bd
000001b0: 0c2c 503e 9519 8c3e 7c76 96bd b3db ad3d
000001c0: e532 a6be 8102 83bc 05b9 6fbb 7ab7 9e3d
000001d0: c623 d0bd 3001 88bd 2b5c 473e f49a 713e
000001e0: 6ca9 51bd 438a 3e3e a1f2 39be b5dc 9bbb
000001f0: ca93 e33d 8c28 cc3d 609f 0abe 1d71 a93b
00000200: 5796 b83d ebbd 0ebe 30b6 60be 6827 7dbc
00000210: 0520 bebe 2698 5dbe 83a7 9ebe 00ff 353e
00000220: 1dec e03b 7c56 51be ef60 9ebd eac8 24be
00000230: 289d 1ebe 9eed 42be 64df 66be ec00 3d3e
00000240: 8a55 13bd 69cd 6cbc 8c18 8cbe c7b5 14be
00000250: e1f7 70be 07f6 95be cd70 073e c2d1 7b3d
00000260: 497d 4bbe c2c6 073e 8a84 2abc dbf7 4fbe
00000270: a95d bc3d 7315 44be f6e7 273e 2ecc 253c
00000280: 5032 c7be d431 36be 68fb 58be 657c 58be
00000290: 9273 f3bd 5b0f 50be 8adf efbe 5766 5dbe
000002a0: 974f 06be fbd9 143e a411 18be 2c68 8fbd
000002b0: 5b8a 95bd 4fa1 3bbd bd5c 1ebe aee3 e93c
000002c0: 9868 d4be e787 dc3c 430e 1cbe 8b0b a33c
000002d0: 0894 353e 53f1 90bd 6dc4 2e3e 0dd6 a8bd
000002e0: a25c f5bd a62f d2bd 3a77 05bd 1f8b 31bd
000002f0: f573 d4bd 8c86 63be 8ecc 83be 766b 883d
00000300: 4f63 cdbd ca61 32be d5c3 d13d 1720 243e
00000310: 3a2e 88be ff26 843c 23b8 663d caf1 44be
00000320: 7c5f 6cbe baa9 ef3c 590b 27bd d949 9e3d
00000330: 20fb 77bc 71ff 143d f1d0 eb3d 4e46 d43b
00000340: 394b 793b 860e 10be 4d1b abbd 9452 ecbc
00000350: 492c ecbe f819 35be ccc4 5d3e 1578 1cbe
00000360: 2b6a 7ebd f866 7dbc 7278 ffbc 9065 303c
00000370: 2db8 16be a312 7fbd 951f 88bc ee3b adbd
00000380: 37c6 6cbe 2694 923d 9473 9abd b07b d3be
00000390: 81f3 a1bd d2b5 22be 5849 48be 5739 4b3e
000003a0: 99c7 0fbe 0784 abbd 2e9e 19bf 13be 95be
000003b0: b137 7b3d 2ac3 66bd dd85 38bd cb50 db3d
000003c0: 36d7 32be d50f df3d 9460 8e3d 9e71 5b3e
000003d0: 842b 983c 84bd c83d 802e 2d3e 804c 013e
000003e0: 9541 cb3d 66d9 7ebd 9831 2dbe 2550 833d
000003f0: 3c6b e53d 7e8c 6e3e de8f 91be ad41 ec3d

cell.mu f4 [64, 64]
1.1053019 0.85228056 0.766389 0.7697715 0.73933977 1.2194394 0.91925144 0.5966425
0.71559787 0.90459806 0.8480329 0.98031485 0.65745384 1.5222585 1.0865446 1.2036595
0.8571608 0.75398993 0.7640999 0.799007 0.59593505 0.19723554 0.88598543 0.5115584
0.7735432 0.61288846 0.6179544 0.75174946 0.85597426 0.5441886 0.7374847 0.50135404
0.58470607 1.2895212 0.6716051 0.67817277 0.4556155 0.76303333 1.3332305 0.8874649
0.67640173 0.46083742 1.1244401 0.37178186 0.6954712 0.70197004 0.7231436 0.9335942
0.522385 0.9973525 1.3794818 0.8506775 0.7644372 0.5940553 0.7013828 1.2111053
1.0167726 0.5861579 0.3598463 0.65766245 0.9673827 0.46807456 0.68694705 0.98499006
0.77254236 0.7073889 1.0101253 0.9282445 0.6905306 0.5549562 0.3186627 0.66194946
0.45619178 0.6004927 0.91942525 0.8474347 1.0276009 0.7808218 0.6045414 1.0107222
1.0401201 0.8535502 0.54787755 0.709529 0.23763314 0.6838485 0.97462815 0.75868833
0.7359726 0.8223248 0.6244504 0.53682375 1.1772454 0.8803221 0.93933666 0.705543
1.041383 0.8993356 0.8575495 0.6318717 1.0836617 0.4463834 0.9009344 0.9205978
0.6115291 0.98066604 0.87763673 1.1637968 0.47724938 0.41643512 0.86272955 0.96396613
0.6095617 1.2355466 1.0922573 0.6219289 0.79673356 0.94245535 0.8048854 0.62290657
1.1301231 0.74457806 0.620475 1.0218033 0.7211186 0.7899355 0.84951067 1.3557962
0.64478034 0.55536115 0.5998202 1.1685601 0.580223 0.8728922 0.5018733 0.6038913
0.8453221 0.94692355 0.7004014 0.6879178 0.5816355 0.3377429 0.41271928 0.734789
1.1562535 1.2450168 0.42946923 0.56886864 0.9921163 0.5427635 0.8781681 0.7265632
0.49305195 0.56518245 1.127906 0.82377654 0.5650382 0.7756313 0.5635311 0.76806223
0.45157716 0.4572848 0.46279463 0.8855983 0.509358 0.5678092 0.8491994 0.6320866
0.81045914 0.541328 1.0844896 0.7768209 0.7498139 0.9085364 0.4152809 1.4223261
0.55199176 1.0690798 1.4985886 0.81854534 0.6048267 0.88702434 0.8911149 0.5823659
0.8335256 0.8790806 1.0700241 0.6629616 0.67919207 0.47299886 0.9289545 1.1609223
0.78951085 0.45595133 0.72430897 0.7352996 0.3711962 0.9720783 0.59340495 0.72503376
0.69595844 0.91117316 0.7979247 1.0669631 0.98006785 0.50254136 0.93654245 1.0972258
1.0410329 1.0180192 1.0169122 0.8173369 0.44777128 0.64846843 0.67442876 0.68280476
0.8322021 0.6369682 0.8194023 0.99134284 0.5634416 0.6990102 0.73961985 0.8821288
0.3721595 0.69115764 0.74892724 0.5821639 0.56311226 0.6757656 0.6894498 0.6072157
0.46874937 0.57537866 0.69017476 0.80698645 1.1300229 1.024832 0.9764974 1.0241339
0.9987314 0.8319776 0.854458 0.7502203 1.1023054 0.621193 0.58875275 0.97808003
1.1154447 0.7660779 0.48950678 0.6588076 0.8805693 0.43286777 0.717845 0.9564268
00000000: 887a 8d3f 0f2f 5a3f 1232 443f bf0f 453f
00000010: 5f45 3d3f 9716 9c3f 1054 6b3f 90bd 183f
00000020: 6c31 373f bd93 673f af18 593f eaf5 7a3f
00000030: e54e 283f 5ed9 c23f e513 8b3f 8411 9a3f
00000040: e46e 5b3f 7c05 413f 0d9c 433f b98b 4c3f
00000050: 338f 183f 1df8 493e f1cf 623f 7ef5 023f
00000060: ed06 463f 42e6 1c3f 4232 1e3f a772 403f
00000070: 2121 5b3f f24f 0b3f cccb 3c3f bd58 003f
00000080: 4caf 153f 080f a53f 50ee 2b3f bb9c 2d3f
00000090: 6f46 e93e 2756 433f 4ca7 aa3f e630 633f
000000a0: aa28 2d3f e2f2 eb3e a7ed 8f3f 315a be3e
000000b0: 670a 323f 4fb4 333f f01f 393f 0800 6f3f
000000c0: 06bb 053f 7e52 7f3f dc92 b03f 00c6 593f
000000d0: 28b2 433f 0214 183f d38d 333f 8005 9b3f
000000e0: 9b25 823f 720e 163f c63d b83e 915c 283f
000000f0: 65a6 773f 78a7 ef3e c3db 2f3f 4f28 7c3f
00000100: 56c5 453f 7017 353f c94b 813f 6ea1 6d3f
00000110: 9dc6 303f 9c11 0e3f c227 a33e 8575 293f
00000120: f891 e93e e4b9 193f 745f 6b3f 7bf1 583f
00000130: 6d88 833f f0e3 473f 3ac3 1a3f 585f 813f
00000140: a822 853f 4482 5a3f b441 0c3f b1a3 353f
00000150: 1a56 733e b210 2f3f 3b81 793f 6639 423f
00000160: b368 3c3f e183 523f fbdb 1f3f 486d 093f
00000170: faaf 963f ca5c 613f 5e78 703f 779e 343f
00000180: 0a4c 853f dc3a 663f 5d88 5b3f 58c2 213f
00000190: 6db5 8a3f 5d8c e43e a3a3 663f 4cac 6b3f
000001a0: 2c8d 1c3f ee0c 7b3f cdac 603f 4bf7 943f
000001b0: 085a f43e fc36 d53e d8db 5c3f 7cc6 763f
000001c0: 3c0c 1c3f 6426 9e3f 16cf 8b3f bb36 1f3f
000001d0: bbf6 4b3f c144 713f f80c 4e3f ce76 1f3f
000001e0: e0a7 903f ab9c 3e3f 73d7 1e3f 73ca 823f
000001f0: 3b9b 383f 3739 4a3f 8879 593f bb8a ad3f
00000200: 5310 253f 262c 0e3f d18d 193f 6193 953f
00000210: 7f89 143f dd75 5f3f c57a 003f 9f98 1a3f
00000220: 0767 583f 9569 723f 824d 333f 621b 303f
00000230: 10e6 143f a3ec ac3e f14f d33e 221b 3c3f
00000240: 1d00 943f b65c 9f3f 64e3 db3e 60a1 113f
00000250: 55fb 7d3f 8cf2 0a3f a0cf 603f 0c00 3a3f
00000260: 4e71 fc3e ccaf 103f 395f 903f 05e3 523f
00000270: 58a6 103f c68f 463f 9343 103f ba9f 443f
00000280: 1f35 e73e 3c21 ea3e 6bf3 ec3e 92b6 623f
00000290: 4965 023f f25b 113f 2265 593f 6dd0 213f
000002a0: 407a 4f3f 7994 0a3f 8ed0 8a3f bcdd 463f
000002b0: cef3 3f3f d795 683f b39f d43e c80e b63f
000002c0: 554f 0d3f 9bd7 883f c0d1 bf3f 308c 513f
000002d0: ecd5 1a3f 0714 633f 1b20 643f ee15 153f
000002e0: ef61 553f 6d0b 613f 8df6 883f dab7 293f
000002f0: 88df 2d3f e82c f23e f6cf 6d3f 1a99 943f
00000300: 621d 4a3f 7472 e93e 506c 393f 983c 3c3f
00000310: 6e0d be3e 20da 783f 63e9 173f d09b 393f
00000320: 552a 323f a542 693f cb44 4c3f 3f92 883f
00000330: bae5 7a3f 8da6 003f 3fc1 6f3f e571 8c3f
00000340: 9140 853f 744e 823f 2e2a 823f fe3c 513f
00000350: 4742 e53e 0702 263f 5da7 2c3f 4bcc 2e3f
00000360: 320b 553f 5910 233f 59c4 513f a5c8 7d3f
00000370: b53d 103f 55f2 323f ba57 3d3f 31d3 613f
00000380: b18b be3e b5ef 303f b2b9 3f3f b108 153f
00000390: 2028 103f f9fe 2c3f c87f 303f 7d72 1b3f
000003a0: ebff ef3e 044c 133f 4baf 303f aa96 4e3f
000003b0: 97a4 903f b22d 833f bcfb 793f d216 833f
000003c0: dcac 7f3f 7cfc 543f c2bd 5a3f 700e 403f
000003d0: 5818 8d3f 8106 1f3f 80b8 163f 7463 7a3f
000003e0: e4c6 8e3f ae1d 443f a2a0 fa3e 9da7 283f
000003f0: fd6c 613f d8a0 dd3e b1c4 373f 63d8 743f

cell.sigma f4 [64, 64]
5.655789 4.1073914 4.3914886 6.1177177 4.6824436 6.9929533 6.09431 3.4133346
6.9911485 4.830301 4.7088137 4.902282 6.6569633 3.8230894 4.000647 6.962303
5.004407 5.2330513 3.579953 5.8741837 6.9248013 4.430642 5.9327717 5.8068023
5.109515 7.725432 6.1932116 6.320053 5.516249 5.632634 7.0000424 5.574232
6.3503594 8.056919 7.356988 5.0525546 3.58123 6.2786126 4.427185 3.4105186
7.437173 3.5860357 8.450657 3.012514 3.7228305 7.011475 5.6352334 4.6665235
6.3376875 4.0942864 4.938064 3.373114 4.474559 3.580924 7.764174 5.280464
6.2387385 4.610179 4.911119 7.503676 6.2340918 6.8445163 6.5388074 3.9446473
7.324867 7.610697 6.561835 7.739746 4.5163217 4.1141953 3.3856652 5.247161
5.1908135 4.291906 4.964505 5.107026 8.292401 5.7016425 7.651053 6.314796
6.753878 7.5750856 3.1979408 4.564282 3.344125 8.091485 6.6224594 4.656768
3.8036473 7.0700126 6.2473392 4.1229134 4.2052164 4.4715858 6.3584995 3.6205828
5.4994707 7.143352 7.2414937 6.0903006 6.2827687 6.2405863 6.9737024 7.773686
6.2560945 7.1152296 7.790985 3.9987252 4.281309 6.9266706 6.1270413 4.5464373
6.152117 4.040169 5.322672 6.884808 5.5450826 4.052586 6.825653 5.7952247
5.517175 3.252177 4.625411 6.346572 4.367337 6.1187363 4.046062 8.131768
7.579356 7.1025705 5.1635003 3.8898 4.395255 5.4073377 3.0806913 7.5992036
6.5303288 7.7325935 3.6388495 4.4063506 6.2210774 5.426066 4.0517473 7.712413
6.998784 5.980924 7.89262 3.3150296 3.465846 5.916494 8.001823 7.074782
4.1317782 7.4770603 7.278079 6.1662025 7.3390155 6.159633 5.6131377 5.0033345
3.9230871 3.9345276 5.1899114 4.376007 6.7116055 6.210114 3.1377034 3.7327914
7.3931146 4.3356113 6.068955 4.391705 5.1656814 7.0398064 6.078044 7.393832
5.247657 3.9166274 6.195806 7.165695 6.188541 6.2443066 6.1037254 7.81608
7.0896144 5.289931 4.781607 7.901716 4.4567714 3.848012 6.5502415 4.3786526
3.5619094 3.5484998 6.2830276 4.073331 7.6263857 5.754527 4.622604 4.0304356
4.6932735 7.938974 4.201305 3.4809036 6.7476034 6.559694 3.613688 4.683936
8.067421 4.5560527 6.8629527 4.4852047 3.0422928 3.41751 7.567981 6.5244417
6.4433 6.6775465 6.700454 7.499428 7.507517 7.666576 6.7299714 6.233302
5.9878335 3.6978939 6.7842903 6.130674 6.792568 4.9160247 7.8323755 5.922853
4.963807 5.572617 4.5744843 5.3388367 7.940515 6.554149 5.4706526 5.990635
6.351054 4.2581253 4.714715 7.7460856 6.1136475 6.4105916 4.497199 3.9135687
6.3706083 7.0892205 3.1380737 3.3088632 4.874632 7.2005486 3.6051846 8.064574
00000000: 39fc b440 c06f 8340 1387 8c40 58c4 c340
00000010: 94d6 9540 46c6 df40 9604 c340 1374 5a40
00000020: 7db7 df40 d391 9a40 9aae 9640 7fdf 9c40
00000030: d805 d540 7fad 7440 4d05 8040 30cb de40
00000040: 1a24 a040 2875 a740 f31d 6540 50f9 bb40
00000050: f997 dd40 d2c7 8d40 44d9 bd40 53d1 b940
00000060: 2681 a340 bd36 f740 ca2e c640 e03d ca40
00000070: 1d85 b040 8a3e b440 5900 e040 1c60 b240
00000080: 2536 cb40 24e9 0041 726c eb40 87ae a140
00000090: df32 6540 65ea c840 80ab 8d40 f045 5a40
000000a0: 52fd ed40 9c81 6540 e435 0741 08cd 4040
000000b0: db42 6e40 015e e040 d553 b440 2954 9540
000000c0: 56ce ca40 6504 8340 9f04 9e40 1ae1 5740
000000d0: 962f 8f40 dc2d 6540 1d74 f840 90f9 a840
000000e0: bfa3 c740 9686 9340 e327 9d40 1d1e f040
000000f0: ae7d c740 4706 db40 e93d d140 1a75 7c40
00000100: 4f65 ea40 d48a f340 8dfa d140 00ac f740
00000110: b585 9040 7da7 8340 bdae 5840 bee8 a740
00000120: 251b a640 4b57 8940 3add 9e40 c26c a340
00000130: adad 0441 db73 b640 6dd5 f440 cf12 ca40
00000140: c51f d840 1a67 f240 10ab 4c40 990e 9240
00000150: 2506 5640 b976 0141 30eb d340 3e04 9540
00000160: f56e 7340 8b3d e240 34ea c740 e8ee 8340
00000170: 2291 8640 3b17 8f40 d478 cb40 a1b7 6740
00000180: aafb af40 5796 e440 51ba e740 bee3 c240
00000190: 710c c940 e2b2 c740 9228 df40 09c2 f840
000001a0: ed31 c840 f6af e340 c04f f940 1deb 7f40
000001b0: 7c00 8940 49a7 dd40 b910 c440 6a7c 9140
000001c0: 24de c440 1049 8140 5453 aa40 5950 dc40
000001d0: 5171 b140 c9ae 8140 c06b da40 7b72 b940
000001e0: b38c b040 ab23 5040 5e03 9440 1e17 cb40
000001f0: 3ac1 8b40 b0cc c340 5779 8140 b91b 0241
00000200: 168a f240 4248 e340 653b a540 7cf2 7840
00000210: eea5 8c40 e908 ad40 0c2a 4540 ad2c f340
00000220: 74f8 d040 6871 f740 e9e2 6840 d300 8d40
00000230: 1113 c740 55a2 ad40 eaa7 8140 16cc f640
00000240: 0af6 df40 bb63 bf40 5890 fc40 7229 5440
00000250: 6cd0 5d40 eb53 bd40 7807 0041 9d64 e240
00000260: 8737 8440 1444 ef40 06e6 e840 8851 c540
00000270: 37d9 ea40 b71b c540 d39e b340 511b a040
00000280: dc13 7b40 4dcf 7b40 c113 a640 4008 8c40
00000290: 79c5 d640 41b9 c640 22d0 4840 0ee6 6e40
000002a0: 6594 ec40 54bd 8a40 e134 c240 d988 8c40
000002b0: 434d a540 1846 e140 567f c240 469a ec40
000002c0: ceec a740 06aa 7a40 0b44 c640 604d e540
000002d0: 8708 c640 5cd1 c740 b851 c340 541d fa40
000002e0: 1fde e240 1d47 a940 ed02 9940 dcda fc40
000002f0: df9d 8e40 d445 7640 949b d140 ec1d 8c40
00000300: 53f6 6340 9f1a 6340 900e c940 ba58 8240
00000310: 5a0b f440 1625 b840 5fec 9340 54f9 8040
00000320: 4c2f 9640 130c fe40 1771 8640 20c7 5e40
00000330: 5eec d740 03e9 d140 aa46 6740 cee2 9540
00000340: 2814 0141 2fcb 9140 4f9d db40 cc86 8f40
00000350: edb4 4240 7cb8 5a40 e62c f240 3ac8 d040
00000360: 832f ce40 76ae d540 1f6a d640 50fb ef40
00000370: 943d f040 9754 f540 ed5b d740 3677 c740
00000380: 559c bf40 4baa 6c40 e818 d940 7b2e c440
00000390: b85c d940 1350 9d40 d2a2 fa40 0388 bd40
000003a0: 82d7 9e40 e152 b240 2d62 9240 c0d7 aa40
000003b0: b318 fe40 97bb d140 960f af40 48b3 bf40
000003c0: d63b cb40 9042 8840 f2de 9640 efdf f740
000003d0: 00a3 c340 9123 cd40 0ee9 8f40 e977 7a40
000003e0: 06dc cb40 e5da e240 33d6 4840 6ac4 5340
000003f0: fcfc 9b40 e56a e640 58bb 6640 7f08 0141

cell.sensory_w f4 [1, 64]
1.1175126 1.3332949 1.0595427 1.1385939 0.34309927 1.4294709 1.1988592 1.5489635
0.9177196 1.1734254 1.4838011 1.012947 1.2471116 0.92844784 1.0051945 1.3721545
0.8094035 1.547445 1.5403244 0.8430266 0.6623193 0.7991967 1.3489141 0.6507587
1.3843539 1.4495198 1.0824157 0.94569415 1.0045059 0.8361468 0.5447204 1.7159183
0.51422507 1.0339129 1.1977077 0.73216003 1.449957 1.3166524 0.9076693 0.88224196
0.8376834 1.1888449 0.4360513 1.2211725 0.64540386 1.1879634 1.1029497 1.717747
0.85502344 0.9909303 1.7589003 0.63671744 0.95224106 0.6825394 1.2682096 1.4532481
1.4019305 0.7994613 0.7546383 1.6134895 1.3705647 0.8989141 0.9792178 2.191785
00000000: a70a 8f3f 68a9 aa3f 189f 873f 72bd 913f
00000010: b5aa af3e e7f8 b63f 3874 993f 7044 c63f
00000020: acef 6a3f ce32 963f 32ed bd3f 3fa8 813f
00000030: 5aa1 9f3f c2ae 6d3f 37aa 803f c2a2 af3f
00000040: 1135 4f3f ae12 c63f 5a29 c53f 97d0 573f
00000050: c28d 293f 2898 4c3f 38a9 ac3f 1f98 263f
00000060: 8232 b13f dd89 b93f 998c 8a3f 0319 723f
00000070: a693 803f b70d 563f cc72 0b3f 36a3 db3f
00000080: 41a4 033f 4257 843f 7c4e 993f d76e 3b3f
00000090: 3198 b93f 1188 a83f 045d 683f 9cda 613f
000000a0: 6b72 563f 122c 983f 1e42 df3e 614f 9c3f
000000b0: 3039 253f 2f0f 983f 752d 8d3f 22df db3f
000000c0: d1e2 5a3f 9cad 7d3f a523 e13f eaff 223f
000000d0: 12c6 733f e7ba 2e3f b154 a23f 0904 ba3f
000000e0: 7572 b33f 7fa9 4c3f fa2f 413f d386 ce3f
000000f0: aa6e af3f 3c1f 663f 05ae 7a3f 3546 0c40

cell.sensory_mu f4 [1, 64]
-0.3444739 -0.24391232 -0.14545266 -0.24694079 0.85288227 -0.27163422 -0.2818137 -0.33252695
-0.23980285 0.8690378 -0.28743187 -0.323517 -0.32942128 -0.28902957 -0.27978292 -0.39355117
-0.2761979 -0.26919854 0.8094877 -0.103980824 -0.1678787 -0.32302177 -0.46808523 0.008568836
-0.120413676 -0.23032299 -0.16618858 0.8087277 -0.27438107 0.8631782 -0.16555512 -0.17236651
0.8049144 -0.23687838 -0.17716406 0.8558078 -0.21739417 -0.28129023 0.83790976 -0.2607758
-0.24945441 -0.29636058 0.85455996 0.82743824 -0.30266705 -0.0755079 -0.1542852 -0.40267688
0.8219676 -0.34468448 -0.36439207 -0.05055948 -0.07862399 -0.47183377 -0.24852353 -0.36336416
0.7920899 -0.29763234 -0.1152615 -0.07779738 -0.22457005 -0.27346686 0.66981846 -0.4234143
00000000: e25e b0be 27c4 79be 8bf1 14be 0cde 7cbe
00000010: 7e56 5a3f a413 8bbe e349 90be f940 aabe
00000020: e18e 75be 4379 5e3f 452a 93be 05a4 a5be
00000030: e8a9 a8be affb 93be b53f 8fbe 8a7f c9be
00000040: d069 8dbe 64d4 89be 963a 4f3f e6f3 d4bd
00000050: 65e8 2bbe 1c63 a5be dea8 efbe 4e64 0c3c
00000060: 729b f6bd cad9 6bbe 572d 2abe c708 4f3f
00000070: ad7b 8cbe 3ff9 5c3f 4887 29be d980 30be
00000080: df0e 4e3f 3f90 72be 7f6a 35be 3816 5b3f
00000090: 949c 5ebe 4605 90be 4181 563f 6884 85be
000000a0: fa70 7fbe 93bc 97be 71c4 5a3f fed2 533f
000000b0: 2df7 9abe e3a3 9abd f1fc 1dbe aa2b cebe
000000c0: 786c 523f 7c7a b0be 9991 babe 7517 4fbd
000000d0: 9d05 a1bd 3294 f1be f47c 7ebe de0a babe
000000e0: 67c6 4a3f 4463 98be 390e ecbd 3c54 9fbd
000000f0: b1f5 65be d903 8cbe 3979 2b3f c2c9 d8be

cell.sensory_sigma f4 [1, 64]
4.373791 5.4582767 5.4763455 4.669648 6.15914 5.4247046 3.9069474 4.202897
3.6905887 5.603397 8.022018 5.9917226 4.9233212 4.3546443 6.706296 8.499101
3.8824966 8.060213 8.637355 5.674765 6.416016 6.208737 3.668736 3.997236
4.780638 4.4499254 5.454177 6.7187185 6.3357635 7.5311966 4.408481 7.223964
4.91772 7.716908 7.9539967 3.924482 3.5623138 7.3226495 8.194783 5.81173
6.6463213 5.8011518 5.1965914 7.585846 7.076476 2.6392236 4.4472475 4.8502483
7.3361473 3.7304668 3.5792098 2.8431509 4.3563466 3.766031 5.534079 4.8952374
7.8397636 8.465784 6.6722455 4.1731853 6.9523726 3.9308662 4.539851 5.569189
00000000: 19f6 8b40 34aa ae40 393e af40 c26d 9540
00000010: ad17 c540 2e97 ad40 6d0b 7a40 227e 8640
00000020: 9b32 6c40 074f b340 305a 0041 31bc bf40
00000030: d98b 9d40 3f59 8b40 fa99 d640 51fc 0741
00000040: d37a 7840 a2f6 0041 9b32 0a41 ad97 b540
00000050: 0150 cd40 f9ad c640 92cc 6a40 b7d2 7f40
00000060: fdfa 9840 ca65 8e40 9e88 ae40 beff d640
00000070: 93be ca40 90ff f040 4712 8d40 b72a e740
00000080: f65d 9d40 e9f0 f640 2487 fe40 b72a 7b40
00000090: f3fc 6340 2553 ea40 d51d 0341 b1f9 b940
000000a0: aaae d440 09a3 b940 7a4a a640 40bf f240
000000b0: 7e72 e240 0ae9 2840 da4f 8e40 3c35 9b40
000000c0: b8c1 ea40 f8bf 6e40 c611 6540 2ff6 3540
000000d0: 3167 8b40 a706 7140 2d17 b140 c9a5 9c40
000000e0: 58df fa40 da73 0741 0983 d540 bc8a 8540
000000f0: d679 de40 5093 7b40 7646 9140 cc36 b240

attn.weight f4 [1, 64]
-0.37373877 -0.036176287 -0.01614865 -0.10540902 -0.4666823 -0.059441596 -0.41737574 -0.120830685
-0.23681119 -0.6347123 -0.25013265 -0.07281354 -0.25662434 -0.30385605 -0.015461742 -0.19729847
-0.14953193 -0.24227566 -0.6143992 -0.1029623 -0.20124556 -0.21135257 -0.32284003 -0.17751946
-0.06984412 -0.14244549 -0.26519093 -0.53561497 -0.05109797 -0.67411405 -0.09318335 -0.13394304
-0.21057822 -0.24804585 -0.12427496 -0.3687087 -0.24130239 -0.23954046 -0.5850403 -0.27566195
-0.14504999 -0.38857225 -0.6389513 -0.41086376 -0.022083849 -0.23077315 -0.11491906 -0.36070824
-0.51576126 -0.22787477 -0.4300436 -0.14902726 -0.11593875 -0.33660957 -0.2740503 -0.21365957
-0.38844526 -0.06499879 -0.1011891 -0.121620946 -0.25289643 -0.2192054 -0.4233913 -0.25227553
00000000: b05a bfbe 962d 14bd 2c4a 84bc afe0 d7bd
00000010: fcf0 eebe 0879 73bd 46b2 d5be 1476 f7bd
00000020: a27e 72be 817c 22bf 6311 80be 441f 95bd
00000030: 4464 83be 0593 9bbe 3f53 7dbc 9c08 4abe
00000040: e61e 19be 1c17 78be 4449 1dbf e6dd d2bd
00000050: 5113 4ebe cf6c 58be 4a4b a5be a9c7 35be
00000060: 6f0a 8fbd 3bdd 11be 1bc7 87be 101e 09bf
00000070: 1b4c 51bd bd92 2cbf ead6 bebd 5d28 09be
00000080: d1a1 57be bbff 7dbe df83 febd 63c7 bcbe
00000090: f917 77be 184a 75be 33c5 15bf 9023 8dbe
000000a0: fc87 14be f1f2 c6be 5092 23bf bc5c d2be
000000b0: 30e9 b4bc cc4f 6cbe af5a ebbd c0ae b8be
000000c0: ee08 04bf 0158 69be ad2e dcbe 9a9a 18be
000000d0: 4c71 edbd 1758 acbe 5250 8cbe 93c9 5abe
000000e0: 4ce2 c6be 161e 85bd 3b3c cfbd 6714 f9bd
000000f0: a47b 81be 6177 60be bfc6 d8be 422a 81be

classifier.0.weight f4 [32, 64]
-0.33471423 -0.59609294 -0.18796727 -0.6282889 0.07197784 -0.38695496 -0.095135696 -0.45303658
-0.17729954 0.064652495 -0.22826985 -0.6500875 -0.7653513 -0.21018781 -0.3110403 -0.2126058
-0.46903735 -0.7904961 0.06625172 0.024910342 -0.06063976 -0.12093896 -0.24107684 -0.21188027
-0.4644529 -0.3682131 -0.52488613 0.069216184 -0.22085479 -0.017159643 -0.31424072 -0.16620958
-0.11566738 -0.50726914 -0.67268467 -0.1381676 -0.7147167 -0.56711125 -0.116650596 -0.82299715
-0.55741006 -0.4931224 -0.12171047 -0.1510688 -0.74461377 -0.5343079 -0.11467674 -0.6051494
-0.08553097 -0.56904316 -0.15491378 -0.29253328 -0.1577683 -0.13007942 -0.635277 -0.54758006
-0.056706123 -0.7755801 -0.2566176 -0.6605596 -0.85448045 -0.5458061 -0.13740246 -0.6288721
-0.19601291 -0.5733509 -0.23089044 -0.6648638 -0.013592708 -0.34384736 -0.08307225 -0.3152378
-0.20598668 -0.13042656 -0.30007046 -0.48840886 -0.7159885 -0.36898398 -0.34276167 -0.17702316
-0.42344177 -0.6016486 0.1237624 0.05363852 -0.17178684 -0.07645001 -0.2973865 -0.11344948
-0.33834177 -0.26873633 -0.6361856 -0.09117009 -0.25498545 0.07803696 -0.3868337 -0.04345168
-0.13372874 -0.4888891 -0.4844842 0.054905366 -0.7818484 -0.5313297 0.012246082 -0.7130116
-0.45237824 -0.39697528 -0.05551665 -0.039099455 -0.58886594 -0.6973005 -0.1415691 -0.48374936
-0.027288113 -0.5752254 -0.17237777 -0.24198262 -0.2549813 -0.1309863 -0.6599956 -0.5639735
0.038706116 -0.73004854 -0.42703018 -0.70663023 -0.63325316 -0.4976696 -0.102023706 -0.42018375
-0.32905167 -0.47783026 -0.23549241 -0.6489903 -0.0684953 -0.31302297 -0.30829722 -0.4026864
-0.1875716 -0.16230886 -0.31929743 -0.6168154 -0.68537796 -0.2995661 -0.2107009 -0.21880768
-0.54848427 -0.70711887 -0.09651804 -0.09913439 -0.088414945 -0.07848975 -0.3095219 0.024536895
-0.24070016 -0.37204412 -0.6720888 -0.032961823 -0.17209125 -0.038883127 -0.45521557 -0.14671542
-0.12502173 -0.6007317 -0.5440067 -0.038810242 -0.6280148 -0.337001 -0.024110103 -0.67757523
-0.43651566 -0.5741429 0.005646412 0.04852192 -0.7102688 -0.5159727 -0.15282929 -0.5385139
0.04776596 -0.5978614 -0.16656677 -0.36844495 -0.19827625 -0.11326322 -0.70020026 -0.6474556
0.02753196 -0.66651624 -0.40929586 -0.6723529 -0.76879126 -0.4942498 -0.029758325 -0.5065029
0.29790136 0.41646105 0.18565813 0.6913867 -0.20808329 0.31482425 0.22634974 0.49797994
0.1970251 -0.12463462 0.103318416 0.5078297 0.632909 0.31031993 0.3690394 0.35430872
0.38688898 0.69294995 -0.14457883 -0.13201402 -0.07007731 -0.11471244 0.32297197 -0.015346887
0.44198793 0.46790716 0.60901266 -0.05161236 0.32507896 -0.24865247 0.3286317 -0.016779747
-0.12614083 0.5743008 0.6941758 0.0031663638 0.6183144 0.56007755 -0.03439408 0.7348296
0.41336432 0.5596027 -0.013687433 -0.093717664 0.7677549 0.75633883 0.0311741 0.645081
-0.22250628 0.6061702 0.17780437 0.21461396 0.46721223 0.10046888 0.5772233 0.7599225
-0.15337196 0.7239353 0.37521595 0.79037654 0.8516791 0.65804917 -0.09963248 0.6391295
00000000: aa5f abbe 8c99 18bf 7e7a 40be 8bd7 20bf
00000010: 1e69 933d f61e c6be 81d6 c2bd 69f4 e7be
00000020: 038e 35be 8768 843d 92bf 69be 226c 26bf
00000030: 10ee 43bf 793b 57be ad40 9fbe 56b5 59be
00000040: aa25 f0be f45d 4abf fbae 873d c610 cc3c
00000050: 6661 78bd d8ae f7bd d9dc 76be 24f7 58be
00000060: c5cc edbe 6d86 bcbe f05e 06bf 37c1 8d3d
00000070: c227 62be 6192 8cbc 29e4 a0be d832 2abe
00000080: 05e3 ecbd 64dc 01bf 1035 2cbf cf7b 0dbe
00000090: acf7 36bf 342e 11bf 82e6 eebd f1af 52bf
000000a0: 6db2 0ebf 8a7a fcbe 5743 f9bd c8b1 1abe
000000b0: 029f 3ebf 67c8 08bf a3db eabd 12eb 1abf
000000c0: dc2a afbd d0ac 11bf b8a1 1ebe ecc6 95be
000000d0: 038e 21be 8a33 05be 83a1 22bf 352e 0cbf
000000e0: ae44 68bd 6b8c 46bf 6263 83be 6f1a 29bf
000000f0: 3bbf 5abf f3b9 0bbf 3bb3 0cbe c3fd 20bf
00000100: 9cb7 48be 20c7 12bf 8b6e 6cbe 8434 2abf
00000110: f3b3 5ebc c30c b0be c921 aabd d966 a1be
00000120: 2cee 52be 8a8e 05be d6a2 99be ba10 fabe
00000130: 064b 37bf 78eb bcbe 757e afbe 8f45 35be
00000140: 5ccd d8be a505 1abf 2477 fd3d 11b4 5b3d
00000150: e4e8 2fbe d391 9cbd 0b43 98be 3358 e8bd
00000160: 223b adbe cf97 89be 0fdd 22bf 62b7 babd
00000170: 748d 82be d7d1 9f3d 110f c6be 64fa 31bd
00000180: 30f0 08be ac4f fabe 500e f8be 73e4 603d
00000190: 3727 48bf 3905 08bf caa3 483c ee87 36bf
000001a0: 1f9e e7be 5840 cbbe 6d65 63bd c026 20bd
000001b0: ebbf 16bf 4982 32bf 7df7 10be ffad f7be
000001c0: 528b dfbc f941 13bf cc83 30be 4bca 77be
000001d0: e98c 82be 4621 06be 79f5 28bf 9160 10bf
000001e0: 4e8a 1e3d 76e4 3abf b3a3 dabe b8e5 34bf
000001f0: e11c 22bf 8dce febe cef1 d0bd 5322 d7be
00000200: 7679 a8be 2ba6 f4be ec24 71be 3a24 26bf
00000210: 4447 8cbd 8c44 a0be 22d9 9dbe e92c cebe
00000220: c512 40be 4b34 26be f47a a3be 9de7 1dbf
00000230: ee74 2fbf ba60 99be fac1 57be 1f0f 60be
00000240: 7769 0cbf be05 35bf 40ab c5bd f906 cbbd
00000250: e512 b5bd 3cbf a0bd a879 9ebe 9901 c93c
00000260: 1a7a 76be 917c bebe 030e 2cbf fa02 07bd
00000270: b038 30be ea43 1fbd 0412 e9be 913c 16be
00000280: b205 00be 8dc9 19bf 0644 0bbf 7df7 1ebd
00000290: 94c5 20bf 658b acbe 8d82 c5bc 9275 2dbf
000002a0: fb7e dfbe 07fb 12bf 8905 b93b ecbe 463d
000002b0: 2dd4 35bf c916 04bf 487f 1cbe 0cdc 09bf
000002c0: 3da6 433d 720d 19bf 7b90 2abe d1a4 bcbe
000002d0: ee08 4bbe 8cf6 e7bd 5340 33bf a6bf 25bf
000002e0: b48a e13c cfa0 2abf 3a8f d1be 521f 2cbf
000002f0: 81cf 44bf 4f0e fdbe bbc7 f3bc 2daa 01bf
00000300: 8786 983e 623a d53e 2a1d 3e3e b8fe 303f
00000310: c913 55be a530 a13e 3ac8 673e 3af7 fe3e
00000320: f3c0 493e 7040 ffbd 9b98 d33d 2101 023f
00000330: 5306 223f 41e2 9e3e bbf2 bc3e f467 b53e
00000340: 5016 c63e 2b65 313f 790c 14be af2e 07be
00000350: b184 8fbd 5bee eabd 955c a53e 8271 7bbc
00000360: 3e4c e23e 8791 ef3e 41e8 1b3f 7b67 53bd
00000370: c070 a63e c19e 7ebe 6a42 a83e ae75 89bc
00000380: 102b 01be 6105 133f 81b5 313f c582 4f3b
00000390: da49 1e3f 3e61 0f3f cfe0 0cbd cb1d 3c3f
000003a0: 7da4 d33e 1f42 0f3f 4141 60bc 0cef bfbd
000003b0: 968b 443f 6c9f 413f d360 ff3c 0724 253f
000003c0: b0d8 63be f82d 1b3f 5912 363e c3c3 5b3e
000003d0: 7136 ef3e a1c2 cd3d e8c4 133f 488a 423f
000003e0: 8a0d 1dbe d353 393f 4e1c c03e 1e56 4a3f
000003f0: a407 5a3f e975 283f 1d0c ccbd fe9d 233f

classifier.0.bias f4 [32]
0.083390824 0.057841226 0.102928154 0.16199538 0.20050408 -0.009371065 0.1244988 0.08562086
0.06533977 -0.014678665 0.1898141 0.014725999 -0.07834444 0.061465308 0.039533008 0.082344
0.04961923 0.032207645 0.108227365 0.10128273 0.06076181 0.061133236 -0.004017201 -0.0013074066
-0.0030025544 -0.016043825 0.0977687 -0.09553905 0.119457245 0.13768604 0.03797443 -0.013380239
00000000: cfc8 aa3d ecea 6c3d ffcb d23d 1ee2 253e
00000010: f150 4d3e 1889 19bc 3af9 fe3d fd59 af3d
00000020: dbd0 853d c97e 70bc a15e 423e 5145 713c
00000030: 0d73 a0bd 0cc3 7b3d 5ded 213d f9a3 a83d
00000040: 893d 4b3d 2aec 033d 4fa6 dd3d 526d cf3d
00000050: 60e1 783d d866 7a3d b9a2 83bb 495d abba
00000060: 81c6 44bb 576e 83bc f53a c83d faa9 c3bd
00000070: 00a6 f43d 92fd 0c3e 138b 1b3d ca38 5bbc

classifier.3.weight f4 [1, 32]
-0.538685 -0.6713924 -0.6883327 0.4551096 0.44620606 -0.5731968 -0.53782654 -0.521542
-0.5983212 -0.69498116 0.40549946 -0.6797109 -0.60192853 0.63204396 -0.7571732 -0.84796685
-0.73066056 -0.6822588 -0.57944864 -0.7075819 0.6120538 0.6341642 -0.7052681 -0.72707325
0.57097673 -0.6735778 -0.7020908 -0.5856773 0.46730873 0.4657357 0.6688029 -0.5110673
00000000: 43e7 09bf 5fe0 2bbf 9236 30bf 2004 e93e
00000010: 1f75 e43e 07bd 12bf 00af 09bf c783 05bf
00000020: 942b 19bf 49ea 31bf a09d cf3e 8901 2ebf
00000030: fd17 1abf a2cd 213f 1ad6 41bf 5b14 59bf
00000040: 920c 3bbf 83a8 2ebf bf56 14bf 1624 35bf
00000050: 8faf 1c3f 9658 223f 738c 34bf 7921 3abf
00000060: 882b 123f 986f 2cbf 39bc 33bf f3ee 15bf
00000070: 1743 ef3e e974 ee3e ab36 2b3f 4ed5 02bf
