lnn/prod_stage1_pi_hlnn.pt (torch, 33870 bytes, 10 tensors)

cell.A f4 [48]
-0.5207075 -0.5949663 -0.54221076 -0.56999236 -0.56030226 -0.51282936 -0.5143781 -0.52598953
-0.5101878 -0.551693 -0.5147145 -0.5797533 -0.57819116 -0.5226398 -0.60856825 -0.5230925
-0.5125681 -0.54472446 -0.57876575 -0.5609923 -0.52647126 -0.5519449 -0.56217474 -0.5829586
-0.5600835 -0.51892346 -0.5553746 -0.55188715 -0.5532651 -0.5546753 -0.5829058 -0.5513901
-0.51773405 -0.5720353 -0.51553077 -0.52529335 -0.49308237 -0.5519284 -0.53167164 -0.5566345
-0.56121063 -0.6279956 -0.6036654 -0.55078363 -0.5381674 -0.52092916 -0.4961817 -0.5991558
00000000: 164d 05bf b64f 18bf 53ce 0abf 05eb 11bf
00000010: f86f 0fbf c948 03bf 48ae 03bf 40a7 06bf
00000020: ab9b 02bf c13b 0dbf 54c4 03bf b66a 14bf
00000030: 5604 14bf b9cb 05bf 21cb 1bbf 64e9 05bf
00000040: aa37 03bf 1073 0bbf fe29 14bf 319d 0fbf
00000050: d2c6 06bf 434c 0dbf afea 0fbf c63c 15bf
00000060: a261 0fbf 2bd8 04bf 082d 0ebf 7a48 0dbf
00000070: c8a2 0dbf 33ff 0dbf 5139 15bf e727 0dbf
00000080: 388a 04bf e870 12bf d3f9 03bf a079 06bf
00000090: 4b75 fcbe 2e4b 0dbf a21b 08bf 997f 0ebf
000000a0: 80ab 0fbf 52c4 20bf d189 1abf 2800 0dbf
000000b0: 57c5 09bf 9d5b 05bf 870b febe 4662 19bf

cell.synapse.weight f4 [48, 49]
-0.14657614 -0.06495902 -0.11640544 -0.07628572 0.071883716 -0.17129484 -0.1293265 0.08670124
-0.049718324 0.008770152 0.018498689 -0.06638529 0.04744535 -0.059906036 0.01983718 -0.06429901
0.09855429 -0.10722495 0.12002286 0.026411412 -0.008238978 -0.03369886 0.08672804 0.100462705
0.10224502 0.066956416 -0.11826463 0.004628418 -0.118795075 -0.083064854 -0.02218029 0.016770838
-0.002850039 -0.06418523 -0.108480684 -0.06683431 -0.12884071 0.017379278 -0.13590458 0.097071275
0.03959236 -0.12964198 0.025760187 -0.17689389 0.15934148 -0.08993979 -0.045433473 0.0010980525
0.05635396 -0.16798602 0.046492822 0.00075096445 -0.06724187 0.14674562 -0.17285165 -0.07691501
-0.007882803 -0.03864195 0.0779287 0.0493254 -0.11666228 0.0137982685 -0.0175828 0.14118639
0.12688155 0.017558744 -0.032240175 -0.055822086 0.09214165 0.1653548 0.08075475 0.15965334
-0.0011944753 0.104920216 -0.06953377 -0.11674008 0.017107643 0.07472846 0.15499131 -0.11607137
0.19885018 0.06201015 -0.12384091 -0.11361895 -0.05602806 -0.008841756 0.0471289 0.009503194
0.061524715 -0.10560341 0.027328283 0.09105706 -0.16245155 -0.030898811 0.019758409 0.10685551
-0.10947765 -0.023556905 -0.22907107 0.07716524 -0.025921002 -0.076867014 0.12680563 0.0061071236
0.09150943 0.015393771 -0.022424398 0.08805792 0.003434203 -0.12989733 -0.11771086 0.057745773
-0.05076543 0.15627688 0.0013637225 0.14173275 -0.03854528 0.15794992 -0.0073834476 0.12469959
0.12230294 0.0080401255 0.113148525 0.04714749 -0.043011867 0.004106975 -0.008113937 -0.07149887
-0.0497593 0.13269673 -0.173732 -0.00035271572 0.035487667 -0.11357301 0.10988158 -0.008010587
-0.17505959 -0.071983136 -0.010568986 0.046576507 -0.028985461 0.06316492 0.0049493783 -0.14979748
-0.066619456 -0.100101896 0.0181732 0.19769967 -0.09571984 -0.016392343 0.12711437 -0.085245386
0.1685296 0.11240298 -0.104115844 0.10533601 -0.16520946 0.11247947 -0.06843973 0.05909473
0.21347873 -0.0039002819 -0.15091011 0.0093131 0.0008780288 0.09409877 -0.18341118 -0.07240457
-0.15070745 -0.12264918 0.015176578 -0.16440424 -0.04879997 -0.03774929 -0.11771527 -0.044014025
-0.023250237 -0.038563892 -0.001631664 0.15098189 0.13708512 -0.00710447 -0.04301181 -0.016942412
-0.07136 0.14968121 0.10910897 0.14181027 0.04018798 -0.17875883 0.11817068 0.054923713
0.0009881522 0.13825823 0.11583812 0.13017087 -0.12476416 -0.07711872 -0.12134168 -0.06282532
0.03154591 -0.21769403 -0.09449978 -0.031905085 0.08483798 0.09444283 -0.19381471 -0.12459924
-0.17253903 0.072906226 0.060049985 0.18119597 -0.07475027 0.1277087 0.17157266 0.10280674
-0.0046845507 0.09289305 -0.028716236 -0.12906691 0.1482562 -0.16269387 0.047826037 0.056044642
-0.05201124 0.039357863 -0.048751444 0.004904672 -0.00021092326 -0.12658904 0.1361779 -0.112337805
0.14816047 0.023339178 -0.017389234 0.0021028072 -0.017740002 -0.12678663 -0.13682927 -0.0063024675
0.17092773 -0.05976753 -0.021556292 -0.025699932 -0.098847866 0.1376981 -0.06703887 -0.08998016
-0.0011775058 -0.13179493 -0.0649814 -0.062163573 -0.058507763 0.10349522 0.0700896 0.13867848
00000000: 0e18 16be 3c09 85bd fa65 eebd b03b 9cbd
00000010: c537 933d ea67 2fbe 2b6e 04be 6b90 b13d
00000020: 71a5 4bbd afb0 0f3c 908a 973c 03f5 87bd
00000030: 0e56 423d 0860 75bd 9581 a23c 33af 83bd
00000040: d5d6 c93d c198 dbbd 8cce f53d bf5c d83c
00000050: c7fc 06bc d107 0abd 789e b13d 64bf cd3d
00000060: d665 d13d 7220 893d ba34 f2bd fca9 973b
00000070: d54a f3bd e81d aabd 71b3 b5bc ff62 893c
00000080: b8c7 3abb 8c73 83bd 1f2b debd 6de0 88bd
00000090: d2ee 03be fd5e 8e3c 922a 0bbe 4ecd c63d
000000a0: 992b 223d dec0 04be 0707 d33c ac23 35be
000000b0: 6a2a 233e 5a32 b8bd 7318 3abd 87ec 8f3a
000000c0: 69d3 663d 8704 2cbe 426f 3e3d 5fdc 443a
000000d0: 1bb6 89bd 7c44 163e 0600 31be 9e85 9dbd
000000e0: df26 01bc 0547 1ebd 1599 9f3d 6e09 4a3d
000000f0: a2ec eebd 2212 623c ce09 90bc 2a93 103e
00000100: 3ded 013e 5bd7 8f3c 460e 04bd b3a5 64bd
00000110: c3b4 bc3d c552 293e bf62 a53d 2a7c 233e
00000120: f18f 9cba 69e0 d63d b967 8ebd 6c15 efbd
00000130: 5425 8c3c 3c0b 993d 0bb6 1e3e d4b6 edbd
00000140: 629f 4b3e 5bfe 7d3d 4ea0 fdbd 0db1 e8bd
00000150: ae7d 65bd 03dd 10bc 3c0a 413d 49b3 1b3c
00000160: 5701 7c3d 9a46 d8bd 90df df3c 207c ba3d
00000170: b359 26be 811f fdbc 63dc a13c 10d7 da3d
00000180: d135 e0bd 69fa c0bc 9b91 6abe cf08 9e3d
00000190: 4858 d4bc 746c 9dbd 56d9 013e 441e c83b
000001a0: 4c69 bb3d 2836 7c3c 5fb3 b7bc b657 b43d
000001b0: 5e10 613b ce03 05be 6412 f1bd d586 6c3d
000001c0: 69ef 4fbd 0c07 203e efbe b23a 6422 113e
000001d0: a8e1 1dbd a0bd 213e d9f0 f1bb 8062 ff3d
000001e0: f779 fa3d bbba 033c 6aba e73d ba1d 413d
000001f0: 362d 30bd ce93 863b 52f0 04bc 006e 92bd
00000200: 68d0 4bbd a7e1 073e cde6 31be b4ec b8b9
00000210: 845b 113d f798 e8bd 9809 e13d d63e 03bc
00000220: d242 33be e56b 93bd 8a29 2dbc 02c7 3e3d
00000230: eb72 edbc 9c5c 813d 652e a23b 8364 19be
00000240: c86f 88bd 3902 cdbd f6df 943c c871 4a3e
00000250: c308 c4bd 3c49 86bc 452a 023e 2295 aebd
00000260: 0693 2c3e 8933 e63d b03a d5bd 68ba d73d
00000270: ab2c 29be a35b e63d 212a 8cbd 510d 723d
00000280: 2b9a 5a3e df9b 7fbb 2e88 1abe f995 183c
00000290: 842b 663a dbb6 c03d 24d0 3bbe d948 94bd
000002a0: 0e53 1abe 7e2f fbbd 2fa7 783c 9659 28be
000002b0: 7ae2 47bd 009f 1abd b414 f1bd 0d48 34bd
000002c0: 4877 bebc 2cf5 1dbd 8fdd d5ba ff9a 1a3e
000002d0: 0b60 0c3e 9dcc e8bb 272d 30bd d0ca 8abc
000002e0: 3125 92bd 0846 193e 8674 df3d b636 113e
000002f0: 279c 243d 8e0c 37be 7803 f23d b0f7 603d
00000300: e384 813a 9193 0d3e 893c ed3d 834b 053e
00000310: 5a84 ffbd 6bf0 9dbd fd81 f8bd 90aa 80bd
00000320: 4936 013d 2feb 5ebe 1a89 c1bd e8ae 02bd
00000330: 89bf ad3d 3e6b c13d 5d77 46be e32d ffbd
00000340: 12ae 30be dc4f 953d f9f6 753d 708b 393e
00000350: ab16 99bd 12c6 023e beb0 2f3e 578c d23d
00000360: dc80 99bb b63e be3d 503e ebbc 1e2a 04be
00000370: 79d0 173e 3999 26be 3ce5 433d 118f 653d
00000380: bd09 55bd b635 213d 98af 47bd 5fb7 a03b
00000390: 482b 5db9 8fa0 01be 3872 0b3e 5d11 e6bd
000003a0: 61b7 173e ce31 bf3c de73 8ebc 40cf 093b
000003b0: 7b53 91bc 5bd4 01be f91c 0cbe ee84 cebb
000003c0: ae07 2f3e ccce 74bd d296 b0bc aa88 d2bc
000003d0: c070 cabd bb00 0d3e ad4b 89bd 8547 b8bd
000003e0: 8a56 9aba 40f5 06be f814 85bd 3b9f 7ebd
000003f0: d6a5 6fbd 4df5 d33d 238b 8f3d bb01 0e3e

cell.synapse.bias f4 [48]
0.10536816 -0.0064727007 0.095135346 0.0768491 -0.017964475 -0.06272405 -0.06262011 -0.11054139
-0.08899313 0.03651118 0.044350397 -0.034489974 -0.003431888 0.0942595 0.016705856 -0.10375458
0.115875565 0.07852802 0.00899321 0.06102148 -0.11815431 0.0842055 0.03273697 -0.013207731
-0.03944554 0.11415031 0.030331202 -0.07695301 0.061238643 0.022763073 -0.049898718 0.103804745
0.15110648 -0.011712348 -0.05060375 -0.07757081 -0.033284534 0.07446448 0.09048742 -0.08144265
0.081132725 -0.0026944848 -0.0037543878 -0.045212854 -0.12919036 -0.10863589 0.09832323 -0.027744966
00000000: 43cb d73d f318 d4bb 52d6 c23d 1063 9d3d
00000010: 3c2a 93bc 7775 80bd f93e 80bd 8663 e2bd
00000020: 0842 b6bd bf8c 153d c3a8 353d 5c45 0dbd
00000030: 87e9 60bb 200b c13d b8da 883c 487d d4bd
00000040: 2b50 ed3d 4cd3 a03d 4258 133c a9f1 793d
00000050: e3fa f1bd ef73 ac3d 3317 063d 3d65 58bc
00000060: a691 21bd a3c7 e93d 2479 f83c 8a99 9dbd
00000070: 5fd5 7a3d a079 ba3c 9962 4cbd 9597 d43d
00000080: a8bb 1a3e 26e5 3fbc e145 4fbd 72dd 9ebd
00000090: 5d55 08bd d580 983d 7851 b93d 67cb a6bd
000000a0: ea28 a63d f495 30bb 2d0c 76bb 1d31 39bd
000000b0: 7a4a 04be 7e7c debd b15d c93d 6949 e3bc

cell.tau_net.0.weight f4 [32, 49]
-0.10154075 -0.09259565 -0.11794535 -0.06332138 0.09622099 -0.20757638 -0.042088956 -0.14305702
-0.1975502 -0.000538115 -0.058041222 -0.041091017 0.011357818 -0.050748065 0.112890735 0.14405511
-0.021198494 -0.069921054 0.020821508 0.18532076 0.146595 0.062658824 0.21386026 -0.11657026
0.014606633 -0.123431824 0.03372678 0.18984129 -0.22104268 0.10846361 0.082971565 -0.016757187
0.0880761 -0.045028888 0.10615508 -0.15642858 0.066475384 -0.036922537 -0.0006456814 -0.039577577
-0.13441646 -0.18330584 -0.13939759 0.051543664 -0.057355978 -0.12256917 -0.04491202 0.10220529
-0.017469611 0.12479499 0.02953978 0.052773215 -0.10903117 -0.22056016 -0.038119394 0.12848161
0.14632928 0.24751908 0.09447961 0.052961998 0.1070785 0.12900314 -0.046096444 -0.11706898
-0.20191053 0.18500789 -0.052913878 0.053871334 -0.10520831 0.051182758 0.046740785 -0.1060467
0.04487594 0.035480574 0.08103941 0.03562565 -0.035923533 0.024576128 -0.13945214 -0.010228073
0.025107428 0.13250872 -0.1671511 -0.2069353 0.19327113 -0.047562305 -0.041980814 0.06371601
-0.0010727285 0.19218643 0.08671165 0.10102226 0.051077604 -0.16457285 0.13624744 0.12284175
0.05544211 -0.033063397 -0.12987351 -0.07555322 -0.19576146 -0.12125024 -0.052885186 0.055894904
-0.08643611 -0.06721759 -0.06357975 0.021454103 0.04590196 -0.085680276 0.07679944 -0.052400112
0.013178985 0.14404908 -0.16991965 -0.03147981 0.13216887 0.11997704 -0.009817588 -0.014518003
0.048617132 0.03262607 0.07126518 -0.025586097 0.17430916 -0.05411736 -0.1748162 0.031745862
-0.10038967 -0.05682687 0.12505858 0.19767532 0.15655863 -0.1746509 -0.01462595 -0.17321052
-0.06058779 0.13063753 -0.05062372 0.018688962 -0.28290004 0.00038273356 0.1330666 -0.110837564
0.036991484 0.09870436 -0.14848721 -0.2166176 0.011110594 -0.18561529 -0.08509067 0.104088336
-0.097630136 -0.072271965 -0.10294553 -0.015370614 0.097313724 0.0915347 -0.10544052 -0.08019914
0.047073968 0.15938301 0.0061834343 0.026049878 0.049862154 0.07079606 0.14501612 0.13655658
-0.10939501 -0.016706282 0.038771875 0.10995747 -0.10035064 0.18879327 0.027567482 -0.13145176
0.040989418 -0.14285608 0.06005753 -0.12637942 0.22008924 -0.05631137 0.0016587343 -0.07878689
-0.09370308 -0.079861194 0.09155593 0.022034626 -0.1447795 -0.24681617 -0.026728854 0.0068226876
-0.055125613 -0.024873858 -0.0017284906 0.10160203 0.48859408 -0.043709062 0.09932611 -0.07726621
-0.09908006 0.05787647 -0.06633385 -0.1213244 0.13874552 0.017310785 0.06496511 0.03573977
-0.12746076 -0.011931937 -0.100169584 0.11102578 -0.13505757 -0.109041736 -0.063989304 -0.02165313
0.030772902 0.1080374 0.050172314 0.029256692 0.10178289 0.110557616 0.06037755 -0.13201672
0.033624794 -0.052080315 -0.105160706 -0.11395763 0.13847435 0.025610073 0.0890948 0.085279636
-0.087041624 0.23373222 0.05554546 -0.025671534 -0.026914239 0.124547936 -0.000952499 0.14410885
-0.04038473 -0.10846707 0.06119284 0.033704147 -0.07245797 0.1269286 -0.04812685 0.20350431
-0.016053654 -0.15767375 0.19181328 0.07770353 0.015812997 0.16494276 0.16746561 0.08984124
00000000: 99f4 cfbd caa2 bdbd 558d f1bd a4ae 81bd
00000010: 830f c53d e78e 54be 7865 2cbd 8a7d 12be
00000020: 9a4a 4abe 4910 0dba a2bc 6dbd 0e4f 28bd
00000030: 2416 3a3c 34dd 4fbd 4233 e73d 2f83 133e
00000040: 77a8 adbc c532 8fbd de91 aa3c bac4 3d3e
00000050: 001d 163e 4553 803d 2ffe 5a3e 63bc eebd
00000060: a950 6f3c d3c9 fcbd 1825 0a3d c165 423e
00000070: 0359 62be 2b22 de3d ffec a93d 5e46 89bc
00000080: 3e61 b43d 3670 38bd d667 d93d d02e 20be
00000090: 3f24 883d 163c 17bd f242 29ba 191c 22bd
000000a0: 78a4 09be 87b4 3bbe 3ebe 0ebe 731f 533d
000000b0: 1aee 6abd 8c05 fbbd abf5 37bd 0251 d13d
000000c0: 6e1c 8fbc 8494 ff3d 69fd f13c ba28 583d
000000d0: bc4b dfbd 86da 61be 1523 1cbd af90 033e
000000e0: 58d7 153e a475 7d3e 877e c13d aeee 583d
000000f0: f94b db3d 6619 043e a0cf 3cbd ddc1 efbd
00000100: a2c1 4ebe b572 3d3e 39bc 58bd 30a8 5c3d
00000110: 7477 d7bd 03a5 513d 4473 3f3d 032f d9bd
00000120: d5cf 373d 1454 113d fdf7 a53d 34ec 113d
00000130: 8e24 13bd e053 c93c 8bcc 0ebe a693 27bc
00000140: 18ae cd3c 5eb0 073e a829 2bbe d9e6 53be
00000150: dee8 453e b1d0 42bd 13f4 2bbd 8a7d 823d
00000160: cc9a 8cba 85cc 443e e195 b13d c2e4 ce3d
00000170: c036 513d c985 28be 7384 0b3e 7594 fb3d
00000180: 4417 633d 7c6d 07bd 90fd 04be a6bb 9abd
00000190: b175 48be 0c52 f8bd 239e 58bd 0ef2 643d
000001a0: 6a05 b1bd 60a9 89bd 1a36 82bd 84c0 af3c
000001b0: b203 3c3d 2479 afbd 0649 9d3d 80a1 56bd
000001c0: abec 573c 9a81 133e 6bff 2dbe f9f0 00bd
000001d0: 4757 073e 86b6 f53d f3d9 20bc ebdc 6dbc
000001e0: c222 473d eaa2 053d 7bf3 913d ef99 d1bc
000001f0: 1a7e 323e 2aaa 5dbd 0503 33be f307 023d
00000200: 1999 cdbd 4bc3 68bd 5b0f 003e 666b 4a3e
00000210: e850 203e afd7 32be aea1 6fbc 195e 31be
00000220: e72a 78bd d8c5 053e d15a 4fbd 9819 993c
00000230: 46d8 90be a1a9 c839 9c42 083e cefe e2bd
00000240: 6284 173d 8325 ca3d 080d 18be 01d1 5dbe
00000250: 3509 363c ef11 3ebe 0444 aebd 442c d53d
00000260: 4ff2 c7bd 5303 94bd 1bd5 d2bd 07d5 7bbc
00000270: 6b4c c73d 8b76 bb3d 33f1 d7bd 723f a4bd
00000280: a2d0 403d 4d35 233e 689e ca3b 8e66 d53c
00000290: 423c 4c3d 86fd 903d 1b7f 143e 7dd5 0b3e
000002a0: 7e0a e0bd 9ddb 88bc 42cf 1e3d 6231 e13d
000002b0: a384 cdbd 0653 413e 33d5 e13c 4a9b 06be
000002c0: 85e4 273d dd48 12be e2fe 753d 9b69 01be
000002d0: 135f 613e c0a6 66bd e369 d93a 055b a1bd
000002e0: 67e7 bfbd 448e a3bd ad81 bb3d f681 b43c
000002f0: 1441 14be 61bd 7cbe 78f6 dabc da90 df3b
00000300: 65cb 61bd 43c4 cbbc 858e e2ba ba14 d03d
00000310: 0129 fa3e 4608 33bd 7d6b cb3d bf3d 9ebd
00000320: 7dea cabd e10f 6d3d 0bda 87bd ed78 f8bd
00000330: 4e13 0e3e 59cf 8d3c 6d0c 853d dd63 123d
00000340: 1385 02be 2c7e 43bc b625 cdbd 7c61 e33d
00000350: 884c 0abe 4651 dfbd d30c 83bd e861 b1bc
00000360: 7417 fc3c b642 dd3d 7c81 4d3d bbab ef3c
00000370: 8c73 d03d 086c e23d 734e 773d 642f 07be
00000380: 27ba 093d 2b52 55bd 7f5e d7bd 9e62 e9bd
00000390: 38cc 0d3e 37cc d13c 5677 b63d 17a7 ae3d
000003a0: e142 b2bd 8057 6f3e a383 633d 1c4d d2bc
000003b0: 407b dcbc fd12 ff3d 20b1 79ba 4591 133e
000003c0: 756a 25bd fc23 debd 58a5 7a3d 5c0d 0a3d
000003d0: d864 94bd 92f9 013e a920 45bd 6f63 503e
000003e0: f482 83bc 3a75 21be b36a 443e 0723 9f3d
000003f0: 428a 813c c1e6 283e 1b7c 2b3e affe b73d

cell.tau_net.0.bias f4 [32]
-0.11698751 0.10160245 -0.09036522 -0.12107747 0.04127926 0.06642255 0.15477803 -0.15094873
-0.15173723 0.17497936 0.044866573 -0.052824996 0.10378122 -0.06394941 0.1567212 -0.056721337
-0.15310875 -0.20656098 -0.0088692 0.032191243 0.14224467 -0.1692908 0.17030215 -0.057953805
-0.13510849 -0.22672693 0.07131972 0.0023286315 0.17645286 0.1065441 0.037207868 0.21724135
00000000: 2697 efbd f214 d03d 6711 b9bd 77f7 f7bd
00000010: 7114 293d 8c08 883d 227e 1e3e 4e92 1abe
00000020: 0161 1bbe ca2d 333e 03c6 373d 065f 58bd
00000030: 408b d43d e9f7 82bd 867b 203e a254 68bd
00000040: 8ac8 1cbe b984 53be 1f50 11bc f7da 033d
00000050: 96a8 113e 915a 2dbe b063 2e3e f860 6dbd
00000060: e159 0abe 1b2b 68be 1310 923d f49b 183b
00000070: 0fb0 343e cb33 da3d 4767 183d 8474 5e3e

cell.tau_net.2.weight f4 [48, 32]
0.019968746 0.16521783 0.17672049 -0.10441963 -0.23833428 -0.068160824 -0.032550376 0.1470353
-0.1829923 0.082991764 0.20958526 -0.013263558 -0.14849877 -0.17942314 0.05460062 -0.088775694
-0.09738825 0.09505743 0.09984025 -0.17706947 0.1616322 0.089191705 -0.07841104 -0.10291876
-0.14759034 -0.18584542 0.12464765 0.05865953 -0.09411104 -0.18799101 -0.17695753 0.20286034
-0.042211242 0.12872495 -0.112797044 -0.026982147 0.047705486 0.16901535 0.14061923 -0.1935296
-0.14200032 0.14665693 0.028526694 0.023152087 -0.057213765 0.031242691 -0.06624695 -0.0778075
-0.23259237 -0.18902628 -0.14848253 0.25619835 0.25707722 -0.17997253 0.09557733 -0.21892072
-0.20233484 -0.19591862 0.1156534 -0.19662872 0.060497876 0.124795265 0.10361664 0.09867716
-0.00871811 0.20172559 -0.1482177 -0.14241517 -0.031958673 0.0681293 0.1778469 0.09910774
-0.19626641 -0.005217481 -0.0753562 0.01961709 0.12561075 -0.21248396 -0.041534603 -0.019750524
-0.08034697 -0.1528878 -0.03222711 -0.12915166 0.13601708 -0.016492108 0.08853917 -0.01441226
0.0068012318 -0.17170957 0.22223681 -0.00134415 0.037126552 -0.0040518767 -0.15449458 0.107034914
0.083974846 0.17599191 -0.061756555 -0.024298003 0.065053724 0.077536315 0.15412176 -0.012936659
0.01718399 -0.03137005 -0.034015127 0.039597265 0.18173091 -0.13159981 0.13354585 -0.18902554
-0.007231904 -0.008172447 -0.13772047 0.2089134 0.19839212 0.061037116 0.11997191 0.010721943
-0.054094385 -0.16792415 0.1239113 -0.10215835 0.116603196 -0.008587622 0.0016775664 -0.06807384
-0.15039387 0.2210793 -0.06805649 -0.1287523 0.18263164 0.24618372 0.030745247 -0.23318475
0.047488227 -0.055286266 -0.22509255 -0.23767419 -0.0068359612 -0.18831035 0.09555286 -0.14489332
0.07652763 -0.2576312 -0.2129893 -0.034946952 -0.062217478 -0.061707538 -0.015856449 -0.15042058
-0.19494694 -0.15368687 0.015101228 0.023876095 0.032105546 0.04660255 0.21652187 0.25912592
0.21812698 -0.09014654 0.039089497 -0.048264463 -0.027339596 -0.021946527 -0.13040812 0.04032876
0.13947079 -0.001157596 0.18595855 0.0012199623 -0.1115181 -0.10321801 0.062445138 -0.0642117
-0.1401596 0.08976346 -0.022782303 -0.1393406 0.060914133 -0.013564362 0.014874221 0.19947398
0.1630779 0.0072539025 0.08028632 -0.0700981 0.091930576 -0.0662363 -0.122297406 -0.053456634
0.1543879 -0.04912703 0.12530798 0.04081481 -0.09319792 -0.13183752 0.16830392 0.15456298
0.092104055 0.18193471 -0.11596613 -0.10854976 -0.054742943 -0.12095059 0.0017724726 0.010041111
-0.009820481 0.1082361 -0.059168547 0.1393169 0.035561204 0.114966445 0.13593793 -0.008818624
0.16823967 0.09673118 -0.08561805 0.009722578 -0.07915977 0.01753582 -0.1131735 -0.06441395
-0.13553609 -0.10206802 0.07146908 -0.13658345 -0.028981466 0.08024087 0.06890236 -0.21245265
-0.0052503645 -0.044418953 -0.17172416 -0.17705144 -0.06402133 0.0885171 0.1239562 0.089689426
-0.20900126 -0.19479018 0.0028969438 0.006221651 0.00016759487 -0.16531058 -0.087871805 -0.18132293
-0.18118294 0.026798492 0.05356203 0.049537476 0.21317977 0.20792997 -0.05982063 0.15777647
00000000: 7f95 a33c dd2e 293e 37f6 343e f5d9 d5bd
00000010: e70d 74be e797 8bbd 8b53 05bd 6c90 163e
00000020: 5562 3bbe 96f7 a93d 859d 563e 654f 59bc
00000030: 1010 18be b3ba 37be e6a4 5f3d 08d0 b5bd
00000040: 7e73 c7bd 78ad c23d 0c79 cc3d b351 35be
00000050: e982 253e 24aa b63d f895 a0bd 12c7 d2bd
00000060: ec21 17be 434e 3ebe 4447 ff3d fa44 703d
00000070: 4abd c0bd b780 40be 5b34 35be 9fba 4f3e
00000080: b2e5 2cbd 79d0 033e 2302 e7bd aa09 ddbc
00000090: d466 433d 5c12 2d3e 7dfe 0f3e a02c 46be
000000a0: 8868 11be 3c2d 163e d0b0 e93c 72a9 bd3c
000000b0: fb58 6abd acf0 ff3c 7bac 87bd 8a59 9fbd
000000c0: b22c 6ebe 1b90 41be ce0b 18be 6e2c 833e
000000d0: a09f 833e b84a 38be 0cbe c33d c12c 60be
000000e0: dd30 4fbe e49e 48be b1db ec3d 0a59 49be
000000f0: 9fcc 773d a994 ff3d f634 d43d 4017 ca3d
00000100: 67d6 0ebc 2791 4e3e 61c6 17be 48d5 11be
00000110: 19e7 02bd 6087 8b3d 7f1d 363e 00f9 ca3d
00000120: 10fa 48be 67f7 aabb 5a54 9abd 05b4 a03c
00000130: 1ba0 003e 6595 59be 3020 2abd dacb a1bc
00000140: f48c a4bd 9f8e 1cbe 9300 04bd 5540 04be
00000150: 1048 0b3e 751a 87bc 0654 b53d 6621 6cbc
00000160: dedc de3b a2d4 2fbe 0c92 633e 312e b0ba
00000170: 0312 183d 9bc5 84bb d433 1ebe 1f35 db3d
00000180: 01fb ab3d 3937 343e 71f4 7cbd 9b0c c7bc
00000190: e33a 853d 5ccb 9e3d 18d2 1d3e 48f4 53bc
000001a0: 70c5 8c3c e27d 00bd 7253 0bbd be30 223d
000001b0: ab17 3a3e 1ac2 06be 3ec0 083e e98f 41be
000001c0: 9cf9 ecbb bae5 05bc 9806 0dbe 65ed 553e
000001d0: 4e27 4b3e 0e02 7a3d d5b3 f53d 17ab 2f3c
000001e0: 1392 5dbd 4ff4 2bbe 35c5 fd3d 6638 d1bd
000001f0: a8cd ee3d 19b3 0cbc cae1 db3a 4c6a 8bbd
00000200: da00 1abe 9d62 623e 3361 8bbd a5d7 03be
00000210: ca03 3b3e 9617 7c3e 75dd fb3c fcc7 6ebe
00000220: 0483 423d da73 62bd a97e 66be dd60 73be
00000230: 3300 e0bb 6ed4 40be 38b1 c33d ea5e 14be
00000240: 85ba 9c3d 3de8 83be de19 5abe 8924 0fbd
00000250: c1d7 7ebd 0bc1 7cbd 62e5 81bc da07 1abe
00000260: 2ca0 47be 1760 1dbe 246b 773c cd97 c33c
00000270: 1b81 033d 51e2 3e3d e9b7 5d3e 27ac 843e
00000280: ae5c 5f3e c09e b8bd 4f1c 203d f5b0 45bd
00000290: 4af7 dfbc 34c9 b3bc b589 05be c52f 253d
000002a0: 6ed1 0e3e 7aba 97ba eb6b 3e3e 24e7 9f3a
000002b0: 9a63 e4bd f763 d3bd 79c6 7f3d 6c81 83bd
000002c0: 0086 0fbe e8d5 b73d f4a1 babc 4daf 0ebe
000002d0: 1981 793d 0f3d 5ebc 01b3 733c e842 4c3e
000002e0: e5fd 263e 25b2 ed3b 276d a43d 988f 8fbd
000002f0: 1946 bc3d e6a6 87bd 1077 fabd 58f5 5abd
00000300: dd17 1e3e 6d39 49bd bc50 003e 6e2d 273d
00000310: 8dde bebd 6a00 07be dd57 2c3e c245 1e3e
00000320: 0da1 bc3d 184d 3a3e a67f edbd 564f debd
00000330: 233a 60bd f1b4 f7bd 5052 e83a 7983 243c
00000340: 15e6 20bc e3aa dd3d b85a 72bd 17a9 0e3e
00000350: a0a8 113d 8773 eb3d 5033 0b3e fd7b 10bc
00000360: 0547 2c3e ff1a c63d 8458 afbd 734b 1f3c
00000370: 841e a2bd 48a7 8f3c 82c7 e7bd 76eb 83bd
00000380: f9c9 0abe 0a09 d1bd 625e 923d 88dc 0bbe
00000390: 8a6a edbc 5355 a43d ae1c 8d3d 308d 59be
000003a0: 400b acbb a6f0 35bd 75d8 2fbe f94c 35be
000003b0: 9d1d 83bd 7448 b53d c0dc fd3d 17af b73d
000003c0: 6d04 56be 1477 47be a7da 3d3b fede cb3b
000003d0: 68bc 2f39 2d47 29be 22f6 b3bd b8ac 39be
000003e0: 0588 39be 8388 db3c dc63 5b3d cfe7 4a3d
000003f0: cc4b 5a3e 98eb 543e 7a06 75bd 2890 213e

cell.tau_net.2.bias f4 [48]
-0.08321068 0.002296641 0.1990551 0.06747425 0.11907438 -0.059222046 -0.1132928 0.0594706
0.10360096 -0.114201434 -0.16120449 0.023408381 0.18676722 -0.13587713 0.24458969 0.17879707
-0.04869173 0.051687866 0.06388245 0.23060372 0.046016436 0.09377816 0.0010771157 0.08977958
-0.038087327 0.029714864 0.02751289 0.08885506 0.08160255 -0.08586045 0.20114036 0.1513143
0.14648274 0.18550956 0.0573273 0.12827426 0.10956715 0.15801598 -0.07684827 0.13842787
0.047431245 0.1652796 0.16051593 -0.079969674 -0.045126624 -0.10351889 -0.05399442 0.15950826
00000000: 5c6a aabd 3e83 163b 1ad5 4b3e f12f 8a3d
00000010: 45dd f33d d192 72bd 0e06 e8bd 7297 733d
00000020: bd2c d43d 71e2 e9bd ca12 25be efc2 bf3c
00000030: e83f 3f3e 6023 0bbe b875 7a3e 9416 373e
00000040: fb70 47bd a8b6 533d cdd4 823d 6223 6c3e
00000050: bb7b 3c3d c40e c03d 012e 8d3a 5bde b73d
00000060: 7501 1cbd 966c f33c b662 e13c a4f9 b53d
00000070: 3d1f a73d 9bd7 afbd bdf7 4d3e 23f2 1a3e
00000080: 92ff 153e 38f6 3d3e 08d0 6a3d 545a 033e
00000090: be64 e03d f1ce 213e a062 9dbd 09c0 0d3e
000000a0: 4447 423d 0e3f 293e 4a5e 243e 24c7 a3bd
000000b0: b2d6 38bd b601 d4bd 4129 5dbd 2256 233e

classifier.0.weight f4 [32, 48]
0.07138266 0.21636882 -0.048264712 -0.034988824 0.1927779 -0.13866234 -0.13486652 0.09781382
-0.10447064 0.0973791 -0.033163477 0.105999984 -0.055720475 0.044032697 -0.17976317 -0.21110702
2.068024e-05 -0.06954855 0.04502926 -0.04335238 -0.07890614 -0.1850241 0.13863134 -0.083569564
0.034029067 -0.0925879 -0.05046371 0.16739404 -0.15852919 0.043548897 -0.03461847 -0.035029795
-0.045560114 0.043142714 0.07135122 -0.14762233 -0.05855791 0.08749064 0.13747326 0.014742876
-0.046677362 -0.15420087 0.17951237 -0.16027871 -0.0694361 0.07361775 0.13460049 -0.05054883
0.054242596 0.1428526 0.03804836 -0.11271915 -0.029904833 -0.15517028 -0.00012907224 -0.045212384
-0.02008798 0.008333225 -0.08015698 0.1795326 0.079440184 0.049955167 0.050134614 0.0021992673
0.04545311 -0.06583922 -0.12019042 -0.15788914 -0.13876672 -0.087195985 0.17881086 -0.19008984
-0.059359137 -0.118517555 -0.123700164 0.15052602 -0.13619614 -0.054682158 -0.14498106 0.08302084
-0.041448582 -0.12205423 0.047066253 0.027273843 -0.11585715 -0.009716343 0.11704662 0.07845634
-0.03873871 -0.1985102 -0.013370415 0.0021243638 -0.09640627 0.15386404 0.022093017 0.09836887
0.06926723 0.18826754 0.00025843765 -0.10826549 -0.047168396 0.101052105 -0.025412943 0.033591714
0.091516405 0.011865993 -0.0221153 0.0012337922 0.14465994 -0.024934312 -0.13828921 0.035745535
0.11111573 -0.07851594 -0.03381618 -0.18068904 -0.13917556 -0.10670986 0.12846604 -0.10250009
0.15236965 -0.16001275 0.059889246 -0.0847229 -0.09560156 0.19903105 -0.13401052 -0.008131936
0.061921995 -0.11917333 0.010294966 -0.07125382 0.05482634 -0.03782399 -0.038318794 -0.051528845
0.0447691 0.023875136 0.14475486 -0.1852124 0.11027489 0.17083664 0.15240812 0.06954414
0.059921682 0.16047174 0.16818057 -0.034396622 0.007900623 0.09272756 -0.046768576 0.13920785
0.09507316 0.07717449 -0.100338586 0.15955095 0.105666794 0.007595821 -0.009308454 0.019708999
0.13887632 -0.12602806 -0.15954489 0.040354494 -0.08604325 -0.16391106 0.16207846 -0.16875768
-0.014117212 -0.10588529 0.09386793 0.021053243 -0.104631394 0.16663699 0.070422165 0.11436263
0.10329513 -0.16096349 -0.16001129 0.07604504 -0.027431486 0.099410094 0.1595005 -0.00013654225
-0.02284336 0.03887778 -0.023495056 -0.13746907 0.14124112 0.01852798 -0.06806039 0.08642784
-0.14453362 -0.123155095 -0.20165955 0.0728481 0.011126472 0.11125317 0.034414396 0.018703649
0.15967947 -0.0074852845 0.007707249 -0.16337115 -0.22637483 0.01654203 0.032067288 0.15342453
0.012267894 0.22887266 0.23093206 0.12371406 0.17315459 0.12010387 -0.029861413 0.023563083
0.038877375 0.152173 0.09736827 -0.16900468 0.12028495 -0.12093358 0.036476333 -0.18144834
0.01839981 0.1453581 -0.04987084 0.1665476 -0.12147049 -0.009596082 -0.065208256 -0.09964508
-0.092298575 0.12559614 -0.045808487 0.09783354 -0.14626247 -0.07876613 -0.13806513 -0.040524248
-0.041308045 -0.022783814 -0.098865315 0.080717385 -0.14393543 0.04357455 0.041278366 0.012428592
0.012508888 0.039187044 -0.09311063 -0.11836405 0.038692113 0.04508029 0.16496214 0.07189135
00000000: 1231 923d ca8f 5d3e 38b1 45bd 7150 0fbd
00000010: 9267 453e 80fd 0dbe 731a 0abe 9d52 c83d
00000020: b4f4 d5bd b26e c73d 6dd6 07bd 8516 d93d
00000030: 273b 64bd a15b 343d d613 38be 702c 58be
00000040: 7a7a ad37 786f 8ebd 9a70 383d 4492 31bd
00000050: 8b99 a1bd f576 3dbe 60f5 0d3e 8526 abbd
00000060: 1062 0b3d ba9e bdbd 09b3 4ebd 5869 2b3e
00000070: 7a55 22be 5460 323d 19cc 0dbd 677b 0fbd
00000080: 3e9d 3abd 6ab6 303d 9720 923d 4f2a 17be
00000090: 6bda 6fbd 4b2e b33d cac5 0c3e 1b8c 713c
000000a0: c330 3fbd d5e6 1dbe 17d2 373e 1a20 24be
000000b0: 8434 8ebd e7c4 963d b6d4 093e 4a0c 4fbd
000000c0: 7c2d 5e3d f447 123e 99d8 1b3d 4cd9 e6bd
000000d0: fbfa f4bc f5e4 1ebe 9157 07b9 9f30 39bd
000000e0: 8c8f a4bc 1488 083c 5829 a4bd 65d7 373e
000000f0: 89b1 a23d ca9d 4c3d f459 4d3d 9521 103b
00000100: 0a2d 3a3d b7d6 86bd 6526 f6bd b1ad 21be
00000110: dd18 0ebe cf93 b2bd 321a 373e e9a6 42be
00000120: 9122 73bd 55b9 f2bd 8356 fdbd 7e23 1a3e
00000130: 0077 0bbe 66fa 5fbd ea75 14be d506 aa3d
00000140: fdc5 29bd 91f7 f9bd 8bc8 403d 656d df3c
00000150: 8346 edbd 4c31 1fbc 23b6 ef3d b8ad a03d
00000160: 7bac 1ebd 4246 4bbe 960f 5bbc e938 0b3b
00000170: a770 c5bd 898e 1d3e 6afc b43c 9e75 c93d
00000180: fadb 8d3d 35c9 403e ea7e 8739 4cba ddbd
00000190: a633 41bd 68f4 ce3d ce2e d0bc 7797 093d
000001a0: f46c bb3d 9569 423c 252b b5bc 32b7 a13a
000001b0: bc21 143e 0b43 ccbc b09b 0dbe e969 123d
000001c0: a590 e33d f7cc a0bd d682 0abd 8c06 39be
000001d0: 0a84 0ebe b38a dabd 9a8c 033e 91eb d1bd
000001e0: ca06 1c3e 62da 23be 6d4e 753d 3383 adbd
000001f0: c0ca c3bd ccce 4b3e 0e3a 09be d03b 05bc
00000200: eba1 7d3d 2611 f4bd 38ac 283c 86ed 91bd
00000210: 9691 603d 54ed 1abd 2bf4 1cbd e90f 53bd
00000220: ce5f 373d ca95 c33c 9e3a 143e 52a8 3dbe
00000230: cdd7 e13d cdef 2e3e e010 1c3e 286d 8e3d
00000240: 7070 753d b452 243e 8737 2c3e 79e3 0cbd
00000250: 9d71 013c f2e7 bd3d 6890 3fbd 818c 0e3e
00000260: b8b5 c23d a90d 9e3d 517e cdbd 5361 233e
00000270: d567 d83d 5de6 f83b 7c82 18bc c474 a13c
00000280: 9835 0e3e 800d 01be bc5f 23be c14a 253d
00000290: 7237 b0bd 4dd8 27be e5f7 253e d0ce 2cbe
000002a0: e14b 67bc 63da d8bd d43d c03d da77 ac3c
000002b0: fc48 d6bd e3a2 2a3e 7f39 903d f436 ea3d
000002c0: 668c d33d 9dd3 24be 00da 23be 80bd 9b3d
000002d0: ffb7 e0bc 8597 cb3d 1954 233e c82c 0fb9
000002e0: 0022 bbbc 4f3e 1f3d b478 c0bc b1c4 0cbe
000002f0: 83a1 103e fec7 973c 3f63 8bbd 1401 b13d
00000300: 9f00 14be bd38 fcbd d77f 4ebe 6231 953d
00000310: ce4b 363c b4d8 e33d 1cf6 0c3d 6538 993c
00000320: 0483 233e 1e47 f5bb 178d fc3b c44a 27be
00000330: cece 67be 2783 873c fd58 033d 521b 1d3e
00000340: 47ff 483c 985d 6a3e 7479 6c3e cc5d fd3d
00000350: 704f 313e 05f9 f53d ec9f f4bc 5e07 c13c
00000360: e23d 1f3d 3dd3 1b3e 0469 c73d 900f 2dbe
00000370: f557 f63d 06ac f7bd 3568 153d 98cd 39be
00000380: 33bb 963c c1d8 143e 5e45 4cbd 748b 2a3e
00000390: 85c5 f8bd e338 1dbc e88b 85bd b812 ccbd
000003a0: 0907 bdbd 469c 003e aea1 3bbd f35c c83d
000003b0: d4c5 15be 2350 a1bd f260 0dbe c1fc 25bd
000003c0: a032 29bd 1fa5 babc e679 cabd 284f a53d
000003d0: cf63 13be 3a7b 323d 8113 293d 4ba1 4b3c
000003e0: 14f2 4c3c 9882 203d c9b0 bebd da68 f2bd
000003f0: 9f7b 1e3d 1ca6 383d d6eb 283e c63b 933d

classifier.0.bias f4 [32]
0.11529262 0.11519369 -0.12165358 -0.08025159 0.060207978 0.06676587 -0.049612843 0.055043306
0.004012848 -0.078801714 -0.074744865 0.0020650588 0.046263527 0.07394749 0.076122575 0.10495416
0.15032615 -0.061935615 -0.045519277 -0.10898088 0.1053313 -0.06912376 -0.025695946 -0.11184693
0.026688177 -0.049294405 0.11930483 -0.100200884 0.10412166 0.013975731 0.05748447 -0.04005951
00000000: 8a1e ec3d abea eb3d 8325 f9bd f25a a4bd
00000010: a49c 763d 8bbc 883d d636 4bbd 1775 613d
00000020: 357e 833b cb62 a1bd d613 99bd f055 073b
00000030: d37e 3d3d c871 973d 27e6 9b3d 35f2 d63d
00000040: 19ef 193e 33b0 7dbd 6c72 3abd 5e31 dfbd
00000050: f0b7 d73d c290 8dbd 4e80 d2bc 0110 e5bd
00000060: 2aa1 da3c eee8 49bd 1756 f43d 1f36 cdbd
00000070: bd3d d53d 77fa 643c d674 6b3d 7115 24bd

classifier.3.weight f4 [1, 32]
0.12763056 0.1722982 0.13143736 0.10806984 -0.13155602 -0.23188402 0.112963066 0.18812446
0.14913039 0.22207595 -0.17842303 0.16980734 0.17302789 0.20314813 -0.17473781 0.18015249
-0.21267444 -0.17524341 0.15848765 0.19964717 0.15593468 -0.14094259 -0.22163983 0.1515404
-0.21818818 0.18511514 0.067928575 0.14420153 0.12059725 -0.1342991 -0.15399408 -0.12624581
00000000: 96b1 023e f06e 303e 8497 063e b853 dd3d
00000010: 9fb6 06be 0173 6dbe 2e59 e73d b3a3 403e
00000020: a3b5 183e e167 633e 87b4 36be fae1 2d3e
00000030: 392e 313e 1006 503e 78ee 32be e579 383e
00000040: 54c7 59be 0273 33be 964a 223e 4f70 4c3e
00000050: 57ad 1f3e 4153 10be 8df5 62be 682d 1b3e
00000060: b96c 5fbe d38e 3d3e 231e 8b3d 91a9 133e
00000070: b1fb f63d b485 09be a0b0 1dbe 9546 01be
