lnn/stage1_pi_hlnn_best.pt (torch, 82113 bytes, 35 tensors)

cell_los.gleak f4 [32]
0	0x3f0d7ecc	0.552716
1	0xbda96819	-0.08271808
2	0x3d73a6d2	0.059485264
3	0x3e0b203e	0.13586518
4	0x3e397576	0.18111214
5	0xbaea87bf	-0.0017893239
6	0x3ed18524	0.4092189
7	0x3d7a7737	0.06114885
8	0xbd9d0ab3	-0.07668056
9	0x3f0c1950	0.54726124
10	0x3f5aafd9	0.8542457
11	0x3e66722d	0.22504492
12	0x3dd25f71	0.1027211
13	0x3e78b9d2	0.24289635
14	0x3e70698f	0.23477767
15	0xbdf5e5b6	-0.120067045
16	0x3f33d74a	0.7025038
17	0x3f2d3162	0.6765348
18	0x3f32e3b7	0.69878715
19	0x3e41ca00	0.18924713
20	0x3d6801a8	0.056642205
21	0x3f68a235	0.9087251
22	0xbd1b8ff4	-0.03797908
23	0x3cdb6304	0.026780613
24	0x3e1c63a6	0.15272388
25	0x3ef015fd	0.46891776
26	0x3e862963	0.2620345
27	0x3e0315d6	0.12801298
28	0x3f4e6abb	0.8063161
29	0x3ddf2303	0.1089535
30	0x3ece9684	0.4034921
31	0x3f2db402	0.67852795

cell_los.vleak f4 [32]
0	0x3d5b2021	0.053497437
1	0x3e368071	0.17822434
2	0xbceaf4d2	-0.028681193
3	0x3d93713a	0.07199331
4	0xbccf1123	-0.025276726
5	0x3d15729c	0.036486253
6	0xbe505c6f	-0.2034776
7	0x3dd70bdd	0.105003096
8	0x3d3610ca	0.044449605
9	0x3c058f66	0.008151865
10	0xbd9c1942	-0.07622005
11	0x3c0a5e0d	0.008445275
12	0xbe59e9ed	-0.21280642
13	0x3df308ed	0.11866937
14	0x3dec9b13	0.115530156
15	0x3e0c375b	0.13692991
16	0xbcdb7f52	-0.02679411
17	0xbe4c0038	-0.19921958
18	0xbd41feb2	-0.047362037
19	0xbe3cfdd0	-0.18456197
20	0xbde2a112	-0.11065878
21	0x3e39ed38	0.18156898
22	0xbc31f13f	-0.01086074
23	0x3e79d294	0.24396735
24	0xbe2352ae	-0.15949509
25	0xbdba212c	-0.09088358
26	0xbe22cb97	-0.15897976
27	0x3d7e2ab9	0.062052462
28	0x3b527df7	0.0032118538
29	0x3dc9401c	0.09826681
30	0x3e48e3b3	0.1961811
31	0x3e01cad0	0.12675023

cell_los.cm f4 [32]
0	0x3ee215c9	0.44157246
1	0x3f1b91f9	0.6076961
2	0x3f56d5fb	0.8392026
3	0x3f308248	0.68948793
4	0x3f412083	0.75440234
5	0x3f25e78f	0.64806455
6	0x3f053b57	0.5204367
7	0x3f2a3cb4	0.66498876
8	0x3f2fd084	0.68677545
9	0x3f22f4de	0.6365489
10	0x3f0265b7	0.50936455
11	0x3f016c69	0.50556046
12	0x3f31333e	0.69218814
13	0x3f380e1b	0.71896523
14	0x3f10119b	0.56276864
15	0x3f3d22cd	0.73881227
16	0x3f293bcc	0.6610687
17	0x3f34d1ed	0.7063282
18	0x3f3a88e8	0.7286515
19	0x3f15033d	0.58208066
20	0x3f3d02c0	0.7383232
21	0x3f1e153c	0.6175115
22	0x3f4b0a46	0.7931255
23	0x3f1f0d8f	0.62130064
24	0x3ed2520d	0.41078225
25	0x3f19e0c8	0.60108614
26	0x3f511296	0.81668985
27	0x3f441ff9	0.76611286
28	0x3f273e7b	0.6532971
29	0x3f295f6e	0.6616124
30	0x3f32f337	0.69902366
31	0x3f250405	0.6445926

cell_los.w f4 [32, 32]
0	0x3db6626c	0.08905491
1	0x3f3839bb	0.7196309
2	0xbdd5440a	-0.10413368
3	0x3ea81b40	0.3283329
4	0x3e06ff07	0.13183223
5	0xbde8c9bf	-0.11366605
6	0x3ead88a4	0.3389331
7	0x3eb0b661	0.34514144
8	0xbc82c481	-0.015962841
9	0x3dad6393	0.08466258
10	0x3d146573	0.036229562
11	0x3f087efe	0.53318775
12	0x3e8b3e6c	0.27196062
13	0x3f4e06c1	0.80479056
14	0x3ccb8139	0.024841892
15	0xbdc5e8d1	-0.09663547
16	0x3e5ec589	0.21755041
17	0x3f553b4a	0.8329359
18	0x3f520ed1	0.8205386
19	0x3ea4dd61	0.3220015
20	0x3e864a3e	0.26228517
21	0x3f0148e3	0.5050184
22	0x3ec4cc88	0.38437295
23	0x3eb5342d	0.3539137
24	0x3e6b8e35	0.23003466
25	0x3ea7a7f8	0.32745337
26	0x3ec39023	0.38195905
27	0x3f3e5578	0.74349165
28	0x3e56a2ce	0.20960543
29	0x3e901f72	0.2814899
30	0x3efcd40b	0.49380526
31	0x3f1d40c6	0.6142696
32	0x3f3f5e7a	0.74753535
33	0x3e24d860	0.16098166
34	0x3ed5f2bc	0.41786754
35	0x3e739e7f	0.2379093
36	0x3f52e4af	0.82380193
37	0x3f1a0e73	0.601783
38	0xbd823503	-0.063577674
39	0x3f0e68ba	0.5562855
40	0x3f6a29d8	0.914701
41	0x3f036cca	0.51337874
42	0x3da6d012	0.08145155
43	0x3f5a0efb	0.8517911
44	0x3ef98593	0.48734722
45	0x3eac606e	0.3366732
46	0x3f2e5aa6	0.6810707
47	0x3f25e0bd	0.6479605
48	0x3f1292d1	0.57255274
49	0xbd90cb1e	-0.070699915
50	0x3f3125ef	0.6919851
51	0x3e3597b1	0.17733647
52	0xbdc911b0	-0.09817827
53	0x3de2f5d5	0.11082045
54	0x3f25dfd9	0.6479469
55	0x3f552c23	0.8327047
56	0x3f364c73	0.712104
57	0x3f2ee2d5	0.6831487
58	0xbe53d0cf	-0.20685123
59	0x3e34e10f	0.17663978
60	0x3e11677c	0.14199632
61	0xbd4adbee	-0.049526148
62	0xbd27daa3	-0.040979993
63	0xbd561750	-0.052268326
64	0x3d28691d	0.04111587
65	0x3ed1c511	0.40970662
66	0x3d5dc43f	0.054142233
67	0x3f0fe501	0.5620881
68	0x3e6c5d50	0.23082471
69	0x3f1473cc	0.5798919
70	0xbe38e1b7	-0.18054853
71	0xbd9dfe14	-0.07714477
72	0xbe2de08a	-0.16980186
73	0x3f311202	0.691681
74	0x3f05ac48	0.52216005
75	0xbd830121	-0.063967
76	0x3e03159e	0.12801215
77	0x3ee663a6	0.449979
78	0x3cf1caf1	0.029515715
79	0x3f2494bd	0.64289457
80	0x3f702d8f	0.93819517
81	0x3f2de847	0.6793255
82	0x3e50ae7a	0.20379058
83	0x3f2de937	0.6793398
84	0x3f32a9f7	0.69790596
85	0x3ed6c7e9	0.41949394
86	0x3f32057f	0.69539636
87	0xbe0fbf11	-0.1403773
88	0x3f19382b	0.5985133
89	0x3f0367b2	0.513301
90	0x3f42e83f	0.7613563
91	0x3f14f727	0.58189625
92	0x3f5b79a3	0.8573248
93	0x3dc3d926	0.09562902
94	0x3ea75b57	0.32686874
95	0xbd3de53c	-0.046361193
96	0x3f696480	0.91168976
97	0x3eb55bec	0.35421693
98	0xbe01e18e	-0.12683699
99	0x3f3e8eea	0.7443682
100	0x3ec994d5	0.39371362
101	0x3e979f39	0.29613665
102	0x3f6eaec5	0.9323543
103	0x3e3f53c2	0.18684295
104	0x3d5c238c	0.053744838
105	0x3e756c2a	0.23967043
106	0x3efa55ec	0.48893678
107	0x3dff148d	0.124550916
108	0x3eee0fed	0.46496525
109	0xbd7a42e3	-0.061098944
110	0x3e0f3d71	0.13988282
111	0xbd4333f6	-0.047656976
112	0xbd817afd	-0.06322286
113	0x3eef858a	0.4678157
114	0x3f02382a	0.5086695
115	0x3ebf78b4	0.37396777
116	0x3ea12a67	0.31477663
117	0x3ebd78d7	0.37006256
118	0xbe1d2f2c	-0.15350026
119	0xbe684368	-0.22681963
120	0x3e01b837	0.12667929
121	0x3db26c9f	0.08712124
122	0x3ec558fa	0.38544446
123	0x3f425eba	0.7592579
124	0x3f4b67b4	0.79455113
125	0x3d236fda	0.03990159
126	0x3f125c8e	0.5717248
127	0x3f4d1b25	0.80119544
128	0x3ec46a6a	0.38362437
129	0x3e3b39e8	0.18283808
130	0xbe36a6c9	-0.17837061
131	0x3eec4872	0.4614902
132	0x3de3f8bf	0.11131429
133	0x3f18c538	0.5967593
134	0x3e00f15f	0.12592076
135	0x3eb713af	0.35757205
136	0x3ecbfe01	0.39842227
137	0x3eac0ae6	0.33602065
138	0x3ebf46a9	0.37358597
139	0x3f60f532	0.8787414
140	0x3f185cb7	0.5951647
141	0x3d98b785	0.074568786
142	0x3e757a19	0.23972358
143	0x3f08c5ac	0.53426623
144	0x3f00cf1c	0.50316024
145	0x3d87424e	0.066044435
146	0xbc47b404	-0.012188915
147	0x3e32e068	0.17468417
148	0x3ed99192	0.42493874
149	0x3ed0aca9	0.4075673
150	0x3eff50fa	0.49866468
151	0x3d8e4780	0.06947231
152	0x3e35b711	0.17745616
153	0x3f199904	0.5999911
154	0xbd9a4174	-0.075320154
155	0x3e925957	0.28583786
156	0xbc1084e8	-0.00882075
157	0x39b5270c	0.00034552102
158	0x3f15d2c0	0.58524704
159	0x3ef8ac86	0.48569125
160	0x3f66a9e9	0.9010301
161	0x3f75f4aa	0.9607645
162	0x3d5535cf	0.05205327
163	0x3d808c72	0.06276788
164	0x3f057e99	0.521463
165	0x3e8a0fb2	0.269651
166	0xbde2efca	-0.110808924
167	0x3e433605	0.19063576
168	0x3d2b5354	0.041827515
169	0x3ed2b945	0.41156974
170	0x3f365988	0.71230364
171	0x3f3a0a51	0.7267199
172	0x3f6e5950	0.9310503
173	0x3e29242d	0.16517706
174	0x3f486b5e	0.7828883
175	0xbd386e46	-0.04502704
176	0xbe0635d3	-0.1310647
177	0x3e1288a8	0.14309943
178	0x3f0845ab	0.53231305
179	0x3ee10c2d	0.43954602
180	0xbd5a4d46	-0.05329635
181	0x3ef859a1	0.4850588
182	0x3edce5f9	0.43144205
183	0x3f69c06a	0.91309226
184	0x3e8fa1f0	0.28053236
185	0x3dc9210c	0.09820756
186	0x3ede8d1d	0.43467036
187	0x3e635da0	0.22203684
188	0x3ec005eb	0.37504515
189	0x3e7108e7	0.23538552
190	0x3f8c1eb7	1.0946873
191	0x3e9dd3c4	0.30825627
192	0x3d52a5f4	0.051427796
193	0x3d489183	0.048966896
194	0x3eb88fe9	0.36047295
195	0x3f2d705f	0.6774959
196	0x3f0bcea2	0.5461217
197	0xbe26c45e	-0.16285846
198	0x3ef7e005	0.484131
199	0x3f55fb21	0.8358632
200	0x3e80b45c	0.25137603
201	0x3f3462f4	0.7046349
202	0x3f539f75	0.8266519
203	0x3f5621e5	0.8364547
204	0x3ef96677	0.48710987
205	0xbda9d152	-0.08291878
206	0xbd9c0f64	-0.07620123
207	0x3f1b9ed7	0.60789245
208	0x3e509e39	0.20372857
209	0x3f48de63	0.78464335
210	0x3f17fed0	0.5937319
211	0x3cf46520	0.029833376
212	0x3f2bc3d3	0.6709568
213	0xbc68feeb	-0.014220933
214	0x3ce3b310	0.027795345
215	0x3f222fa7	0.6335396
216	0x3f82d9da	1.0222733
217	0x3f2a1c1f	0.6644916
218	0x3f172eb0	0.59055614
219	0x3ee6e99a	0.451001
220	0x3f333a38	0.7001071
221	0xbbfeaecd	-0.0077723027
222	0x3f16a6ed	0.5884846
223	0x3edb3bfc	0.42819202
224	0x3e969f95	0.29418626
225	0x3d91cc54	0.071190506
226	0x3f27f3c7	0.6560635
227	0x3e91dd66	0.28489226
228	0x3ec0b1a1	0.3763552
229	0x3e77e0b8	0.24206817
230	0x3f0d6df5	0.55245906
231	0x3e15a6de	0.14614436
232	0xbdb775e4	-0.08958033
233	0x3f067f15	0.5253766
234	0x3ec804a1	0.39066032
235	0x3e8c9dd3	0.2746416
236	0x3f3a4cb3	0.72773284
237	0x3df96a65	0.12178496
238	0x3ea903e0	0.3301077
239	0xbc3ba3c6	-0.011452621
240	0x3e53a29d	0.20667501
241	0x3f2fa37a	0.6860882
242	0x3eb94580	0.36185837
243	0x3f31702f	0.69311804
244	0x3f6006f2	0.875106
245	0x3f1d67a5	0.61486274
246	0x3f50a823	0.81506556
247	0x3ede4190	0.43409395
248	0x3f3f0389	0.7461477
249	0x3d5d692b	0.054055374
250	0x3f2b943d	0.6702307
251	0x3f356906	0.7086338
252	0x3f1074db	0.5642831
253	0xbe040ec7	-0.12896262
254	0x3f15b338	0.5847659
255	0x3f1f5f1e	0.6225451

cell_los.erev f4 [32, 32]
0	0xbe4d3a9d	-0.2004189
1	0xbd4fa6b5	-0.050696094
2	0xbdbb7731	-0.09153593
3	0x3e2f31c4	0.17108828
4	0x3dd2788a	0.10276897
5	0xbdec007b	-0.11523529
6	0xbe2eecd5	-0.17082532
7	0xbca4e5f9	-0.02012919
8	0xbde6c019	-0.112671085
9	0xbe2e30fd	-0.17010875
10	0x3e027319	0.12739219
11	0xbe54c11a	-0.20776787
12	0x3dd7bf09	0.10534484
13	0xbdc6fa66	-0.097157285
14	0xbe425572	-0.18977907
15	0xbd6b0688	-0.057379276
16	0xbdd6a988	-0.10481554
17	0xbe0f2555	-0.13979085
18	0xbdce0ad8	-0.10060662
19	0xbce356a3	-0.027751273
20	0xbddefad1	-0.10887683
21	0x3e49c804	0.19705206
22	0xbe2dfffe	-0.16992185
23	0x3befeed0	0.00732217
24	0x3d942346	0.072332904
25	0xbde6f4f1	-0.112771876
26	0xbd18382a	-0.037162937
27	0xbe226377	-0.15858255
28	0xbe848cd0	-0.2588868
29	0x3dc8b259	0.09799642
30	0x3d8ec2e7	0.069707684
31	0x3d0091c8	0.031389028
32	0x3e1ecd18	0.15507925
33	0x3dd6d9d2	0.10490765
34	0xbdc8794c	-0.097887605
35	0xbe22ef09	-0.15911497
36	0x3d90ad25	0.07064275
37	0xbd6301f6	-0.055421792
38	0x3db80003	0.08984377
39	0xbcaee5e9	-0.021349864
40	0x3e4d9121	0.20074894
41	0xbd2476ca	-0.04015235
42	0xbdcb19e4	-0.099170476
43	0xbe84975f	-0.25896737
44	0x3e58e24c	0.21180075
45	0xbe34d5d7	-0.17659698
46	0x3e1b3a08	0.15158856
47	0x3d12c6f9	0.035834286
48	0xbddc7e67	-0.10766297
49	0xbc8a0a2a	-0.01685055
50	0x3e289eb2	0.16466787
51	0x3e29651c	0.16542476
52	0xbe00f124	-0.12591988
53	0xbd2caef5	-0.04215904
54	0x3e0fd7fb	0.14047234
55	0x3e73b420	0.23799181
56	0xbe3d78b7	-0.1850308
57	0x3deafbb7	0.11473792
58	0x3bdbc123	0.0067063733
59	0xbe06bb20	-0.1315732
60	0x3d9a39de	0.075305685
61	0xbdd08743	-0.10182049
62	0x3dcc9d8f	0.099909894
63	0x3cddada6	0.027060341
64	0xbd930878	-0.0717935
65	0x3e351d67	0.17686997
66	0xbde1b9f2	-0.110217944
67	0x3e87d168	0.26526952
68	0xbd0f4898	-0.03498134
69	0x3e8f44b2	0.27982098
70	0xbe026be0	-0.12736464
71	0x3d11af8e	0.035567813
72	0x3d86bb03	0.065786384
73	0xbd1293ba	-0.035785414
74	0x3d015aaf	0.031580623
75	0x3d885f32	0.06658782
76	0x3d226670	0.039648473
77	0x3e05f17c	0.130804
78	0xbd7b8f45	-0.06141593
79	0x3d6ef3e7	0.058338072
80	0x3e97a144	0.29615223
81	0x3e534e32	0.20635298
82	0x3bddaf64	0.006765293
83	0xbd519ad4	-0.051173046
84	0x3e6f4cdf	0.23369168
85	0x3e3f9a6d	0.18711253
86	0x3ecb94d4	0.39761984
87	0xbd0a1b0f	-0.03371721
88	0xbb961ea5	-0.00458129
89	0xbd4ad30a	-0.04951767
90	0x3e3d5604	0.18489844
91	0x3c368793	0.011140722
92	0x3b3884db	0.002815536
93	0x3e0c89e3	0.13724475
94	0x3e257bf0	0.1616056
95	0x3c9e585f	0.019329248
96	0xbde32331	-0.110906966
97	0x3e4eeb2c	0.20206898
98	0xbdb7be54	-0.08971849
99	0x3d951100	0.07278633
100	0x3d1b1f61	0.037871722
101	0x3e378a1c	0.17923778
102	0xbe164f39	-0.14678659
103	0x3e2deded	0.16985293
104	0x3cd83417	0.026392026
105	0xbda626b5	-0.081128515
106	0xbb9fedf5	-0.0048806616
107	0xbe38f39d	-0.18061681
108	0x3d8f2fe6	0.06991558
109	0xbda34802	-0.07972719
110	0x3d14e21a	0.03634844
111	0x3d154816	0.0364457
112	0xbcd0e4f3	-0.025499796
113	0xbe004381	-0.1252575
114	0xbbfd8c2c	-0.007737657
115	0x3e3ea53c	0.1861772
116	0x3dffb3f0	0.12485492
117	0xbbc84000	-0.006111145
118	0x3d883403	0.066505454
119	0x3e1b788c	0.15182704
120	0x3d88da54	0.06682268
121	0x3e3b3f03	0.18285756
122	0xbd6969be	-0.05698561
123	0xbd2500b2	-0.040283866
124	0x3e05aacc	0.13053435
125	0x3d892bc9	0.066978045
126	0x3d0c0dfc	0.034193024
127	0xbd550796	-0.052009188
128	0xbddb629e	-0.10712169
129	0xbda0ba83	-0.07848074
130	0xbda27279	-0.0793199
131	0x3e70782c	0.23483342
132	0x3cbf1ac2	0.023328189
133	0x3e56e326	0.20985088
134	0xbe9a5eea	-0.3015054
135	0x3de80fdf	0.11331152
136	0x3e12a0d3	0.14319162
137	0xbe35b4e6	-0.17744789
138	0xbd735b71	-0.059413377
139	0xbbf127be	-0.007359474
140	0xbe0ff959	-0.14059962
141	0x3dd31254	0.1030623
142	0x3e0cc57d	0.13747211
143	0xbd4c61bc	-0.049897894
144	0xbd4389c4	-0.047738805
145	0x3e42b6c1	0.19015028
146	0x3d997490	0.07492936
147	0xbda0d78c	-0.07853612
148	0x3ddbb28c	0.107274145
149	0xbda16a55	-0.07881609
150	0x3e045b56	0.12925467
151	0x3cb426cd	0.021991158
152	0x3c9c01f7	0.019043906
153	0xbd60d3ea	-0.054889597
154	0x3bafed2f	0.0053688507
155	0xbd35b8a6	-0.044365548
156	0x3db01bd9	0.085990615
157	0xbde94783	-0.11390593
158	0x3e588f34	0.21148378
159	0x3e4185ef	0.18898748
160	0xbe0b8e2e	-0.13628456
161	0x3e65f4aa	0.22456613
162	0x3e63ae65	0.22234495
163	0xbd3fdc16	-0.04684075
164	0x3dc3e052	0.0956427
165	0x3e236b12	0.15958813
166	0xbdf05db4	-0.117366225
167	0x3e52dad4	0.20591289
168	0x3c6f6386	0.014611131
169	0xbd4b9411	-0.049701754
170	0x3d96d0c4	0.07364038
171	0x3d6078e7	0.0548028
172	0x3e6fee60	0.23430777
173	0xbe1faceb	-0.15593307
174	0xbd3048de	-0.04303824
175	0x3d8f6af8	0.070028245
176	0xbaf40b3c	-0.0018619071
177	0x3ce240d6	0.027618807
178	0xbc602b1d	-0.013682154
179	0xbdca78e0	-0.09886336
180	0xbd1943ef	-0.037418302
181	0xbb9edbd1	-0.0048479815
182	0x3e4d95da	0.20076695
183	0x3e9bca9b	0.30428013
184	0xbe133299	-0.1437477
185	0x3e88be44	0.2670766
186	0x3e3ac181	0.18237878
187	0xbdf1aa61	-0.11800075
188	0x3de05514	0.10953727
189	0x3dbe9a41	0.09306765
190	0x3ecd5bab	0.40109
191	0x3dae087b	0.08497711
192	0xbe08f4c0	-0.13374615
193	0x3dd37acb	0.10326155
194	0xbe525dc5	-0.20543583
195	0x3cd55c2d	0.02604493
196	0xbe43ad71	-0.19109131
197	0xbd5c6b6c	-0.053813383
198	0xbd9b0388	-0.07569033
199	0xbe66a575	-0.22524054
200	0xbe0bb082	-0.13641551
201	0xbe09d0ac	-0.13458508
202	0xbdc56a44	-0.09639409
203	0xbcf1f455	-0.029535452
204	0xbe3315b7	-0.17488752
205	0x3dbfdd08	0.0936833
206	0xbcd62a2a	-0.026143152
207	0x3a1708ef	0.0005761524
208	0x3b7360b5	0.00371365
209	0xbe25ccad	-0.16191359
210	0xbc53fea5	-0.01293913
211	0xbe5e88ee	-0.21731922
212	0x3e2c5f73	0.16833286
213	0xbda1d7e8	-0.07902509
214	0xbe45bb1c	-0.19309658
215	0x3d116dfc	0.03550528
216	0xbe5981cf	-0.21240924
217	0xbe4a4057	-0.19751106
218	0xbe1eb374	-0.15498143
219	0xbd75a06e	-0.05996745
220	0xbc83358c	-0.016016744
221	0xbe6195b7	-0.22029768
222	0xbd96ee49	-0.07369668
223	0xbd83571e	-0.06413101
224	0xbd4582ed	-0.048220564
225	0x3e3e0fcf	0.18560718
226	0x3e6815e2	0.22664598
227	0x3d3750a5	0.044754643
228	0xbd3b2249	-0.045686994
229	0x3e13c667	0.14431153
230	0xbe3ee784	-0.18643004
231	0x3c00576a	0.007833341
232	0x3e423d7c	0.18968767
233	0x3c605be5	0.013693784
234	0x3e274d28	0.16338027
235	0x3e03b135	0.12860568
236	0x3de635a2	0.112406984
237	0xbd0c65a5	-0.034276623
238	0xbd3ac4a8	-0.045597702
239	0x3e5e849f	0.21730278
240	0x3db8b9e7	0.09019833
241	0xbdee1c4b	-0.1162649
242	0xbda68891	-0.08131517
243	0x3c09aa1e	0.0084023755
244	0x3da7596e	0.08171354
245	0x3e5c7e73	0.21532612
246	0x3e435180	0.19074059
247	0x3e34998d	0.176367
248	0x3dbbd600	0.09171677
249	0x3e628b33	0.22123413
250	0xbdbfe172	-0.09369172
251	0x3e8190d5	0.2530581
252	0xbe0e060f	-0.13869499
253	0xbd8a686c	-0.06758198
254	0x3e318144	0.17334467
255	0xbd330459	-0.043705318

cell_los.mu f4 [32, 32]
0	0x3eacdf89	0.33764294
1	0x3f053b9f	0.520441
2	0x3f016ce0	0.50556755
3	0x3f4dd9ba	0.8041035
4	0x3f01a1d7	0.50637573
5	0x3f5a4b62	0.85271275
6	0x3edb456e	0.42826408
7	0x3f20ae06	0.6276554
8	0x3f18dbb3	0.59710234
9	0x3ec12784	0.3772546
10	0x3f2efbce	0.68352973
11	0x3ecb1909	0.39667538
12	0x3f388544	0.7207835
13	0x3ecc0a42	0.39851576
14	0x3f15e77e	0.58556354
15	0x3f69ce8a	0.9133078
16	0x3f1aa6b9	0.6041065
17	0x3f458e65	0.771704
18	0x3ee09746	0.43865412
19	0x3f101cca	0.5629393
20	0x3f5c0fc4	0.85961556
21	0x3f36b489	0.71369225
22	0x3f473cee	0.77827346
23	0x3f5a47dd	0.85265905
24	0x3f0d9a50	0.5531359
25	0x3f17dd6c	0.5932224
26	0x3f802d4d	1.0013825
27	0x3f036792	0.5132991
28	0x3f00e67b	0.50351685
29	0x3ef4eb17	0.4783561
30	0x3f804982	1.0022433
31	0x3f30014d	0.68751985
32	0x3ef831c0	0.48475456
33	0x3f1c8a11	0.6114817
34	0x3f4e33e7	0.80547947
35	0x3edfae58	0.436877
36	0x3f5df8c7	0.8670773
37	0x3f6a5080	0.91529083
38	0x3ef00aa4	0.46883118
39	0x3efef35d	0.49795046
40	0x3f319fd1	0.69384485
41	0x3f0461fd	0.5171202
42	0x3ea3a985	0.3196527
43	0x3f2cc168	0.67482615
44	0x3f07fd74	0.53121114
45	0x3f20d394	0.6282284
46	0x3f1d759c	0.6150758
47	0x3f2083f9	0.62701374
48	0x3f13122f	0.5744962
49	0x3f5288ab	0.8223979
50	0x3eb49a18	0.35273814
51	0x3f08b2b4	0.5339768
52	0x3f2929b3	0.6607925
53	0x3f0cccb8	0.54999876
54	0x3f69b6be	0.9129447
55	0x3ec3e89b	0.382634
56	0x3e8b6ddb	0.2723225
57	0x3efe3070	0.4964633
58	0x3f6ce06e	0.9252995
59	0x3ed2d785	0.41180053
60	0x3f46ca1a	0.7765213
61	0x3f6b04cd	0.918042
62	0x3f81fa87	1.015458
63	0x3f7b5fbe	0.98192966
64	0x3f204917	0.62611526
65	0x3efb8fbc	0.49133098
66	0x3f538b70	0.8263464
67	0x3f1db478	0.616035
68	0x3f389879	0.72107655
69	0x3e984871	0.29742768
70	0x3f79f81d	0.97644216
71	0x3f437f04	0.76365685
72	0x3f6fc20d	0.93655473
73	0x3f2d4b12	0.67692673
74	0x3ea53b81	0.3227196
75	0x3f67d141	0.9055367
76	0x3ef83922	0.4848109
77	0x3ed868f9	0.42267588
78	0x3f6b2eed	0.9186848
79	0x3f3a6f94	0.72826505
80	0x3f1bcded	0.6086109
81	0x3f25b832	0.64734185
82	0x3f3ad853	0.72986335
83	0x3f1e0a1d	0.6173418
84	0x3f194657	0.59872955
85	0x3f1e1af8	0.617599
86	0x3f05e073	0.5229561
87	0x3f2b11de	0.6682414
88	0x3ee77419	0.45205763
89	0x3f111443	0.5667154
90	0x3eb5ec16	0.35531682
91	0x3f20325e	0.62576854
92	0x3efc6791	0.49297765
93	0x3f44aa10	0.76821995
94	0x3f42bdee	0.7607106
95	0x3f1043ef	0.5635366
96	0x3ec44644	0.38334858
97	0x3f2325fa	0.6372982
98	0x3f55c315	0.83500797
99	0x3f24f498	0.6443572
100	0x3f403f51	0.75096613
101	0x3ef52b8f	0.47884795
102	0x3ee294c8	0.44254136
103	0x3f11411d	0.5673998
104	0x3f5a60cb	0.85303944
105	0x3ed216ea	0.41033107
106	0x3f39fa22	0.726473
107	0x3f2ce6ef	0.67539877
108	0x3ee4bf16	0.44677037
109	0x3f3b93bf	0.7327232
110	0x3f2e4d1c	0.6808641
111	0x3f6758bf	0.9036979
112	0x3f1ba2a0	0.6079502
113	0x3f5bb09e	0.8581637
114	0x3f1d9002	0.61547863
115	0x3ee513c6	0.44741648
116	0x3f2b1ef4	0.66844106
117	0x3f22af37	0.63548607
118	0x3f797f06	0.9745945
119	0x3f477a5f	0.779211
120	0x3ecf3f7f	0.4047813
121	0x3ecba578	0.3977468
122	0x3f3fda3c	0.74942374
123	0x3efd08ed	0.49420872
124	0x3f56341e	0.83673275
125	0x3f6c745c	0.9236505
126	0x3f68fde4	0.91012406
127	0x3efd6ae4	0.49495614
128	0x3efff25e	0.499896
129	0x3f639339	0.8889652
130	0x3f4f131d	0.8088854
131	0x3f13058b	0.5743033
132	0x3f3aafeb	0.7292468
133	0x3ee41ba8	0.4455235
134	0x3ec525cf	0.38505408
135	0x3f4ababa	0.7919117
136	0x3f31aeb4	0.694072
137	0x3f04fbf7	0.5194697
138	0x3f3981c9	0.7246366
139	0x3f0520f4	0.5200341
140	0x3f2206d1	0.6329165
141	0x3f53da0d	0.82754594
142	0x3f1f1933	0.62147826
143	0x3f5c1a48	0.859776
144	0x3f22cec3	0.63596743
145	0x3f2f8038	0.6855502
146	0x3f16a9a2	0.5885259
147	0x3f6ad7a9	0.9173532
148	0x3efed0e4	0.49768746
149	0x3ef86a49	0.4851859
150	0x3f1f091b	0.6212327
151	0x3f6ec989	0.9327627
152	0x3f4a4c64	0.7902281
153	0x3f3fe528	0.7495904
154	0x3f69985f	0.91248125
155	0x3f180d72	0.59395516
156	0x3f168dd0	0.5881014
157	0x3f5a8671	0.8536139
158	0x3f26c491	0.65143687
159	0x3f182b4a	0.59441054
160	0x3f36f76a	0.71471274
161	0x3f1bc550	0.6084795
162	0x3ee2f351	0.4432626
163	0x3f3f0205	0.74612457
164	0x3f211e82	0.62937176
165	0x3f329b6e	0.69768417
166	0x3f73c432	0.95221245
167	0x3f46ed65	0.77705985
168	0x3f048211	0.51760966
169	0x3f1958c0	0.59901047
170	0x3f065454	0.52472425
171	0x3f45d3a1	0.77276045
172	0x3efaffa4	0.49023163
173	0x3f146539	0.57966954
174	0x3f130002	0.57421887
175	0x3f25e59a	0.6480347
176	0x3f06ee28	0.5270715
177	0x3f03432f	0.5127439
178	0x3f4b7210	0.7947092
179	0x3f500433	0.8125641
180	0x3f280e26	0.6564659
181	0x3f6e67a3	0.9312689
182	0x3f0ea652	0.55722535
183	0x3f2ff57b	0.6873395
184	0x3ee4d3fc	0.4469298
185	0x3ed00065	0.406253
186	0x3f1c5282	0.61063397
187	0x3ebd9e47	0.3703482
188	0x3f2f9a27	0.6859459
189	0x3f3c0396	0.7344297
190	0x3f0f4fa6	0.5598091
191	0x3f4f5d23	0.8100149
192	0x3f3b17b7	0.7308306
193	0x3f0b44f4	0.5440209
194	0x3ee3d50c	0.4449848
195	0x3f2d4599	0.6768432
196	0x3f0425b2	0.5162002
197	0x3f399849	0.72497994
198	0x3f6647dd	0.89953405
199	0x3f19219d	0.59816915
200	0x3f2b7faf	0.66991705
201	0x3ec00be7	0.3750908
202	0x3f246a81	0.6422501
203	0x3eddd13f	0.43323705
204	0x3f15a70e	0.5845803
205	0x3f54c58c	0.8311393
206	0x3f2e4764	0.68077683
207	0x3f74be28	0.95602655
208	0x3f459d10	0.77192783
209	0x3f5d9958	0.8656211
210	0x3f5c9b4d	0.8617447
211	0x3eb4a0b1	0.35278848
212	0x3f15bc36	0.5849031
213	0x3f2c4096	0.6728605
214	0x3f0e824a	0.55667555
215	0x3f15039a	0.5820862
216	0x3ea27214	0.3172766
217	0x3f3e6b23	0.7438223
218	0x3f1be24e	0.6089219
219	0x3f234a0f	0.6378488
220	0x3f41c0fd	0.756851
221	0x3f4152d5	0.75517017
222	0x3f564d2d	0.8371151
223	0x3f4b72ed	0.7947224
224	0x3f55807a	0.83399165
225	0x3f3c471a	0.7354599
226	0x3ef28f3a	0.47374898
227	0x3f451941	0.7699166
228	0x3f332efe	0.6999358
229	0x3f754bf2	0.9581901
230	0x3e93630f	0.28786513
231	0x3f13f11e	0.5778979
232	0x3f554fd4	0.83324933
233	0x3ef77145	0.48328605
234	0x3f39dccf	0.7260255
235	0x3eeabc2c	0.4584669
236	0x3f39f830	0.7264433
237	0x3f682bd3	0.9069187
238	0x3f402176	0.7505106
239	0x3ee9dc2a	0.45675784
240	0x3f42721c	0.7595537
241	0x3f3817b4	0.7191117
242	0x3f297312	0.6619121
243	0x3ec84498	0.39114833
244	0x3ede813a	0.43457967
245	0x3ef7f371	0.4842792
246	0x3f4a7353	0.7908222
247	0x3f0fcf4f	0.561757
248	0x3ebb67c2	0.36602598
249	0x3ec74500	0.3891983
250	0x3f545d95	0.82955295
251	0x3e97366c	0.29533708
252	0x3e9aa23b	0.30201897
253	0x3f31a79c	0.69396377
254	0x3f01fa7d	0.5077284
255	0x3f3f3124	0.7468436

cell_los.sigma f4 [32, 32]
0	0x40f7a4af	7.738853
1	0x4065802c	3.585948
2	0x41023d5c	8.13998
3	0x40f143f5	7.5395455
4	0x409d3ddb	4.9138007
5	0x40cecbbd	6.4623704
6	0x4098c212	4.77369
7	0x408b581a	4.3545046
8	0x40e3c5aa	7.117879
9	0x40bc7aa7	5.889972
10	0x40cea237	6.4573016
11	0x40f6a2eb	7.7073874
12	0x40a929aa	5.286336
13	0x40a8ea68	5.278614
14	0x4055e88d	3.3423188
15	0x405c628d	3.443515
16	0x40878364	4.234789
17	0x40840341	4.125397
18	0x40f1d543	7.557283
19	0x4092d04a	4.587926
20	0x40a5d255	5.1819253
21	0x40ec6872	7.3877497
22	0x408ee1f9	4.4650846
23	0x40ba5f2a	5.8241167
24	0x40576b84	3.3659372
25	0x40eff58e	7.498725
26	0x4050a5d7	3.260122
27	0x40e1ed8d	7.060248
28	0x40a835f3	5.2565856
29	0x40915c3b	4.5425086
30	0x40a7313b	5.2247596
31	0x4073482f	3.8012807
32	0x40978c98	4.7359123
33	0x40eebe56	7.4607344
34	0x40f7f7c2	7.748994
35	0x40dfdf2f	6.995994
36	0x40963e01	4.695069
37	0x40a1bbc3	5.05417
38	0x40d1fc57	6.562053
39	0x404f07de	3.2348552
40	0x405631ca	3.346789
41	0x404ec44f	3.2307317
42	0x40fcac86	7.89606
43	0x40d1b813	6.55372
44	0x408ac026	4.3359556
45	0x409a95ec	4.830801
46	0x40bfc865	5.993212
47	0x40cf39e9	6.475819
48	0x40bffd68	5.9996834
49	0x40d9a95c	6.8019238
50	0x40bdee62	5.9353495
51	0x409a77db	4.827131
52	0x40cb30d9	6.349713
53	0x40e55b57	7.1674
54	0x40a948b8	5.290127
55	0x40c637d9	6.1943173
56	0x403ca3a5	2.947488
57	0x40582148	3.3770313
58	0x4059470c	3.3949614
59	0x40cb592b	6.354635
60	0x40826f22	4.076066
61	0x40d78dc5	6.736056
62	0x40bba40d	5.8637757
63	0x40d25bfe	6.5737295
64	0x405aeea1	3.4208148
65	0x40f9bddd	7.8044267
66	0x4060b0cf	3.5107915
67	0x4096ef0e	4.7166815
68	0x40ae0bb8	5.4389305
69	0x40c0155d	6.002608
70	0x40aa5a5a	5.3235292
71	0x404c9368	3.196497
72	0x408409ee	4.126212
73	0x4087d903	4.2452407
74	0x40ff8c82	7.985902
75	0x40c90181	6.2814336
76	0x40e7c2e1	7.242539
77	0x40910d66	4.5328856
78	0x40e41447	7.1274753
79	0x4093d1ed	4.6193757
80	0x40c5f6c6	6.1863737
81	0x40ce3181	6.443543
82	0x4101e643	8.118716
83	0x40ca1186	6.314639
84	0x40a985fc	5.2976055
85	0x40f4ac50	7.6460342
86	0x40e456a4	7.1355762
87	0x407f03d2	3.9846082
88	0x408e5ff1	4.4492116
89	0x40ec532b	7.3851523
90	0x4097c025	4.742205
91	0x4092763c	4.576933
92	0x40a5a55d	5.176436
93	0x40e399bb	7.112516
94	0x406244d6	3.5354514
95	0x40e2edc6	7.091525
96	0x40b723c9	5.7231183
97	0x40d955da	6.79173
98	0x407270d5	3.7881367
99	0x40ab0cec	5.3453274
100	0x40f63618	7.6941032
101	0x408e9b5c	4.456465
102	0x40b5ed18	5.685192
103	0x40b9a596	5.801463
104	0x40891e15	4.284922
105	0x40ff1fea	7.9726458
106	0x4049e245	3.1544354
107	0x40b7be06	5.741946
108	0x40a518f1	5.1592946
109	0x40f978f6	7.7960157
110	0x40e26d3a	7.0758333
111	0x406dc999	3.7154295
112	0x40ac986b	5.3936057
113	0x40fd4b42	7.9154367
114	0x40bd734d	5.920325
115	0x40d7e823	6.747087
116	0x4060b760	3.5111923
117	0x409e7f0c	4.9530087
118	0x40530696	3.297277
119	0x407d1d11	3.954899
120	0x40710495	3.7659047
121	0x40a4e752	5.1532373
122	0x40c04ef8	6.0096397
123	0x404b3aad	3.1754563
124	0x4096323d	4.6936326
125	0x40b49544	5.643221
126	0x4102f693	8.185199
127	0x409d44be	4.9146414
128	0x40766013	3.849614
129	0x40c25323	6.0726485
130	0x40bd88c1	5.9229436
131	0x40b15ce1	5.5425878
132	0x40a539f6	5.1633253
133	0x40acf251	5.4045796
134	0x40eb2c40	7.3491516
135	0x40691b42	3.6422887
136	0x40d78908	6.7354774
137	0x408e1a98	4.4407463
138	0x40c8d4af	6.2759624
139	0x408855f1	4.260491
140	0x4069e36f	3.6545064
141	0x40d3b26a	6.615529
142	0x40c7c977	6.243343
143	0x40dcd513	6.90101
144	0x40989c68	4.7690926
145	0x40c07449	6.014195
146	0x40eee486	7.465396
147	0x40f04c84	7.5093403
148	0x40e4f303	7.1546645
149	0x40a2a966	5.0831785
150	0x408ae243	4.34012
151	0x40bcd97a	5.9015474
152	0x40778990	3.8677711
153	0x409ead6c	4.9586697
154	0x40c03e8a	6.007634
155	0x40d07a42	6.514924
156	0x40a9fcbd	5.312102
157	0x40d1fb7d	6.5619493
158	0x405f150c	3.4856596
159	0x40ceb01d	6.458998
160	0x40776189	3.865328
161	0x40617e3b	3.5233295
162	0x40ba4109	5.820439
163	0x40fb485b	7.8525825
164	0x40bef8f2	5.967889
165	0x40d212e0	6.564804
166	0x40a8fe4e	5.281043
167	0x40b52e67	5.6619143
168	0x40beec95	5.9663796
169	0x40905f42	4.511628
170	0x40f1784f	7.545936
171	0x40805d5e	4.0113974
172	0x40d9eb25	6.809954
173	0x40e749bc	7.227751
174	0x4088286d	4.254935
175	0x40fc3b6b	7.882253
176	0x40d5050a	6.656865
177	0x40fba7f8	7.864254
178	0x40d63e30	6.6950912
179	0x40859609	4.174565
180	0x40e4f8ac	7.1553555
181	0x40f53895	7.663157
182	0x40e30b2b	7.0951133
183	0x40cbdaa5	6.37044
184	0x40bb8300	5.859741
185	0x40b66c09	5.700688
186	0x410032cb	8.012401
187	0x408a14cd	4.315039
188	0x40c3a33c	6.113676
189	0x40b20e03	5.5642104
190	0x40f58acd	7.6731935
191	0x40e1a2c8	7.0511208
192	0x407b1340	3.92305
193	0x40d95326	6.7914
194	0x409addb6	4.8395643
195	0x40eb07cb	7.3447013
196	0x405e483e	3.4731593
197	0x405b7385	3.4289258
198	0x40d6b07d	6.709044
199	0x409a8f33	4.8299804
200	0x40c7be8b	6.2420096
201	0x40f3b4b3	7.615808
202	0x40771b34	3.8610353
203	0x40a86b21	5.2630773
204	0x4096efa7	4.7167544
205	0x40de8d22	6.954728
206	0x40969cae	4.706626
207	0x40fc9d31	7.8941884
208	0x40b6f327	5.7171817
209	0x40cc1172	6.3771296
210	0x408ffe37	4.499782
211	0x40ade503	5.4342055
212	0x4053cdf0	3.3094444
213	0x408f702b	4.4824424
214	0x409cdee9	4.9022107
215	0x4068462d	3.6292832
216	0x40ac88bc	5.391691
217	0x40db791a	6.858533
218	0x4085c1bc	4.179899
219	0x40ae7df5	5.4528756
220	0x40efbdef	7.4919353
221	0x4080fb28	4.0306587
222	0x40cc981b	6.3935676
223	0x40a4065f	5.1257777
224	0x40f40714	7.625864
225	0x40ad86d3	5.422708
226	0x40f402ca	7.6253405
227	0x409926ae	4.7859716
228	0x406d9051	3.7119334
229	0x40b73526	5.725238
230	0x407c363f	3.940811
231	0x408975d6	4.2956343
232	0x40ebeaba	7.372403
233	0x40fd03ea	7.906728
234	0x407a4373	3.9103668
235	0x4044d4bd	3.0754845
236	0x40cb9910	6.3624344
237	0x406160a1	3.5215228
238	0x409c0571	4.875664
239	0x40d34439	6.602078
240	0x40cfd6cf	6.4949718
241	0x40c13544	6.037752
242	0x40d7e028	6.746113
243	0x40866ab3	4.200525
244	0x4098881d	4.7666154
245	0x40973913	4.725717
246	0x4044a91d	3.0728219
247	0x4087fcde	4.2496176
248	0x40bc1299	5.87727
249	0x40c6d0e8	6.2130013
250	0x40932d8f	4.5993114
251	0x40e7d66a	7.2449236
252	0x408359cd	4.104712
253	0x40b84342	5.75821
254	0x40fa8c74	7.829645
255	0x40e96e3c	7.2947063

cell_los.sensory_w f4 [1, 32]
0	0x3ed1e020	0.40991306
1	0x3f2969f6	0.6617731
2	0x3f4ed181	0.8078843
3	0x3f800744	1.0002217
4	0x3f14ce68	0.5812745
5	0x3f53b479	0.82697254
6	0x3e2679df	0.16257428
7	0x3f7d0aac	0.9884441
8	0x3f861c5e	1.0477407
9	0x3eabe22f	0.33571002
10	0x3e78df7d	0.24304004
11	0x3f28b24c	0.6589706
12	0x3f9a115a	1.2036545
13	0x3f6ba6b9	0.92051274
14	0x3f8b9f1d	1.0907933
15	0x3ee9e58a	0.45682937
16	0x3f95c78e	1.1701524
17	0x3f9a7aff	1.2068785
18	0x3ecff8ec	0.406196
19	0x3f493aad	0.7860516
20	0x3f1a0b4c	0.6017349
21	0x3fa01c16	1.2508571
22	0x3f0cafac	0.54955554
23	0x3eb46fcb	0.3524154
24	0xbcc282ea	-0.023744065
25	0x3f8d83cd	1.1055847
26	0x3f65771f	0.8963489
27	0x3e8335a3	0.2562686
28	0x3eb5c316	0.355004
29	0x3f87f64d	1.062204
30	0x3f143727	0.57896656
31	0x3ed13a06	0.4086458

cell_los.sensory_mu f4 [1, 32]
0	0x3e4069c7	0.18790351
1	0x3e47ed51	0.19524123
2	0x3da77c27	0.08177977
3	0x3e55104e	0.20807001
4	0x3e89c2c2	0.269064
5	0x3e9734f6	0.29532593
6	0x3f51a839	0.8189731
7	0x3d5651bc	0.05232404
8	0x3e5b5dc1	0.21422483
9	0x3e33d572	0.17561892
10	0x3e66ff00	0.22558212
11	0x3f4163f6	0.75543153
12	0x3e0bfd8a	0.13670936
13	0x3e64e478	0.22352779
14	0x3e23b511	0.1598704
15	0x3dec13b9	0.11527199
16	0x3e8d9a82	0.27656943
17	0x3de11ce6	0.1099184
18	0x3e378ff5	0.17926009
19	0x3e40fd4a	0.18846622
20	0x3e9a886c	0.30182207
21	0x3eb72f37	0.3577821
22	0x3dab445b	0.08362647
23	0x3e130f0b	0.14361207
24	0x3f14a22e	0.58059967
25	0x3dfb618a	0.122744635
26	0x3e002173	0.1251276
27	0x3ec71f78	0.38891196
28	0x3e995cfe	0.2995376
29	0x3eb248ea	0.34821254
30	0x3e683ff5	0.22680648
31	0x3e7b825c	0.24561447

cell_los.sensory_sigma f4 [1, 32]
0	0x40618f89	3.5243857
1	0x40b003bb	5.5004554
2	0x40fe13c8	7.9399147
3	0x40f2cff5	7.5878854
4	0x40de596c	6.9484158
5	0x408dc1a3	4.4298873
6	0x40b8af4d	5.771399
7	0x40fbc5ec	7.8679104
8	0x4095ff86	4.687442
9	0x40bc502d	5.884787
10	0x40b08bac	5.51705
11	0x40ecc670	7.3992233
12	0x40853cbc	4.163664
13	0x40b790d6	5.73643
14	0x4048b400	3.1359863
15	0x4097c6de	4.743026
16	0x40cba6ce	6.364112
17	0x40b96de1	5.794663
18	0x40f1ab46	7.5521574
19	0x40619354	3.5246172
20	0x40ca505e	6.3223104
21	0x40a2f07c	5.091856
22	0x40fb0de9	7.845448
23	0x40f1254f	7.5358043
24	0x40f6a93d	7.708159
25	0x4073b289	3.807772
26	0x40fd4542	7.9147043
27	0x4067d46a	3.6223397
28	0x40852f34	4.162012
29	0x40d48c24	6.642107
30	0x40a7c956	5.243327
31	0x40cd28fe	6.411254

cell_nlos.gleak f4 [32]
0	0x3f6b8f2f	0.92015356
1	0x3ec6d632	0.38835293
2	0x3f0fc517	0.5616011
3	0x3ee08507	0.43851492
4	0x3f348cdc	0.70527434
5	0x3f339557	0.7014975
6	0x3ebbe1b9	0.3669565
7	0x3b642d84	0.0034817168
8	0x3f25c625	0.6475547
9	0x3f3297a6	0.6976265
10	0x3f1c3062	0.61011326
11	0x3ef41079	0.47668818
12	0x3f19064b	0.5977523
13	0x3d944a9e	0.072407946
14	0x3a6891b0	0.0008871807
15	0x3e0a52c2	0.13508132
16	0x3d90c240	0.070683
17	0x3e89d394	0.26919234
18	0x3ede4307	0.43410513
19	0x3b58d1de	0.0033084075
20	0x3eb5f88a	0.35541183
21	0x3ebd8bae	0.3702063
22	0x3f15f726	0.58580244
23	0x3eb02976	0.34406632
24	0x3e283ad6	0.16428694
25	0x3eaba5a4	0.3352481
26	0xbdb01abe	-0.08598851
27	0x3ede8de8	0.4346764
28	0x3f260cd4	0.64863324
29	0x3ec42439	0.38308886
30	0x3eca17f7	0.3947141
31	0x3f56b214	0.83865476

cell_nlos.vleak f4 [32]
0	0x3e23ee3b	0.16008846
1	0x3e60ed48	0.21965516
2	0x3dee0550	0.11622107
3	0x3ddcd7b4	0.107833296
4	0xbd2a02a6	-0.041506432
5	0xbe4b43e2	-0.19850114
6	0xbc5e6891	-0.013574735
7	0x3e08a646	0.13344678
8	0xbd4ab96c	-0.04949324
9	0x3dd9f127	0.10641699
10	0xbe5deb2b	-0.2167174
11	0xbc804c64	-0.015661426
12	0x3e4cd08e	0.20001432
13	0xbe3b4e77	-0.1829165
14	0xbd00149f	-0.031269666
15	0x3ddab528	0.10679084
16	0xbe759b12	-0.23984936
17	0xbda2f83b	-0.079575025
18	0xbe1c16e3	-0.15243106
19	0x3d8ac528	0.06775886
20	0xbd254d73	-0.040357064
21	0xbbb01292	-0.0053733075
22	0x3e15fe50	0.14647794
23	0x3d27e5b8	0.04099056
24	0xbda2edb6	-0.07955496
25	0x3dc5c777	0.096571855
26	0xbd9f3acf	-0.07774889
27	0x3dfba8b1	0.12288035
28	0xbd93c394	-0.07215038
29	0x3e34363d	0.17598815
30	0xbd929ffd	-0.071594216
31	0x3d91c55b	0.07117721

cell_nlos.cm f4 [32]
0	0x3f301925	0.6878837
1	0x3f2e8053	0.6816456
2	0x3f3b532d	0.7317379
3	0x3f3682de	0.7129344
4	0x3f16c666	0.5889648
5	0x3f23f3f3	0.6404411
6	0x3f1ec17f	0.62014
7	0x3f32e47e	0.698799
8	0x3f097892	0.536996
9	0x3f3056fe	0.6888274
10	0x3f2fd5d3	0.68685645
11	0x3f467251	0.77518183
12	0x3f15d76e	0.58531845
13	0x3f1604e5	0.5860122
14	0x3f0bd389	0.5461965
15	0x3f421225	0.75808936
16	0x3f305651	0.6888171
17	0x3f007b4b	0.5018813
18	0x3ec4a902	0.38410193
19	0x3f076640	0.52890396
20	0x3f580d4f	0.8439531
21	0x3f33fb63	0.7030546
22	0x3f0b7769	0.5447908
23	0x3f23bd85	0.6396106
24	0x3f42a1cd	0.7602814
25	0x3f3edf1e	0.745592
26	0x3f5de36d	0.8667515
27	0x3f404912	0.75111496
28	0x3f225b95	0.63420993
29	0x3f5069f8	0.81411695
30	0x3f162e08	0.5866399
31	0x3f489a1c	0.7836015

cell_nlos.w f4 [32, 32]
0	0x3f0d987a	0.55310786
1	0x3c4ba36e	0.012429101
2	0x3e908484	0.282261
3	0x3c92cce0	0.017919958
4	0x3eaee191	0.3415647
5	0x3ed7be9f	0.4213762
6	0x3ed7b57b	0.42130646
7	0x3f00fbd1	0.5038424
8	0x3ed18650	0.40922785
9	0x3ef95fc2	0.4870587
10	0x3edaa499	0.42703703
11	0x3e37da69	0.1795441
12	0xbbc47134	-0.00599494
13	0x3f092065	0.53565055
14	0xbda2670d	-0.079298116
15	0x3ed79c48	0.4211142
16	0x3f3345d9	0.70028454
17	0x3f4ee8e6	0.80824125
18	0x3e918d8f	0.28428313
19	0x3f57ccd6	0.8429693
20	0x3e2501af	0.16113923
21	0x3e0c4601	0.1369858
22	0x3eee18c6	0.46503276
23	0x3e826ec3	0.2547513
24	0x3db1f65e	0.08689569
25	0x3f0c73b2	0.5486404
26	0x3f581a34	0.8441498
27	0x3f50152e	0.8128232
28	0x3f1ff780	0.6248703
29	0x3f2fb509	0.6863561
30	0x3f2a6264	0.6655638
31	0x3e94d038	0.29065108
32	0x3f5c9c23	0.86175746
33	0x3ee85d3a	0.45383626
34	0x3f60b229	0.8777185
35	0x3cac5704	0.021037586
36	0x3f07b0f1	0.53004366
37	0x3f020f41	0.50804526
38	0x3eb8436f	0.35988948
39	0x3db35fae	0.08758484
40	0x3ed27701	0.41106418
41	0x3e8a4f46	0.27013606
42	0x3e8c0f37	0.27355358
43	0x3f745cd3	0.9545414
44	0x3d1284e8	0.03577128
45	0x3ea6621b	0.32496724
46	0x3f017512	0.5056926
47	0x3eb847ab	0.35992178
48	0x3f3eefaf	0.7458448
49	0x3f0941c7	0.53615993
50	0x3f5b9232	0.8576995
51	0x3f3676f5	0.71275264
52	0x3e1b2fb5	0.15154918
53	0xbd76357e	-0.060109608
54	0x3e5d1410	0.21589684
55	0xbd06786a	-0.03282968
56	0x3b6b156e	0.0035870927
57	0x3ef728d5	0.4827334
58	0xbd9a2dd9	-0.07528276
59	0x3e68eb5f	0.22746037
60	0x3e5e158f	0.21687911
61	0xbd513e6a	-0.051084913
62	0xbcff0d3d	-0.031134242
63	0x3e6a6baa	0.22892633
64	0x3f0153c9	0.5051847
65	0x3f1e850c	0.61921763
66	0x3f712661	0.94199187
67	0x3eba87e8	0.36431813
68	0x3dec76ab	0.115460716
69	0x3c3bd540	0.011464417
70	0x3d0a20c0	0.03372264
71	0x3f324c5f	0.69647783
72	0x3f7e3c04	0.99310327
73	0x3ed1eb5b	0.40999874
74	0x3f19b467	0.600409
75	0x3f22c5c4	0.63583016
76	0x3f4815be	0.78158176
77	0x3f1c9587	0.6116566
78	0x3f191ed0	0.5981264
79	0x3f0c87c8	0.54894686
80	0x3ee7113b	0.45130333
81	0x3e58b6f7	0.21163546
82	0x3f3c37b4	0.73522496
83	0x3f35f4b9	0.7107654
84	0x3f25c550	0.647542
85	0x3f613d61	0.8798428
86	0x3f645620	0.89193916
87	0x3f77224c	0.9653671
88	0x3f494911	0.78627115
89	0x3e8a93e2	0.2706595
90	0x3e73f014	0.23822051
91	0x3f0e9d07	0.55708355
92	0x3f2aaa29	0.66665894
93	0xbd6dd47a	-0.05806396
94	0x3f0201e4	0.50784135
95	0x3f2c5a37	0.67325157
96	0x3e797a35	0.24363025
97	0x3dd4ab58	0.10384244
98	0x3e9d3fda	0.30712777
99	0x3f61ccc7	0.8820309
100	0x3ee28673	0.44243202
101	0x3d8c3d74	0.06847659
102	0x3f37605c	0.7163141
103	0xbd51f8f4	-0.05126281
104	0x3d44814b	0.047974866
105	0x3f1a364f	0.6023912
106	0x3ee497e7	0.44647142
107	0x3ed2a6c2	0.4114285
108	0x3f442edc	0.76634
109	0x3e6155a4	0.22005326
110	0x3eb28143	0.34864244
111	0x3ea78317	0.327172
112	0x3f339fe7	0.70165867
113	0x3ec46597	0.38358757
114	0x3ef05d82	0.4694634
115	0x3de3c132	0.111208335
116	0x3e60ceca	0.21953884
117	0xbdef35b2	-0.116801634
118	0x3f378040	0.7168007
119	0x3f65e4ea	0.8980242
120	0x3f1a964c	0.60385585
121	0x3f2ad013	0.66723746
122	0x3e7457f8	0.23861682
123	0x3f3d7278	0.7400279
124	0x3f36ce5c	0.7140863
125	0x3f3c00e9	0.7343889
126	0x3baed078	0.00533491
127	0x3e12300a	0.14276138
128	0x3e77cb1c	0.24198574
129	0x3f401932	0.75038445
130	0x3efb0968	0.49030614
131	0x3f4b2425	0.7935203
132	0x3e83c10b	0.25733218
133	0x3eddb2a4	0.43300354
134	0x3efccbe6	0.49374312
135	0x3e2e017c	0.16992754
136	0x3f60d89c	0.8783052
137	0x3f507cf7	0.8144068
138	0x3d109278	0.035295933
139	0x3de4dcc1	0.11174918
140	0x3f511642	0.8167459
141	0x3f18ab18	0.5963607
142	0x3eae0951	0.33991483
143	0x3f39ed0e	0.7262734
144	0x3ef369a6	0.4754154
145	0xbe394306	-0.18091974
146	0x3ec85880	0.3913002
147	0x3f5ee0fd	0.87062055
148	0x3e99b962	0.30024248
149	0xbd0c3df7	-0.03423878
150	0x3e8c22d6	0.27370328
151	0x3dde78df	0.10862898
152	0x3f0aab3d	0.5416754
153	0x3f25c82f	0.6475858
154	0x3d97de68	0.074154675
155	0x3f274104	0.6533358
156	0x3f54fde2	0.83199894
157	0x3f459b81	0.77190405
158	0x3ee26e81	0.44224933
159	0x3eefd1f3	0.46839866
160	0x3e88e323	0.26735792
161	0x3bea8815	0.0071573355
162	0x3f3b57b5	0.73180705
163	0x3f307bc4	0.6893885
164	0x3f4f9b9c	0.81096816
165	0x3eaccdf8	0.33750892
166	0x3f392faa	0.72338355
167	0x3f2aea48	0.66763735
168	0x3ef4f51f	0.47843263
169	0x3da5c36d	0.08093915
170	0x3cc03217	0.023461385
171	0x3f4e6795	0.80626804
172	0x39af1550	0.0003339448
173	0x3f24fb62	0.6444608
174	0x3cfed3a6	0.031106781
175	0x3e9ef309	0.31044796
176	0x3f37a74b	0.71739644
177	0xbe15ceb0	-0.14629626
178	0x3f47dfb4	0.7807572
179	0x3efe7e3f	0.49705693
180	0x3f39eeb1	0.7262984
181	0x3f1ca2de	0.61186016
182	0x3f54caba	0.83121836
183	0x3e9434e3	0.289466
184	0x3da30d98	0.07961577
185	0x3f1c8eb4	0.6115525
186	0xbe01b7ac	-0.12667722
187	0x3be51b0b	0.006991749
188	0x3ef5f76f	0.4804034
189	0x3f3d772c	0.74009967
190	0x3ed37ec5	0.41307655
191	0x3eb0bbc4	0.34518254
192	0x3f468680	0.7754898
193	0x3f0cd201	0.5500794
194	0x3ef49a97	0.47774193
195	0x3f6bf1be	0.92165744
196	0x3f46d14d	0.7766312
197	0x3f266b09	0.6500707
198	0xbdcd23e1	-0.10016609
199	0x3f0f3c9f	0.55951875
200	0x3f3dd1f1	0.7414847
201	0xbc56b67f	-0.013105034
202	0x3f3c3746	0.7352184
203	0x3f63d483	0.8899614
204	0x3f1baaf1	0.6080771
205	0x3f4947e6	0.78625333
206	0x3f2ccad4	0.6749699
207	0x3e856d70	0.26060057
208	0xbc4b243b	-0.012398775
209	0x3e2489b0	0.16068149
210	0x3f2a560e	0.6653756
211	0x3d859ce0	0.06524062
212	0x3f3e7060	0.7439022
213	0x3ef2e33d	0.47438994
214	0x3e3ef58a	0.18648353
215	0x3f4a229a	0.7895905
216	0x3d05fe38	0.032713145
217	0x3ebcfe73	0.3691288
218	0xbe4dda28	-0.20102751
219	0x3f18793e	0.5956
220	0x3f154762	0.58312047
221	0x3f30f930	0.6913023
222	0x3d3d3228	0.04619041
223	0x3f638e52	0.8888904
224	0xbb673424	-0.003527888
225	0x3f3bb4cb	0.73322743
226	0x3f19398c	0.59853435
227	0x3ee01333	0.43764648
228	0x3d2418b7	0.040062632
229	0x3e8d6cfa	0.27622205
230	0x3eb261d4	0.34840262
231	0x3f0e62d0	0.55619526
232	0x3f53bfe4	0.82714677
233	0x3f388238	0.720737
234	0x3f12b54a	0.57307875
235	0x3ea9c9ad	0.3316168
236	0x3ccf71a7	0.025322748
237	0x3ee799fa	0.45234662
238	0x3eb3534f	0.35024497
239	0x3e630ec7	0.22173606
240	0x3f29f5d5	0.66390735
241	0xbd585e5a	-0.052824356
242	0x3f00a1b9	0.5024677
243	0x3ef4af98	0.47790217
244	0x3ba0fbfa	0.0049128504
245	0x3c911487	0.017709984
246	0xbc8df2d7	-0.01732771
247	0x3f65679a	0.8961121
248	0x3e1b0154	0.15137225
249	0x3f21c6d2	0.63194
250	0x3e2b537b	0.16731064
251	0x3f25a394	0.64702725
252	0xbd6dfc60	-0.05810201
253	0x3f1cbf6e	0.612296
254	0x3f679509	0.90461785
255	0x3ef0736f	0.4696307

cell_nlos.erev f4 [32, 32]
0	0xbb864903	-0.004098059
1	0x3e2fcd8f	0.17168258
2	0x3be7441d	0.0070576803
3	0x3c900bf6	0.017583828
4	0xbe2adf8c	-0.16686839
5	0xbe27b932	-0.1637924
6	0xbe6377da	-0.22213688
7	0xbd1abcde	-0.037777774
8	0xbdb53ae5	-0.08849124
9	0xbe197a32	-0.1498802
10	0x3d6d3852	0.05791504
11	0xbd19a4fd	-0.03751086
12	0x3da08774	0.07838336
13	0xbd9d12c5	-0.07669596
14	0xbdaf1073	-0.08548059
15	0xbde9498f	-0.11390983
16	0xbdd9c97c	-0.10634133
17	0xbd989d1b	-0.074518405
18	0xbe3adfe5	-0.18249471
19	0x3de2685f	0.110550635
20	0x3e09d2ac	0.13459271
21	0x3e246e6d	0.16057749
22	0x3e0e0577	0.13869272
23	0xbdb8b0ae	-0.09018074
24	0x3d841ed8	0.064511955
25	0xbdd73db4	-0.10509816
26	0x3e37b403	0.17939763
27	0xbdc6844b	-0.09693202
28	0xbe2fe53d	-0.17177291
29	0xbdf79d95	-0.12090603
30	0xbc8fc836	-0.017551523
31	0xbe4abd5b	-0.19798796
32	0x3c2baf82	0.010478856
33	0x3dda10f2	0.10647763
34	0xbe75623f	-0.23963259
35	0x3e5a5e0e	0.21324942
36	0xbd174db2	-0.03693933
37	0x3e811791	0.25213292
38	0x3c839288	0.016061082
39	0x3e46a8c0	0.1940031
40	0x3e296b61	0.16544868
41	0xbdb14f1d	-0.08657668
42	0x3d137908	0.036004096
43	0x3e546ca2	0.20744565
44	0x3d2c6d51	0.04209644
45	0xbdfff1ee	-0.12497316
46	0x3c2b139c	0.010441687
47	0x3dfc7b1f	0.12328171
48	0xbe218a26	-0.15775356
49	0x3e61049d	0.21974416
50	0xbe39c400	-0.18141174
51	0xbdab808c	-0.08374128
52	0x3e2f1b60	0.17100286
53	0xbde35258	-0.1109969
54	0x3e6c20a2	0.23059323
55	0x3d0aafa2	0.033858903
56	0x3dd34204	0.10315326
57	0xbdc650b7	-0.09683364
58	0xbdaac3a4	-0.08338097
59	0xbe83950a	-0.25699645
60	0xbe0d2479	-0.13783444
61	0x3e60382a	0.21896425
62	0x3b81b567	0.0039583924
63	0xbcbb52e5	-0.022866676
64	0x3ce1aee7	0.02754922
65	0xbdbe2b44	-0.09285596
66	0xbe34ae97	-0.17644726
67	0xbe398f06	-0.18120965
68	0x3c8be410	0.017076522
69	0xbd8fee57	-0.070278816
70	0x3d35170e	0.04421144
71	0x3de64d7d	0.112452485
72	0xbda1c991	-0.07899774
73	0xbc122a7f	-0.008921265
74	0xbdcf8877	-0.101334505
75	0xbe3238ab	-0.1740443
76	0x3e1f1524	0.15535408
77	0xbe3208cf	-0.17386173
78	0xbd2249d7	-0.0396212
79	0x3e38645f	0.18007039
80	0xbe0629f6	-0.13101944
81	0x3c5fdfaa	0.0136641655
82	0x3d85bed4	0.06530538
83	0xbe60a1c5	-0.2193671
84	0x3c035ec6	0.008018201
85	0xbdd75ba4	-0.10515526
86	0xbe3374aa	-0.17524973
87	0xbe54ef30	-0.20794368
88	0x3dba08cd	0.0908371
89	0xbdcd1044	-0.10012868
90	0x3e20ca13	0.15702085
91	0x3e23e95b	0.16006987
92	0xbc954367	-0.018220617
93	0x3e099672	0.13436297
94	0xbd9a7fdf	-0.07543921
95	0x3dc64c6e	0.096825466
96	0xbc80c562	-0.01571912
97	0xbd2bcbeb	-0.04194252
98	0xbe3b1bb9	-0.18272294
99	0xbd95304d	-0.07284603
100	0x3d8aa126	0.06769018
101	0x3cee4870	0.029087275
102	0x3e2bf474	0.1679247
103	0x3e153843	0.14572243
104	0xbda48dbd	-0.08034847
105	0x3d54efec	0.05198662
106	0x3d98f201	0.074680336
107	0xbd79a253	-0.06094582
108	0x3e5212e1	0.20515014
109	0x3d776404	0.060398117
110	0x3de53cd1	0.111932404
111	0x3e6ce11c	0.23132747
112	0xbe3831e5	-0.17987783
113	0x3e4ca292	0.1998389
114	0x3dd964f8	0.106149614
115	0x3df8f3fb	0.121559106
116	0x3e046893	0.12930517
117	0xbca9c83b	-0.02072536
118	0xbd003471	-0.031300012
119	0x3e28e26d	0.16492625
120	0x3ddd15c6	0.107951686
121	0x3e3de003	0.18542485
122	0x3e45b8a5	0.19308718
123	0xbe571d3d	-0.21007247
124	0x3e360436	0.17775044
125	0x3d662218	0.056184858
126	0xbe1995ef	-0.14998601
127	0xbd23b68e	-0.03996902
128	0xbdd722a5	-0.10504655
129	0x3b5bdd4c	0.0033548651
130	0xbdff4638	-0.12464565
131	0xbe0160cb	-0.1263458
132	0xbe1148a9	-0.14187874
133	0x3e565994	0.20932609
134	0xbdd8269b	-0.105542384
135	0x3cd56e0b	0.02605345
136	0xbd80c839	-0.062881894
137	0x3e43dc52	0.19127014
138	0x3d05af52	0.0326379
139	0xbd427839	-0.047477935
140	0x3d0c1b42	0.034205683
141	0xbd221a20	-0.039575696
142	0x3d9afc22	0.07567622
143	0xbd0e8dee	-0.034803323
144	0xbe1018e8	-0.14072001
145	0xbb80a3f0	-0.003925793
146	0xbe65aaf4	-0.22428495
147	0xbe031dea	-0.1280438
148	0x3db85893	0.09001269
149	0x3c01f9c8	0.007933088
150	0xbdb40b97	-0.08791273
151	0xbda078e9	-0.07835562
152	0xbda8168e	-0.08207427
153	0x3e2f0a9a	0.17093888
154	0xbd9c8ec1	-0.07644416
155	0xbdb32f66	-0.08749275
156	0x3e0e5db2	0.1390293
157	0xbe04e6b1	-0.12978627
158	0x3d828b1e	0.06374191
159	0x3c7e4ccc	0.0155212395
160	0x3e32e8b5	0.17471583
161	0x3e42a8fb	0.19009773
162	0xbe0c13b6	-0.13679394
163	0x3e8aad13	0.2708517
164	0xbc29e303	-0.010369065
165	0x3ce25b12	0.027631316
166	0x3d8500d9	0.06494302
167	0xbda3f26a	-0.08005221
168	0x3e08c760	0.13357306
169	0x3e032dfc	0.1281051
170	0x3da3cb5d	0.07997773
171	0x3dac3cb8	0.08410019
172	0xbe1b3684	-0.15157515
173	0x3e1cb609	0.15303816
174	0x3c68d5ac	0.0142111
175	0x3e420512	0.18947247
176	0x3d5b4ea2	0.053541787
177	0x3da57f57	0.08080929
178	0x3ccad1ed	0.024758304
179	0x3de5ef05	0.1122723
180	0x3dd73974	0.10509005
181	0x3e58d790	0.2117598
182	0x3eb09066	0.34485167
183	0xbdf573be	-0.11984967
184	0xbdb30415	-0.08741013
185	0xbdcfcc97	-0.10146444
186	0xbde18304	-0.11011317
187	0x3cd0543b	0.02543079
188	0x3e15cc2c	0.14628667
189	0x3d948b57	0.072531395
190	0x3ba179ee	0.004927865
191	0xbe871075	-0.26379743
192	0xbe4a144c	-0.19734305
193	0x3e087631	0.13326336
194	0xbbb096d8	-0.0053890757
195	0x3dead574	0.11466494
196	0xbcdbd511	-0.026834996
197	0x3dc96806	0.09834294
198	0x3d1a10d1	0.037613694
199	0x3b13b172	0.0022536186
200	0x3e094766	0.13406143
201	0x3d051c31	0.03249759
202	0xbd7fdb0e	-0.062464766
203	0xbdc20237	-0.09473079
204	0x3e2908d7	0.16507278
205	0x3e5309c7	0.20609199
206	0x3d9695f9	0.07352824
207	0xbda2c892	-0.07948412
208	0xbe0651fe	-0.13117215
209	0xbe0e7fcc	-0.13915938
210	0xbd9c65f6	-0.07636635
211	0x3d77d528	0.060506016
212	0xbd87875b	-0.06617614
213	0xbdb94de5	-0.0904806
214	0xbca8346a	-0.020532805
215	0x3d9e1e69	0.07720644
216	0x3e0a4c85	0.13505752
217	0xbe02e47a	-0.1278247
218	0xbd639900	-0.055565834
219	0x3c6afd79	0.014342659
220	0x3e46ab00	0.19401169
221	0x3e3ac163	0.18237834
222	0xbc8fbd9f	-0.017546473
223	0xbdc3fedf	-0.09570097
224	0xbdfb71d7	-0.122775726
225	0x3e2d4ae8	0.16923106
226	0x3d9d5f66	0.076842114
227	0x3ce72206	0.028214466
228	0xbded5287	-0.115880065
229	0x3e8a58ee	0.27020973
230	0x3da445c8	0.08021122
231	0x3e0be43b	0.13661282
232	0x3e13cc66	0.1443344
233	0x3d3150c2	0.043289907
234	0xbd918ff4	-0.07107535
235	0x3d9495a6	0.07255106
236	0x3e2e100a	0.16998306
237	0x3e470bed	0.19438143
238	0x3d8a7713	0.06760993
239	0x3e85b7be	0.26116747
240	0x3c504e4a	0.012713978
241	0xbc84551c	-0.016153865
242	0xbd5c0abb	-0.05372117
243	0x3e3f4a8d	0.18680783
244	0xbe0de9df	-0.13858746
245	0x3e4b3e96	0.19848093
246	0xbd868f97	-0.06570356
247	0xbdb83499	-0.08994407
248	0xbe1e911f	-0.15485047
249	0x3e45b1c2	0.1930609
250	0x3defb843	0.11705067
251	0xbe530214	-0.20606261
252	0xbd7bd650	-0.06148368
253	0x3e5781c5	0.21045597
254	0x3e743036	0.23846516
255	0xbd9be107	-0.0761128
