lnn/stage1_pi_hlnn_best.pt (torch, 82113 bytes, 35 tensors)

cell_los.gleak f4 [32]
000000 f7 3f 04 3f 0e 51 70 3d a5 69 08 3e 69 d1 06 3e
       0.516601 0.05867105 0.1332155 0.13165821
000010 78 34 83 3e e9 15 a8 3d 23 76 c9 3e d3 cf f9 3d
       0.25625968 0.08207304 0.39347944 0.121978424
000020 1c 32 ab bc 45 71 22 3f 56 5b 8b 3f 24 14 62 3e
       -0.020897917 0.63454086 1.0887249 0.22077996
000030 53 5c b7 3d ed 5a 67 3e 70 be 64 3e 4d e2 6d 3c
       0.08953156 0.22593279 0.22338271 0.014519286
000040 45 4c 4c 3f 79 e9 39 3f 2c 2c 3e 3f c8 f6 82 3e
       0.7980388 0.72621876 0.7428615 0.25578904
000050 83 fc 74 3d 20 c5 81 3f fc f0 23 3d 38 37 da 3d
       0.059811126 1.0138283 0.040024742 0.106550634
000060 95 90 31 3e 96 90 22 3f 43 65 a4 3e c2 2d dc 3d
       0.1734031 0.6350187 0.32108507 0.10750915
000070 d9 8b 4f 3f ba 13 da 3d 5a b1 e7 3e 91 e5 28 3f
       0.81072766 0.10648294 0.45252496 0.6597529

cell_los.vleak f4 [32]
000000 62 80 92 3c 20 cc 71 3e 99 c8 14 bc 32 42 81 3d
       0.017883483 0.23613024 -0.009081029 0.06311454
000010 a3 04 ee bc a9 8e a3 3c 4b 6a 3c be 52 94 19 3e
       -0.029054945 0.019965487 -0.18399923 0.14997986
000020 9b 3c 10 3d fb 0a a6 3d 8b 6d 96 bd 3e 6f c6 3a
       0.035214048 0.08107563 -0.073451124 0.0015139354
000030 56 e4 57 be b8 99 f7 3d 81 e1 db 3d 32 05 3c 3e
       -0.21083197 0.120898664 0.10736371 0.18361357
000040 54 75 24 bd 33 8b 10 be 16 fa 67 3c 56 3f cb bd
       -0.040150955 -0.141156 0.014158746 -0.0992419
000050 5f 34 d6 bd ac bd 6f 3e 86 b7 23 3d 91 c7 88 3e
       -0.10459208 0.23412198 0.039969943 0.26714757
000060 a3 76 3f be 7c 1c da bc d9 51 0c be 80 2a 87 3d
       -0.186976 -0.02662491 -0.13703097 0.06599903
000070 3f 98 f9 3c b1 09 9c 3d 59 ee 64 3e 16 0e d8 3d
       0.030468104 0.07619036 0.22356547 0.10549562

cell_los.cm f4 [32]
000000 97 75 0b 3f 35 2a e4 3e 7a bc 45 3f 07 81 2f 3f
       0.544763 0.4456345 0.7724072 0.68556255
000010 18 50 30 3f 36 37 1e 3f 21 66 d7 3e a7 f5 17 3f
       0.68872213 0.61802995 0.42070106 0.5935921
000020 b1 54 28 3f 92 11 02 3f ab d8 cc 3e f2 40 12 3f
       0.6575423 0.5080806 0.40009055 0.5713035
000030 36 35 2c 3f 09 17 3a 3f 80 02 17 3f f7 22 17 3f
       0.67268693 0.726914 0.5898819 0.5903773
000040 70 9e 2e 3f 3d e4 27 3f 9f 78 2a 3f b1 84 ef 3e
       0.68210506 0.6558264 0.66590303 0.46780923
000050 e0 b9 47 3f e9 d7 d4 3e 0d 9c 46 3f de ec fd 3e
       0.78018 0.41570976 0.77581865 0.49594778
000060 3c 20 e1 3e 42 fc c0 3e 87 e3 43 3f 30 e5 41 3f
       0.43969905 0.37692457 0.76519054 0.7574034
000070 88 a7 17 3f 06 04 29 3f ee a0 27 3f c8 c9 13 3f
       0.5924001 0.66021764 0.65479934 0.5772977

cell_los.w f4 [32, 32]
000000 06 ed 5b 3d ad 2e 4d 3f e5 c6 83 bd 02 d8 b8 3e
       0.05369284 0.80149347 -0.064344205 0.361023
000010 9a 6f 0d 3e 42 f3 83 bd dd b8 b7 3e f9 b3 cb 3e
       0.13812104 -0.06442882 0.35883227 0.39785746
000020 96 d4 f6 3a 17 f9 32 3d 2d 7a 1e 3d ef 9e 0e 3f
       0.0018831666 0.04369458 0.038690735 0.55711263
000030 91 e6 97 3e aa 0c 4c 3f cf fc 03 bd 6f e5 1a bd
       0.29668096 0.79706824 -0.03222352 -0.03781646
000040 fa 10 84 3e 5c 69 5f 3f 8e dc 57 3f 76 d0 fb 3e
       0.25794202 0.8727014 0.84320915 0.4918248
000050 dc 0e 8a 3e 0e f8 23 3f bc c5 d3 3e eb 18 e2 3e
       0.26964462 0.64050376 0.41361797 0.44159636
000060 96 57 56 3e a2 3a c5 3e 35 44 e2 3e 5b 0d 36 3f
       0.20931849 0.38521296 0.44192663 0.7111413
000070 31 e5 04 3e 88 d5 95 3e e2 2f 1b 3f ab 5c 2e 3f
       0.12978055 0.29264474 0.6061994 0.6811015
000080 13 f1 3d 3f 4d 92 80 3e 1f c2 00 3f 95 bc 7d 3e
       0.74195975 0.2511162 0.50296205 0.2477897
000090 00 ae 5b 3f 11 cd 2b 3f d3 2f 02 bd e1 b0 27 3f
       0.8581238 0.6710978 -0.03178389 0.6550427
0000a0 e0 e8 6a 3f 2c 66 0b 3f 36 0b 4c 3e 3b 4a 62 3f
       0.9176159 0.54452777 0.19926152 0.88394517
0000b0 57 9a 09 3f ea e0 96 3e ec f7 40 3f 80 c5 41 3f
       0.5375113 0.2946847 0.753783 0.75691986
0000c0 c4 2b 20 3f fa 97 fb bc c5 83 44 3f 52 f9 8a 3e
       0.6256678 -0.030712117 0.76763564 0.2714334
0000d0 48 a8 83 bd 7c 9d 20 3e 1d 24 40 3f 74 40 6b 3f
       -0.064285815 0.15685076 0.75055104 0.9189522
0000e0 88 44 3e 3f 8a 5e 4f 3f c6 14 1b be 95 b1 26 3e
       0.7432332 0.8100363 -0.15144643 0.1627868
0000f0 ef 9b 45 3e 5b 24 73 bc df b2 75 3d 29 48 15 3d
       0.19297765 -0.014840211 0.059985038 0.03644577
000100 e6 59 38 3c 85 3e e2 3e f4 4d 20 3e ad fb 18 3f
       0.011251902 0.44188324 0.15654737 0.59759027
000110 72 d3 9f 3e 42 6b 19 3f 67 28 5d bd 88 c4 28 bc
       0.31216007 0.5992929 -0.05399361 -0.010300763
000120 eb 3f 98 bd 4a 90 42 3f 45 76 1b 3f fe 1a 7a bc
       -0.074340664 0.7600142 0.6072734 -0.0152652245
000130 99 21 44 3e 81 8b f0 3e 19 b4 bb 3d 40 31 45 3f
       0.19153441 0.46981433 0.0916521 0.77028275
000140 3d 5a 70 3f 41 33 31 3f ef 95 93 3e af d2 37 3f
       0.9388769 0.6921883 0.28825328 0.7180585
000150 a3 db 36 3f 73 3f dd 3e 5d 4f 2a 3f c6 72 42 bd
       0.7142889 0.4321247 0.6652735 -0.047472738
000160 26 ca 0d 3f 5d 36 12 3f 12 d2 55 3f 3c 4a 20 3f
       0.5538658 0.571142 0.83523667 0.6261327
000170 79 03 58 3f af 83 fe 3d 3a 71 cb 3e b9 20 e0 3c
       0.843803 0.124274604 0.39734823 0.027359353
000180 7b 7b 5e 3f 0b 39 e5 3e 28 fb 59 bd 7b ef 4e 3f
       0.86907166 0.44770083 -0.053218037 0.8083417
000190 71 a2 d9 3e b7 3a 9f 3e be 98 81 3f df fd 90 3e
       0.42506745 0.31099483 1.0124738 0.28318688
0001a0 0d 0d fe 3d c0 64 80 3e 30 8d 06 3f ab e5 2e 3e
       0.12404833 0.25076866 0.52559185 0.17079799
0001b0 44 e5 07 3f 17 8d 78 bd 3e 55 50 3e 7c 9e 89 3d
       0.53084207 -0.06068143 0.20345017 0.067196816
0001c0 0a 1e 41 3c 13 a5 05 3f 24 5a 18 3f 76 9e ea 3e
       0.011786947 0.5220501 0.59512544 0.4582402
0001d0 76 d5 a8 3e cc 76 d6 3e 92 ca be bd 01 52 07 be
       0.32975358 0.4188751 -0.09315981 -0.13214876
0001e0 c3 b8 c4 3d 1d 41 3d 3e 1e bf e2 3e d7 cf 49 3f
       0.09605553 0.1848187 0.44286436 0.78832763
0001f0 15 28 5e 3f 37 48 9c 3d f2 0b 29 3f 2f 13 57 3f
       0.8677991 0.076309614 0.6603385 0.84013647
000200 85 34 a9 3e 81 36 71 3e 10 79 a9 bd 8c 7f 08 3f
       0.33047882 0.23555948 -0.08275044 0.5331962
000210 36 7a 28 3e e9 ed 25 3f 8e fe fd 3d 5e da f1 3e
       0.1645287 0.6481615 0.12402068 0.47236913
000220 f4 32 dd 3e f8 66 9b 3e 0b dd 02 3f 2f 43 66 3f
       0.43202937 0.30351996 0.51118535 0.89946264
000230 8f 1c 20 3f e8 67 e0 3d a0 8a a8 3e 0f 1f 1c 3f
       0.62543577 0.109573185 0.32918262 0.6098489
000240 11 d0 1b 3f 86 88 09 3e 53 93 07 3c b7 4c 68 3e
       0.6086436 0.13430986 0.008274871 0.22685514
000250 d7 66 fa 3e 1e bc e1 3e 53 fa 19 3f d6 b5 1f 3e
       0.48906586 0.44088835 0.6014759 0.15596709
000260 71 84 0f 3e 6b b1 2d 3f 45 cd 07 bd f5 e7 a0 3e
       0.14015366 0.67848843 -0.033154745 0.3142697
000270 13 0d a7 3d 63 31 06 3d 4f 69 25 3f 3b be 08 3f
       0.081567906 0.032761943 0.64613813 0.5341527
000280 fc 41 5b 3f ad b6 86 3f 85 8a 0f 3e fa 0b 10 3e
       0.8564756 1.0524498 0.14017685 0.14067069
000290 4c 13 22 3f da 0b ba 3e 14 a3 a3 3d 94 d6 88 3e
       0.63310695 0.36337167 0.07990089 0.2672621
0002a0 a6 74 ff 3d 0c ea ef 3e d5 cb 1f 3f 20 96 3c 3f
       0.12473421 0.4685825 0.624204 0.7366657
0002b0 ff 14 7e 3f 2a bd 27 3e ce 88 4e 3f a4 23 9e 3d
       0.9925079 0.16380754 0.806775 0.07721642
0002c0 ab 73 32 bd bf 3d 26 3e bf 4c 1d 3f 90 99 03 3f
       -0.04356734 0.16234492 0.6144523 0.5140619
0002d0 7a 7c e9 bc 30 5e 0a 3f 97 8d 05 3f 09 1e 70 3f
       -0.028501738 0.5404997 0.52169174 0.9379583
0002e0 83 8e a4 3e 13 48 1c 3e 30 32 04 3f 44 18 55 3e
       0.32139978 0.15261869 0.5163908 0.20810038
0002f0 e7 c1 ee 3e 89 b3 81 3e 3c c4 89 3f bc c3 ad 3e
       0.4663231 0.25332287 1.0763011 0.33938396
000300 03 72 8e bd a4 85 6c 3e 0d 36 c3 3e 21 31 33 3f
       -0.0695534 0.23097855 0.38127175 0.6999684
000310 41 5f 08 3f 41 17 e6 bd 1c 5e 17 3f a2 ac 4e 3f
       0.53270346 -0.11234904 0.59127975 0.80732167
000320 18 79 70 3e af 12 2c 3f 55 ad 82 3f a5 f4 54 3f
       0.23483694 0.6721601 1.0209147 0.831858
000330 2c 66 fc 3e a1 c4 8a bd 85 97 b2 bb ba d6 3c 3f
       0.492967 -0.06775785 -0.0054501914 0.73765147
000340 d1 78 66 3e d8 52 4d 3f 79 5c 26 3f ff 47 02 3c
       0.22507025 0.80204535 0.6498485 0.0079517355
000350 4a c8 2a 3f 66 ee 05 3c 85 3f 20 3d 32 64 44 3f
       0.66711867 0.008174514 0.039123077 0.76715386
000360 04 bd 86 3f bb 46 2b 3f 7a 70 1d 3f f4 d6 db 3e
       1.0526433 0.669048 0.6149975 0.42937434
000370 a3 51 39 3f 66 69 47 bd e2 7e 20 3f 08 5b e8 3e
       0.7239019 -0.0486845 0.6269361 0.4538195
000380 78 06 7f 3e 0f 29 40 3e be 3a 30 3f a2 33 9d 3e
       0.24904811 0.18765663 0.68839633 0.30703455
000390 c4 c3 de 3e 72 27 82 3e ac 87 11 3f b1 48 73 3e
       0.43508732 0.2542072 0.56847644 0.23758198
0003a0 4b 54 cd bd 9f e9 09 3f 15 27 c1 3e 70 44 87 3e
       -0.10025843 0.538721 0.3772513 0.264194
0003b0 92 dd 3e 3f bd 42 2d 3e 70 6f b7 3e d7 d7 8c 3d
       0.7455684 0.1691999 0.35827208 0.06877106
0003c0 5b 2c 57 3e 21 5d 3b 3f e0 7d d2 3e 1e 0f 5a 3f
       0.21013014 0.7318898 0.4111166 0.85179317
0003d0 16 3d 5a 3f 96 3f 33 3f ce e4 5e 3f 05 a4 08 3f
       0.8524946 0.700189 0.8706788 0.53375274
0003e0 23 94 37 3f 4f 51 09 3e f3 94 3c 3f 1e 87 34 3f
       0.71710414 0.13409923 0.7366478 0.7051867
0003f0 5b 60 02 3f 08 21 c7 bd 41 1a 1f 3f 42 14 27 3f
       0.50928277 -0.09723097 0.62149435 0.65265286

cell_los.erev f4 [32, 32]
000000 49 7b 46 be b0 de a3 3c 01 ee 17 bd f6 3a 77 3e
       -0.19382967 0.020003647 -0.037092213 0.24143586
000010 a6 96 15 3e 66 08 98 bd 6a fa 2b be ec d7 30 3d
       0.14608249 -0.07423477 -0.16794744 0.04317467
000020 c8 c7 8c bd 19 41 ba bd 99 da ef 3d e4 8e 5c be
       -0.06874043 -0.09094448 0.11711616 -0.21538883
000030 6c ad 21 3e 50 0a 56 bd f2 b8 27 be 83 d5 f2 b9
       0.15788811 -0.05225593 -0.16379145 -0.00046316916
000040 94 6c 8e bd db ba 9b bd f4 14 1e bd fd 9d 81 3d
       -0.069543034 -0.07603999 -0.0385942 0.06328962
000050 77 6b 6f bd 23 f0 80 3e 12 5c e6 bd a7 36 65 3d
       -0.058452096 0.2518321 -0.1124803 0.055960324
000060 a5 18 56 3d 6d 2a 55 bd 87 f2 06 3c c2 c6 d6 bd
       0.052269597 -0.052042414 0.008236534 -0.10487129
000070 2b f1 34 be b2 0a f8 3d f2 ad 03 3e e2 70 4d 3d
       -0.17670123 0.12111415 0.12859324 0.05015648
000080 38 32 3c 3e aa 93 b9 3d 6c 43 ad bd 67 90 fa bd
       0.18378532 0.09061368 -0.08460125 -0.12234574
000090 64 aa d6 3d 43 7a 20 bd 48 0b da 3d 69 13 f7 3c
       0.10481718 -0.039179098 0.10646683 0.030160623
0000a0 84 e8 6d 3e 44 ed d6 3c db 62 37 be e9 0d 89 be
       0.23233229 0.026236184 -0.17908804 -0.26768425
0000b0 d3 0d 82 3e 23 d0 00 be 5a d5 50 3e 8d 94 de 3c
       0.25401172 -0.12579398 0.20393887 0.027170444
0000c0 c3 ae 9a bd a9 2d 9e 3b 8e ad 43 3e 56 70 68 3e
       -0.075528644 0.0048272205 0.19109175 0.22699103
0000d0 1a de bb bd 98 bf 6f bd d3 85 25 3e d1 43 48 3e
       -0.09173222 -0.058532327 0.16164331 0.1955712
0000e0 fb a1 5f be 5f 39 23 3e 3c 3d 27 3d 52 59 c5 bd
       -0.21839134 0.15939854 0.040829882 -0.09636177
0000f0 52 bc 23 3e 76 2c be bd f2 1f a8 3d 4d 55 17 3d
       0.15989807 -0.09285824 0.08209218 0.036946584
000100 cc 96 4b bd 3f 54 a6 3d fd 8b c7 bd e6 37 86 3e
       -0.049704358 0.081215374 -0.097434975 0.26214522
000110 14 33 58 bd d0 a1 6b 3e 3b 3e a7 bd 19 3b 7a 3d
       -0.052783087 0.23010945 -0.081661664 0.061091516
000120 37 05 90 3d fa 60 09 bc 2f 70 0a be b6 37 89 3d
       0.07032245 -0.008384937 -0.13519357 0.06700079
000130 b8 1b a6 ba e3 9a 1f 3e f7 42 ae bd f7 ea 67 3c
       -0.0012673056 0.15586428 -0.08508866 0.014155141
000140 ca 2a 76 3e c9 2e 2f 3e 44 05 82 bd 36 79 84 bd
       0.2403976 0.17107691 -0.063486606 -0.06468432
000150 c9 1e 68 3e a4 ca bf 3d 3c de 9f 3e 9b e3 bf bd
       0.22667994 0.093648225 0.3122424 -0.09369584
000160 51 60 26 bd ef 7d c3 bd 72 9b 36 3e a4 66 b3 3c
       -0.0406192 -0.09545504 0.17832735 0.021899529
000170 f2 3f 33 3d be 13 92 3d 52 45 fc 3d c4 01 0a bd
       0.043762155 0.07132672 0.12317909 -0.03369309
000180 f8 92 9e bd b3 9d 3b 3e 85 38 4d bd 2a f5 fa 3d
       -0.07742876 0.18321876 -0.05010273 0.122537926
000190 ec 5d 69 3d 8b a2 4d 3e 4b a1 09 be 4a 92 57 3e
       0.056974337 0.20081536 -0.13440435 0.21051899
0001a0 5a 7d 77 3d f1 6e 25 bd 41 4b 1c bd d6 e4 46 be
       0.06042228 -0.040389005 -0.038157705 -0.19423231
0001b0 bd a6 e4 3d c7 7d 28 bd 4e 20 ac 3d 91 dc 6c 3d
       0.11164615 -0.041135576 0.08404599 0.057827536
0001c0 00 45 5f 3c 3b 66 cc bd 68 db b2 3c 63 51 79 3e
       0.013627291 -0.099804364 0.021833137 0.24347453
0001d0 48 6b 32 3e 29 72 3b b9 fc a6 d2 3d 5a 62 0e 3e
       0.17423737 -0.00017876238 0.10285756 0.13904706
0001e0 3b 08 1e 3d 55 ea 60 3e 43 83 fc bc 6b 9e 18 3c
       0.038582068 0.2196439 -0.03082431 0.009315114
0001f0 e9 a4 5b 3e 98 8c b1 3d f8 16 2c bc f2 65 f4 bc
       0.21449627 0.08669394 -0.010503523 -0.029833768
000200 df c8 9f bd 24 95 c4 bd 2e 70 6b bd 0b e4 8d 3e
       -0.07801985 -0.09598759 -0.05748003 0.27713045
000210 d7 1b 56 3d 09 13 61 3e 76 3a 8b be eb 1d 25 3e
       0.052272644 0.21979918 -0.2719304 0.16124694
000220 c1 05 1d 3e 0d 9e f7 bd 21 ac 11 be c0 53 2f bc
       0.15334226 -0.12090693 -0.14225818 -0.01070112
000230 db 59 c2 bd e7 1a 0f 3e 8b 22 3f 3e c1 92 98 bd
       -0.09489795 0.13975106 0.18665521 -0.07449866
000240 59 5b d0 bb f0 93 5e 3e f8 11 97 3d c6 e1 3b bd
       -0.0063585457 0.21736121 0.07376474 -0.04586961
000250 12 94 09 3e 72 b4 a7 bd c0 9f 1f 3e 13 51 8e bc
       0.1343539 -0.08188714 0.15588284 -0.017372644
000260 4f 56 45 bc bb 1b dd bc 5c e2 a9 3c 43 39 52 bc
       -0.012044503 -0.026990762 0.02073782 -0.012831035
000270 48 15 29 3e f8 3e da bd 44 48 55 3e 28 c1 42 3e
       0.16512024 -0.106565416 0.20828348 0.19018996
000280 48 46 be bd d2 ad 6b 3e 67 89 71 3e bc db 2d bd
       -0.09290749 0.23015526 0.23587571 -0.042445883
000290 0e af e2 3d 9b 90 15 3e a2 c6 e3 bd 79 57 67 3e
       0.11068545 0.14605944 -0.111218706 0.22591962
0002a0 2e 32 05 3d e9 5c e6 3a fa 22 05 bd c9 0e 3e 3d
       0.03251856 0.0017575297 -0.03250406 0.04640082
0002b0 ea be 7b 3e 62 e5 06 be 53 d9 6e 3c fb 9a dd 3c
       0.24584547 -0.1317344 0.014578181 0.02705144
0002c0 b8 7e 2f 3c b1 8e cb 3c 72 9d 5e bc 4d 18 40 bd
       0.010711364 0.024848314 -0.013587343 -0.046898175
0002d0 b8 df c1 bc f1 0c 2f bd 39 bd 3e 3e 1c 6e 65 3e
       -0.023666248 -0.04273695 0.1862687 0.22405285
0002e0 f1 e5 45 be e2 1b 8e 3e e2 34 31 3e f9 3c 95 bd
       -0.19325997 0.27755648 0.1730533 -0.0728702
0002f0 b7 9f 2b 3e e9 74 c8 3d f7 fb 94 3e a2 5c 90 3d
       0.16760145 0.09787924 0.29098484 0.07048918
000300 81 f6 12 be 9e d8 6b 3e 75 ab 12 be cc f1 d5 3d
       -0.14351846 0.23031852 -0.14323218 0.1044651
000310 b9 00 1c be c9 c6 b8 bc 25 f9 ca bd d8 51 1f be
       -0.1523465 -0.022555726 -0.09910802 -0.15558565
000320 46 cc 9d bd 9a 78 23 bd 5c 53 df bd cf ee 26 bd
       -0.07704978 -0.039909936 -0.109045714 -0.04075509
000330 5d bb f5 bd 1b 44 2e 3e 43 4c 9d 3c 40 f0 d1 3d
       -0.11998627 0.17018168 0.019201403 0.10250902
000340 73 e7 84 3d 75 0a a1 bd 17 5e 81 3d 11 87 d3 bd
       0.06489458 -0.07863323 0.06316774 -0.10328496
000350 7b 63 5b 3e a4 86 8e bb 92 c3 f7 bd bb 03 bd 3d
       0.21424668 -0.0043495465 -0.12097849 0.09229227
000360 2d f0 74 be 10 22 da bd 26 0e c5 bd d3 88 d4 3a
       -0.23919745 -0.10651028 -0.09621839 0.0016215093
000370 a4 bb a2 3d 4a 78 44 be 0a 76 e2 3c 23 97 86 bc
       0.07945946 -0.19186512 0.027644176 -0.01642949
000380 7e 68 89 bd fa 69 36 3e ed f4 64 3e a3 b2 8a 3d
       -0.067093834 0.17813864 0.22359057 0.067723535
000390 a3 ea ad bc 4b d2 0a 3e 69 dd 33 be 9e ef 17 3d
       -0.021230048 0.13556783 -0.1756493 0.03709375
0003a0 55 df 3c 3e 9a 2e 01 3d 13 0e e2 3d d1 a0 e3 3d
       0.1844457 0.031538583 0.11037841 0.11114658
0003b0 26 50 f5 3d 49 2a b8 bb 21 11 c3 bc e3 fa 45 3e
       0.11978178 -0.005620275 -0.023811879 0.19333987
0003c0 a8 db b8 3d 84 c2 c3 bd 83 2e 9b bd 93 31 a0 3d
       0.09026271 -0.09558585 -0.07577231 0.078219555
0003d0 97 5f e2 3d 2b f0 5d 3e 78 98 64 3e ef 9d 1c 3e
       0.110533886 0.21673648 0.22323787 0.15294622
0003e0 dc ab 62 3d 9c df 76 3e 59 4d 99 bd a9 dc 8a 3e
       0.05533968 0.24108738 -0.07485456 0.27121475
0003f0 7e 76 9d bd a2 41 96 bd 8d e7 f0 3d 6b fa 6d bd
       -0.07688616 -0.07336737 0.11762915 -0.058100145

cell_los.mu f4 [32, 32]
000000 2a d3 bd 3e 18 9a dd 3e df 18 ee 3e 12 80 45 3f
       0.37075168 0.43281627 0.4650335 0.77148545
000010 07 2f 00 3f b2 b1 4d 3f 9f 83 d2 3e d2 c7 12 3f
       0.5007176 0.80349267 0.41116044 0.5733615
000020 ed 4d 14 3f 98 5d d7 3e 41 49 2e 3f ae 93 bf 3e
       0.57931405 0.42063594 0.68080527 0.37417358
000030 b3 41 32 3f a7 6f d0 3e 67 aa 24 3f a9 8f 5a 3f
       0.696315 0.40710184 0.64322513 0.8537546
000040 54 22 10 3f 75 44 3b 3f d6 91 d4 3e 6e a4 c8 3e
       0.5630238 0.7315133 0.41517514 0.3918795
000050 8d 23 5a 3f 27 e5 13 3f 4b d1 3f 3f 0d c5 43 3f
       0.85210496 0.57771534 0.7492873 0.7647255
000060 2b d1 12 3f a3 e4 08 3f 49 d7 70 3f 51 c4 0b 3f
       0.57350415 0.5347387 0.940785 0.5459643
000070 22 cf 15 3f 76 53 ef 3e e0 7c 63 3f 21 84 1e 3f
       0.58519185 0.46743363 0.8886242 0.6192036
000080 b1 81 fc 3e e0 95 05 3f 2b 53 38 3f 63 f7 de 3e
       0.49317697 0.52181816 0.72001904 0.43548116
000090 f3 5e 55 3f f9 c5 58 3f 4f 7c e0 3e f0 b8 cf 3e
       0.83348006 0.8467708 0.4384484 0.40570784
0000a0 19 42 31 3f bc 84 f9 3e ae da 57 3e 9c fe 24 3f
       0.6924148 0.4873408 0.21079513 0.64451003
0000b0 60 41 f8 3e 94 53 2c 3f 47 05 0b 3f 91 fa 05 3f
       0.48487377 0.6731503 0.5430493 0.5233546
0000c0 93 dc 06 3f 60 d3 47 3f 42 90 8d 3e 70 1a e0 3e
       0.5268032 0.7805691 0.27649122 0.4377017
0000d0 a5 5f 20 3f 2f a4 01 3f c7 78 4f 3f 6e 8a 98 3e
       0.6264594 0.5064115 0.81043667 0.29793113
0000e0 fa 28 78 3e 5b 8c bc 3e a4 4c 5e 3f b9 75 dc 3e
       0.24234381 0.36825833 0.86835694 0.43058565
0000f0 bf 8b 3a 3f 00 3c 62 3f 0d 02 6a 3f 23 61 64 3f
       0.72869486 0.883728 0.9140938 0.8921072
000100 6c 52 29 3f 29 39 ec 3e e9 b5 38 3f 86 ce 13 3f
       0.6614139 0.4613736 0.7215257 0.57737005
000110 d0 85 23 3f d0 4b 8b 3e 9d 67 58 3f b3 d4 32 3f
       0.63876057 0.27206278 0.845331 0.69855803
000120 2e 84 57 3f d5 ed 1b 3f a0 0b 75 3e b1 d6 5a 3f
       0.84186065 0.6090978 0.23930216 0.85483843
000130 ec 35 d8 3e 2e 38 cf 3e 34 7f 5b 3f 71 24 1c 3f
       0.4222864 0.4047255 0.8574097 0.60993105
000140 df 31 1b 3f 54 cd 21 3f f6 a7 25 3f 5d e3 12 3f
       0.6062297 0.6320393 0.64709413 0.5737818
000150 8a 63 14 3f 57 60 1c 3f ae e2 0c 3f aa cd 14 3f
       0.57964385 0.610845 0.55033386 0.5812632
000160 28 39 ff 3e b0 16 01 3f 8c 56 90 3e 2e af 15 3f
       0.49848294 0.50425243 0.2819103 0.5847043
000170 8f b4 03 3f 37 a2 3d 3f f7 d3 31 3f 46 84 fa 3e
       0.51447386 0.74075645 0.6946406 0.48929042
000180 df 55 db 3e d4 1d 0b 3f a7 31 43 3f 0f fe 14 3f
       0.42838952 0.5434239 0.7624764 0.5820016
000190 d4 e8 37 3f fd a9 ee 3e bd bb bd 3e ec 11 f1 3e
       0.7183964 0.46614066 0.37057295 0.47083986
0001a0 e8 88 48 3f 0b 95 cc 3e f2 d1 2e 3f f2 95 21 3f
       0.783339 0.3995746 0.682891 0.63119423
0001b0 cd 67 c4 3e 87 b8 3b 3f 98 c4 1d 3f 56 38 4a 3f
       0.38360444 0.7332844 0.61628103 0.7899221
0001c0 16 32 09 3f a8 97 4d 3f b8 ee 07 3f 22 2f b9 3e
       0.5359205 0.80309534 0.5309863 0.36168772
0001d0 82 d2 27 3f c4 8e 16 3f 05 e0 69 3f 0b 1a 2e 3f
       0.65555584 0.58811593 0.9135745 0.6800849
0001e0 0f 51 de 3e df b5 98 3e c1 23 31 3f 5b c1 f0 3e
       0.43421218 0.29826257 0.6919518 0.4702252
0001f0 86 95 43 3f 01 c9 62 3f de 07 52 3f 77 25 ea 3e
       0.7640003 0.8858796 0.82043254 0.45731708
000200 8b 79 0e 3f af 3f 56 3f 9e 78 36 3f 52 77 00 3f
       0.5565421 0.83690923 0.712778 0.5018207
000210 a5 dd 2c 3f b4 bc ca 3e d5 ac c6 3e c2 7f 2d 3f
       0.675257 0.39597094 0.38803735 0.6777307
000220 71 c9 28 3f 1a 1b 0e 3f 5d 51 15 3f b7 8f 00 3f
       0.65932375 0.55510104 0.58327276 0.5021929
000230 da c9 1a 3f 4a 3d 49 3f 52 0d 08 3f a0 05 49 3f
       0.6046425 0.78609145 0.53145325 0.7852421
000240 fd e7 08 3f 24 e1 1d 3f 14 78 11 3f e0 e2 5c 3f
       0.53478986 0.6167166 0.5682385 0.86283684
000250 4d b3 dd 3e 9a 83 e9 3e 35 17 05 3f 9e b2 58 3f
       0.43300858 0.45608217 0.51988536 0.8464755
000260 16 cf 53 3f 9e 6b 2b 3f 5e bb 5e 3f e9 b3 10 3f
       0.82737863 0.66961086 0.8700465 0.5652452
000270 b9 16 ff 3e c5 59 52 3f cf cc 17 3f 4f 9c 0b 3f
       0.49822024 0.8216823 0.5929689 0.54535383
000280 e9 f0 42 3f e2 ba 03 3f 06 2a b5 3e f6 63 2b 3f
       0.7614885 0.51457036 0.35383624 0.66949403
000290 23 a7 04 3f d9 59 1a 3f ea e3 40 3f a4 0a 33 3f
       0.5181753 0.60293347 0.7534777 0.6993811
0002a0 10 41 dd 3e 75 ee 0a 3f b3 a3 1c 3f 5f 65 43 3f
       0.432137 0.54270107 0.61187285 0.76326555
0002b0 4f a1 da 3e f4 73 15 3f c6 32 0e 3f d3 96 07 3f
       0.42701194 0.58380055 0.55546224 0.52964514
0002c0 ed 80 e4 3e 9f 5c f7 3e 83 7f 36 3f 62 7d 3c 3f
       0.44629613 0.48312852 0.7128832 0.7362882
0002d0 13 60 21 3f 05 37 60 3f 4a 07 ef 3e 31 3d 29 3f
       0.6303722 0.87583953 0.4668525 0.66108996
0002e0 73 f6 cf 3e ce f4 b1 3e 99 36 07 3f 96 a2 c8 3e
       0.40617713 0.34757084 0.52817684 0.39186543
0002f0 16 f5 17 3f 50 a0 37 3f 57 c9 13 3f 65 3c 47 3f
       0.59358346 0.7172899 0.57729095 0.7782653
000300 7b e7 59 3f 32 e2 b8 3e 79 d6 d5 3e d3 65 27 3f
       0.85118836 0.36110073 0.41765192 0.65389746
000310 79 19 07 3f 80 b8 2b 3f 6f cb 3f 3f d1 9f 20 3f
       0.52773243 0.670784 0.7491979 0.6274386
000320 bb 7b 2f 3f 76 98 cf 3e 29 8d e4 3e 0a b0 df 3e
       0.6854817 0.40546006 0.44638947 0.43688995
000330 93 cb 13 3f 80 7f 50 3f 63 97 1b 3f 17 1f 50 3f
       0.57732505 0.8144455 0.6077787 0.8129744
000340 91 03 40 3f 73 17 59 3f f8 ea 4d 3f fd 26 be 3e
       0.7500544 0.84801406 0.8043666 0.3713912
000350 d0 37 17 3f 6c 81 26 3f bd 74 0b 3f 42 f8 e2 3e
       0.5906954 0.6504123 0.54475003 0.4433003
000360 50 70 93 3e ee 45 3d 3f 8e d0 14 3f e7 42 28 3f
       0.28796625 0.7393483 0.5813073 0.65727085
000370 5d 19 3b 3f 1b b3 4b 3f 78 61 4c 3f 27 85 44 3f
       0.73085576 0.7957017 0.79836226 0.76765674
000380 dc 70 61 3f 87 1f 1f 3f 4c 8e df 3e c9 30 3f 3f
       0.88062835 0.6215748 0.4366325 0.74683815
000390 bb 8d 24 3f 6f 12 71 3f f5 c7 8d 3e ea 4d fc 3e
       0.64278764 0.9416875 0.27691618 0.49278194
0003a0 27 f2 56 3f a3 29 f4 3e 99 83 3c 3f 59 9d f0 3e
       0.83963245 0.47688016 0.736383 0.46995047
0003b0 a0 bb 34 3f 39 31 5c 3f ae 60 39 3f e9 65 c1 3e
       0.70598793 0.8601261 0.72413146 0.37773064
0003c0 a7 3e 41 3f 8a 16 2c 3f 72 9a 1d 3f 38 f5 6e 3e
       0.75486225 0.6722189 0.6156379 0.23335731
0003d0 19 df e7 3e 42 6a cb 3e 3b 65 3c 3f 16 6b ec 3e
       0.45287398 0.39729506 0.73591965 0.4617545
0003e0 65 5b ca 3e 28 33 9d 3e 6e 6a 43 3f c9 bf 96 3e
       0.39522853 0.30703092 0.76334274 0.29443195
0003f0 76 5d bb 3e 8c db 29 3f 87 ad f2 3e b6 f5 36 3f
       0.36594743 0.66350627 0.47398016 0.71468675

cell_los.sigma f4 [32, 32]
000000 3d 66 f8 40 df 7a 5e 40 21 81 01 41 d3 80 f0 40
       7.7624803 3.4762495 8.094026 7.5157256
000010 ff 34 9d 40 58 3a cd 40 e3 9c 98 40 d7 5e 89 40
       4.9127192 6.413372 4.769151 4.292827
000020 8b 37 e3 40 e1 1f be 40 03 53 ce 40 68 21 f6 40
       7.10053 5.9413915 6.4476333 7.691578
000030 b1 82 a8 40 cc 5a a9 40 06 b5 59 40 11 28 58 40
       5.2659535 5.2923336 3.4016738 3.3774455
000040 73 26 86 40 9f a8 82 40 86 06 f1 40 70 46 8d 40
       4.1921935 4.0830836 7.5320463 4.4148483
000050 52 89 a5 40 7e 48 e8 40 f8 fe 8d 40 02 55 b7 40
       5.1730127 7.258849 4.437374 5.729127
000060 63 5a 58 40 16 ba ed 40 50 ac 4c 40 b8 10 e3 40
       3.3805168 7.4289656 3.1980171 7.095791
000070 ae 03 ab 40 df 28 91 40 33 7c a3 40 88 cc 6e 40
       5.344199 4.536239 5.108911 3.7312336
000080 08 62 98 40 a8 14 ec 40 c9 04 f5 40 1a ca e0 40
       4.7619667 7.3775215 7.656834 7.0246706
000090 02 90 95 40 7f ab 9f 40 3e 19 d1 40 2b 3f 4a 40
       4.673829 4.9896846 6.5343313 3.1601055
0000a0 5e 81 56 40 9b a5 4b 40 e5 88 fa 40 70 30 d1 40
       3.351646 3.1819828 7.8292108 6.537163
0000b0 85 25 8a 40 f4 7e 9c 40 07 f4 bd 40 2b 9c cc 40
       4.31708 4.890497 5.9360385 6.3940635
0000c0 f5 13 bf 40 13 d2 d7 40 c4 8f bb 40 32 0e 97 40
       5.971186 6.744394 5.8612995 4.720483
0000d0 e1 25 ca 40 d7 6f e4 40 aa 3d a6 40 8f 8c c3 40
       6.317124 7.1386523 5.1950274 6.110908
0000e0 9b 59 3b 40 d0 86 4f 40 0d 50 55 40 fa b0 cc 40
       2.927344 3.2426033 3.333011 6.3966036
0000f0 61 c2 81 40 16 d1 d6 40 c2 90 b8 40 3c 87 cf 40
       4.054978 6.713023 5.7676706 6.485258
000100 b6 d2 5e 40 c6 eb f9 40 2b 5e 5a 40 7a 11 95 40
       3.4816108 7.810031 3.4119976 4.6583834
000110 fc 58 ab 40 ca d9 be 40 96 bf a6 40 15 99 48 40
       5.3546124 5.9640856 5.210887 3.1343434
000120 14 96 81 40 ba 42 86 40 be fc fc 40 14 06 c8 40
       4.04957 4.1956453 7.9058523 6.250742
000130 18 70 e6 40 66 fd 90 40 07 ec e2 40 e7 1a 91 40
       7.2011833 4.5309324 7.091312 4.534534
000140 48 15 c5 40 45 e2 cc 40 ab b6 00 41 66 8e c8 40
       6.158848 6.402621 8.044597 6.2673826
000150 d1 4d a8 40 0d 3b f5 40 98 1b e4 40 a9 e7 7a 40
       5.259499 7.6634583 7.1283684 3.9203894
000160 52 b1 8f 40 05 38 ea 40 c5 f8 95 40 4e d0 91 40
       4.4903955 7.3193383 4.6866174 4.556678
000170 53 bf a6 40 67 a9 e3 40 1a d8 5e 40 0f d0 e0 40
       5.210855 7.114429 3.4819398 7.025398
000180 30 fe b8 40 a4 67 d6 40 a2 71 6e 40 ee da a9 40
       5.7810287 6.7001514 3.7256856 5.307975
000190 3e f0 f4 40 dd 98 8e 40 bc a6 b4 40 69 9e b6 40
       7.6543264 4.45616 5.6453533 5.706837
0001a0 e8 2a 87 40 da 10 ff 40 6c 8c 44 40 6b d9 b6 40
       4.2239876 7.970807 3.0710707 5.7140403
0001b0 fb 93 a3 40 58 df f9 40 47 a0 e0 40 5d 5a 66 40
       5.111814 7.8085136 7.019565 3.5992653
0001c0 5f cb aa 40 43 59 fb 40 20 5f bb 40 7e c5 d4 40
       5.3373256 7.854646 5.855362 6.649108
0001d0 12 ed 60 40 57 37 9d 40 46 02 4f 40 1f 33 75 40
       3.5144696 4.9130054 3.2345138 3.8312452
0001e0 95 4d 72 40 e7 79 a1 40 cb a4 be 40 86 08 4b 40
       3.7859852 5.0461307 5.9576163 3.1723952
0001f0 82 74 94 40 52 74 b3 40 48 aa 01 41 0c 30 9c 40
       4.639222 5.6079493 8.104073 4.880865
000200 e4 10 7b 40 57 fc c0 40 04 92 ba 40 a2 fd ae 40
       3.922906 6.030803 5.830324 5.468461
000210 27 64 a3 40 8e 2c ac 40 67 5f eb 40 96 64 62 40
       5.1059756 5.380439 7.355396 3.5373893
000220 bc 35 d6 40 b9 b1 8f 40 6a 8a c4 40 ea 28 88 40
       6.6940594 4.4904447 6.1418962 4.2549944
000230 50 8d 68 40 7c ec d2 40 1f 1b c5 40 59 f5 da 40
       3.633625 6.5913677 6.1595607 6.8424497
000240 b4 38 96 40 dc 0b be 40 4a 69 ee 40 1d 5a ee 40
       4.694422 5.9389477 7.4503527 7.4485
000250 72 ff e2 40 df 4f a2 40 9c 2e 88 40 5a 3c ba 40
       7.0936823 5.07225 4.2556896 5.819867
000260 a4 a8 79 40 f5 c1 9b 40 fe ee be 40 75 92 cf 40
       3.900918 4.8674264 5.966674 6.486628
000270 62 ce a7 40 81 50 d1 40 29 ef 5b 40 06 30 cd 40
       5.243943 6.541077 3.4364722 6.412112
000280 80 39 7b 40 f8 b2 5a 40 0d 51 b7 40 a5 38 f9 40
       3.9253845 3.4171734 5.728644 7.7881646
000290 85 08 bc 40 0c 71 cf 40 90 df a3 40 5a 68 b2 40
       5.87604 6.4825497 5.1210403 5.575238
0002a0 ef 22 bc 40 87 21 8f 40 99 92 f3 40 4b 29 80 40
       5.8792644 4.4728427 7.611645 4.0050406
0002b0 83 70 d7 40 8c 10 e8 40 93 04 88 40 87 08 f9 40
       6.7324843 7.25202 4.2505584 7.782291
0002c0 81 77 d3 40 a2 20 f9 40 85 95 d3 40 77 0a 83 40
       6.608338 7.7852335 6.612002 4.0950274
0002d0 1f 4e e4 40 a5 a3 f3 40 01 fd df 40 33 7e ca 40
       7.1345363 7.613726 6.9996343 6.327905
0002e0 10 73 ba 40 1a d9 b3 40 9e 8f fd 40 27 af 8b 40
       5.8265457 5.6202517 7.9237814 4.365131
0002f0 4b 85 c0 40 10 96 b1 40 19 80 f5 40 be c9 e0 40
       6.016271 5.549568 7.671887 7.0246267
000300 5a 2e 81 40 97 a6 d3 40 d8 3f 99 40 f5 5b ea 40
       4.036908 6.6140857 4.7890434 7.323725
000310 c6 9e 5e 40 18 0e 57 40 25 2f d3 40 75 81 9b 40
       3.4784408 3.3602352 6.599505 4.859553
000320 1f fc c7 40 3d 82 f4 40 ee 7b 6a 40 2e 81 a8 40
       6.2495265 7.640898 3.663814 5.265769
000330 2c 7e 96 40 b1 31 de 40 1e 18 94 40 bb a3 f7 40
       4.702902 6.943566 4.627944 7.7387366
000340 04 44 b6 40 bd 49 cb 40 e5 ff 8d 40 0d be ad 40
       5.6958027 6.3527513 4.437487 5.4294496
000350 be cd 54 40 44 a1 8e 40 bd 64 9c 40 b1 36 5e 40
       3.3250575 4.4571857 4.887297 3.472088
000360 d3 ac ab 40 66 31 db 40 4d 65 84 40 fc b2 ae 40
       5.3648467 6.84978 4.137366 5.4593487
000370 f0 07 ef 40 d5 25 82 40 ab 24 cb 40 eb b8 a2 40
       7.469719 4.067118 6.348226 5.085073
000380 56 82 f5 40 40 27 aa 40 e1 cd f2 40 51 5d 98 40
       7.67216 5.3172913 7.5876317 4.761391
000390 43 aa 6a 40 56 b2 b6 40 a7 ba 7c 40 f2 3f 87 40
       3.666642 5.7092695 3.9488924 4.226556
0003a0 d1 f8 eb 40 47 0d fd 40 94 71 79 40 84 96 45 40
       7.374123 7.907871 3.8975573 3.0873117
0003b0 03 f0 ca 40 1f 0a 5f 40 cc 6e 9b 40 eb c5 d0 40
       6.3417983 3.4849927 4.857275 6.52416
0003c0 63 d6 cf 40 e8 c5 bf 40 49 c5 d6 40 32 54 81 40
       6.4949203 5.9929085 6.7115827 4.0415277
0003d0 83 e3 98 40 6b 23 94 40 8a 9a 41 40 f6 91 84 40
       4.7777724 4.6293235 3.0250573 4.1428175
0003e0 bf ce bc 40 df d1 c3 40 c0 48 91 40 c3 d1 e7 40
       5.9002376 6.119369 4.5401306 7.2443557
0003f0 ff f8 85 40 22 8b b7 40 e3 cc f9 40 47 64 e8 40
       4.186645 5.735734 7.8062606 7.262241

cell_los.sensory_w f4 [1, 32]
000000 0f 73 9b 3e 30 2f 06 3f 6a 2d 32 3f d2 97 56 3f
       0.3036122 0.5241575 0.69600546 0.8382541
000010 05 ab f0 3e 9d f5 2c 3f 73 36 d5 b9 32 06 5b 3f
       0.47005478 0.67562276 -0.00040667094 0.8555633
000020 07 99 70 3f d2 0d 62 3e 79 6a 8c 3c 78 00 fd 3e
       0.939835 0.22075585 0.017140614 0.4941442
000030 37 bd 8a 3f bf de 4a 3f 21 48 74 3f 45 fa 8b 3e
       1.0838994 0.79246134 0.9542256 0.27339378
000040 87 92 7f 3f 2b f3 8c 3f e2 1b 87 3e 7e f2 2f 3f
       0.9983296 1.1011709 0.2638846 0.6872939
000050 f6 1c 07 3f 7b ae 90 3f 8c af d4 3e 04 83 51 3e
       0.52778566 1.1303247 0.41540182 0.20460135
000060 65 e6 2f 3c a5 dc 80 3f 4c 6f 4b 3f 00 58 32 3e
       0.010736083 1.0067335 0.794667 0.17416382
000070 be ac 38 3e d7 8f 65 3f 76 6b d6 3e 8b df 99 3e
       0.18034646 0.8967261 0.4187886 0.30053362

cell_los.sensory_mu f4 [1, 32]
000000 71 5b 9f 3e 1e 1f 95 3e db 65 5c 3e e7 cb b6 3e
       0.31124452 0.29125303 0.2152323 0.3570244
000010 37 9f d2 3e be 03 de 3e dc be 61 3f 71 55 41 3e
       0.41137096 0.4336223 0.88181853 0.1888025
000020 e1 55 ac 3e 10 9e 9e 3e c0 4d f7 3e 0c 35 46 3f
       0.3365927 0.30979967 0.48301506 0.77424693
000030 cc 73 89 3e b0 18 b1 3e 50 a6 90 3e 5f a4 89 3e
       0.26846159 0.34589148 0.28251886 0.26883218
000040 de 44 db 3e 5b a6 79 3e 5e 68 a5 3e 5d 1e 9f 3e
       0.4282598 0.24379866 0.32306188 0.31077853
000050 e8 cd dc 3e b1 26 f8 3e 5c 93 61 3e 25 62 87 3e
       0.43125844 0.4846702 0.2202887 0.26442066
000060 97 94 1a 3f 5a db 7e 3e a0 9c 85 3e 46 b1 01 3f
       0.6038298 0.24888363 0.26096058 0.5066112
000070 a6 06 da 3e 59 0e fd 3e 04 23 be 3e f0 b5 c5 3e
       0.42583197 0.4942501 0.3713609 0.3861537

cell_los.sensory_sigma f4 [1, 32]
000000 e6 21 69 40 5c cc b0 40 84 4f fb 40 ab 76 f6 40
       3.642694 5.524946 7.8534565 7.701986
000010 ae 41 e2 40 da 54 91 40 c9 f2 b4 40 8d bb f8 40
       7.0705175 4.541608 5.654637 7.7728944
000020 07 ed 98 40 49 92 be 40 f3 69 b9 40 4b a3 e8 40
       4.778934 5.955357 5.7941833 7.269933
000030 57 f7 84 40 e4 02 bb 40 dc 0e 4c 40 fd 61 98 40
       4.155193 5.844103 3.188407 4.7619615
000040 7b 93 cf 40 5e 9d b7 40 fa a2 f4 40 04 e2 67 40
       6.486753 5.73796 7.6448946 3.62317
000050 36 2b ce 40 56 fa a6 40 40 a3 f8 40 d6 81 f0 40
       6.442775 5.2180586 7.769928 7.515849
000060 41 c3 fa 40 f3 00 75 40 96 14 fc 40 34 1d 70 40
       7.8363347 3.828183 7.877513 3.7517824
000070 22 cf 87 40 00 c6 d8 40 6e 79 aa 40 f1 f4 d0 40
       4.244035 6.77417 5.327323 6.5299

cell_nlos.gleak f4 [32]
000000 29 ba 4c 3f b3 44 a8 3e 64 d3 02 3f c2 89 ca 3e
       0.7997156 0.32864913 0.51103806 0.39558226
000010 66 a4 3c 3f 96 59 1f 3f d6 74 d1 3e 64 4c 98 3b
       0.7368835 0.6224607 0.4090945 0.0046477783
000020 84 61 09 3f b9 16 2a 3f f9 f5 fc 3e 9c 4c 08 3f
       0.5366442 0.6644092 0.49406412 0.53241897
000030 96 ce 05 3f c9 7f de 3d 9d c1 ce 3d c7 da 66 3e
       0.5226835 0.10864217 0.100955226 0.22544394
000040 59 e0 aa bc 3f f4 ad 3e b7 5e 8e 3e f9 15 2b bd
       -0.02085893 0.33975407 0.27806637 -0.041769
000050 bb 04 c3 3e d6 13 d9 3e 07 ae 0d 3f 74 db ad 3e
       0.38089547 0.42397946 0.5534367 0.33956492
000060 c7 e1 2b 3e 51 54 94 3e 0b 55 2d bd c5 6c d8 3e
       0.16785346 0.28970578 -0.04231743 0.42270485
000070 4d 98 22 3f 64 7a c1 3e 8d 11 c7 3e 11 99 4d 3f
       0.6351364 0.3778869 0.38880578 0.80311686

cell_nlos.vleak f4 [32]
000000 a8 bf a0 3d a9 20 46 3e 45 26 07 3e ca a2 ea 3d
       0.078490555 0.19348396 0.13198192 0.11456831
000010 f5 5b 3f bd 3e 13 4a be b2 d1 41 bd 73 4a f2 3d
       -0.046718556 -0.19733903 -0.04731912 0.11830606
000020 6c d5 3c bd d0 7c a1 3d ce b9 6f be ca 97 74 3c
       -0.046101972 0.07885134 -0.23410723 0.014928767
000030 3a 28 67 3e 39 4e 1d be 0a 1e 2c bc e5 db f0 3d
       0.22573939 -0.15361871 -0.010505209 0.117606916
000040 8d 3e 88 be f4 52 9a bd 3d 44 1f be 05 16 6c 3d
       -0.26610222 -0.07535353 -0.15553375 0.057638187
000050 8c c1 3a bc b4 51 f3 bb c0 67 01 3e 5e 7b 35 3d
       -0.011398684 -0.0074255113 0.12637234 0.044307105
000060 d6 ee 22 bd 93 90 cb 3d e8 f5 9c bd 17 31 af 3d
       -0.039778553 0.09939685 -0.076640904 0.08554285
000070 36 07 0b bd 22 b8 10 3e 86 c4 95 bd b7 fb e6 3c
       -0.033942424 0.14132741 -0.073128745 0.028196199

cell_nlos.cm f4 [32]
000000 a4 45 42 3f a4 9d 29 3f ac 38 25 3f 00 dc 25 3f
       0.75887513 0.66256166 0.645396 0.6478882
000010 15 8e 2c 3f af 06 21 3f 78 09 3d 3f 03 24 22 3f
       0.674043 0.62900823 0.73842573 0.633362
000020 b0 24 15 3f 05 57 26 3f 1f 14 37 3f 97 2a 40 3f
       0.58259106 0.6497653 0.7151508 0.75064987
000030 e0 6c 24 3f 78 a3 21 3f 89 23 e4 3e 04 e5 30 3f
       0.6422863 0.6314006 0.4455836 0.6909945
000040 d3 77 34 3f 15 91 18 3f 27 f9 03 3f 63 3e 1d 3f
       0.7049534 0.5959638 0.5155205 0.6142332
000050 3d e0 46 3f 45 0a 30 3f 41 72 2c 3f f9 cb 20 3f
       0.7768591 0.6876567 0.6736184 0.6281124
000060 00 d9 3c 3f 7d af 30 3f 4a e3 4d 3f 1f 8f 1b 3f
       0.73768616 0.69017774 0.8042494 0.6076526
000070 b3 08 0c 3f ee f8 46 3f e7 5b 20 3f d5 33 1b 3f
       0.54700774 0.77723587 0.6264023 0.60625964

cell_nlos.w f4 [32, 32]
000000 f8 67 f9 3e 1d d6 4b 3c 37 06 a8 3e 15 3b 9c 3d
       0.48712134 0.012441185 0.32817242 0.076284565
000010 27 5e a0 3e 71 fb c4 3e 26 cc a9 3e a5 e6 0f 3f
       0.31321833 0.38473085 0.33163565 0.5621131
000020 ec 37 96 3e 56 c6 eb 3e 5d 17 d7 3e c4 3f 30 3e
       0.2933954 0.46049756 0.42010012 0.17211825
000030 29 28 94 bd 2f 49 18 3f ca 88 07 bd 24 e5 e6 3e
       -0.072342224 0.5948667 -0.033089437 0.45096695
000040 24 c3 39 3f 50 b8 55 3f b2 f8 31 3e 4f 1d 5a 3f
       0.72563386 0.83484364 0.17380026 0.8520097
000050 a8 04 51 3e 8b 8f 3f 3e 9e c2 01 3f d5 ec 4f 3e
       0.20411932 0.18707101 0.5068759 0.20305188
000060 4e 9e df 3d fe c0 05 3f ef d6 69 3f a7 92 5c 3f
       0.10918866 0.5224761 0.9134359 0.86161274
000070 12 9a 17 3f f2 f8 2e 3f 94 b7 39 3f 58 cb 95 3e
       0.5921947 0.6834861 0.72545743 0.292567
000080 0a c1 68 3f 04 bd fe 3e d7 dd 3c 3f 1d d2 8b 3d
       0.90919554 0.49753582 0.73776 0.06827185
000090 cb 4f 13 3f 66 59 15 3f 98 e8 e7 3e 4b 20 e9 3d
       0.5754363 0.58339536 0.45294642 0.113831125
0000a0 48 fd ff 3e 97 9d 8d 3e f2 4d 8d 3e 25 cb 81 3f
       0.49997926 0.27659294 0.2759853 1.014012
0000b0 52 c3 51 bd 8e 64 d3 3e f5 2c 15 3f 82 c2 dc 3e
       -0.051211663 0.41287655 0.58271724 0.43117148
0000c0 0a 06 45 3f cd 8d 1d 3f d4 a4 3d 3f 5d c5 2d 3f
       0.7696234 0.61544496 0.7407963 0.6787928
0000d0 26 54 7a 3e 4f a4 2d bd c5 ad 85 3e 50 dc 54 3d
       0.24446163 -0.042393025 0.26109138 0.05196792
0000e0 70 34 f3 3d aa 27 fa 3e 42 f7 2e bc 6c fb 27 3e
       0.11875236 0.48858386 -0.010679068 0.16404504
0000f0 2c a9 69 3e 4a 04 18 bc a0 3d 3f 3d 12 1c cc 3e
       0.2281844 -0.009278366 0.04668963 0.39865166
000100 6a 38 f3 3e 9e ed 1b 3f 5a 42 58 3f f9 15 9c 3e
       0.47503978 0.6090945 0.84476244 0.30485514
000110 42 c1 71 3e 97 f9 0b 3d c6 5c 30 3e 81 89 5b 3f
       0.23608878 0.034173574 0.1722289 0.8575669
000120 8f 27 5e 3f 9d ef fb 3e be ec 1a 3f 71 82 0f 3f
       0.8677911 0.49206248 0.6051749 0.5605841
000130 92 a2 4a 3f db 3b 26 3f 00 94 2f 3f b1 8b 2e 3f
       0.7915431 0.6493508 0.68585205 0.681819
000140 d6 6b fb 3e 92 59 b7 3e b2 86 60 3f ed b7 17 3f
       0.4910571 0.35810524 0.8770553 0.59265023
000150 fb 8c 37 3f 98 bd 5b 3f ee 4f 44 3f 49 c3 60 3f
       0.71699494 0.8583617 0.76684463 0.8779798
000160 f3 df 5e 3f ac f0 81 3e 7e 3c b6 3e 94 d1 10 3f
       0.8706047 0.2537893 0.35593027 0.5656979
000170 19 23 35 3f 19 21 7e 3d 6e ff 03 3f 05 77 42 3f
       0.7075668 0.062043283 0.5156163 0.7596286
000180 f3 0f 3c 3e 6b b1 0b 3e 8a a4 30 3e 32 05 63 3f
       0.18365459 0.13641898 0.17250267 0.886798
000190 58 67 08 3f e6 87 2b 3e af 72 53 3f 8b e2 aa 3d
       0.5328269 0.1675106 0.8259687 0.08343991
0001a0 9f 08 35 bd ef d7 35 3f f1 42 f0 3e 86 31 dd 3e
       -0.044197675 0.71032614 0.46926072 0.43201846
0001b0 8a db 5b 3f c3 63 be 3e af 77 02 3f e0 74 cc 3e
       0.85881865 0.37185487 0.5096387 0.3993292
0001c0 b6 d5 30 3f 46 19 f3 3e 7e 96 19 3f 79 b4 37 3e
       0.69076097 0.4748022 0.5999526 0.17939939
0001d0 15 d7 ac 3e c6 c9 fa bc e1 01 3c 3f 21 5d 73 3f
       0.33757845 -0.030613791 0.73440367 0.9506398
0001e0 b9 f7 3a 3f 79 95 38 3f 73 55 ad 3e 66 46 31 3f
       0.73034245 0.7210308 0.33854255 0.69248044
0001f0 2f 33 4b 3f 47 d1 58 3f 63 01 b8 bc 32 cf 3a 3e
       0.79374975 0.8469433 -0.022461599 0.18243101
000200 8b 14 22 3e 23 fd 47 3f c7 9e cd 3e ae fa 49 3f
       0.15828149 0.7812063 0.401602 0.7889813
000210 2c 58 85 3e a6 8e f3 3e ac 64 f9 3e cd 7f 7d 3e
       0.26043832 0.4756977 0.4870962 0.24755783
000220 87 df 51 3f 35 ca 49 3f 59 14 c6 3c e6 b3 1c 3e
       0.819817 0.7882417 0.024179624 0.15303001
000230 81 4c 39 3f 5f 04 2a 3f e9 8e e7 3e b2 e6 49 3f
       0.7238236 0.6641292 0.4522622 0.7886764
000240 a5 c3 f4 3e 9b d7 f1 bd 2e 37 8d 3e 2f 5e 49 3f
       0.47805515 -0.118087016 0.2758116 0.7865934
000250 be b1 97 3e 72 5b d6 3b 61 c9 8d 3e c4 1b cf 3d
       0.29627794 0.006541663 0.27692702 0.10112718
000260 32 9f 15 3f ed 8c 22 3f 11 20 1a 3e 64 33 2d 3f
       0.5844604 0.63496286 0.15051295 0.6765654
000270 72 f7 5b 3f 6d 9d 48 3f b3 0f e2 3e b1 f9 1e 3f
       0.85924447 0.7836521 0.44152603 0.6209975
000280 b4 a2 ac 3e 1f 69 be 3d e9 2e 1d 3f e8 8d 3e 3f
       0.33717883 0.09297394 0.61399704 0.7443528
000290 bb ea 71 3f 1b 6a cd 3e cc 99 5a 3f 1a f9 31 3f
       0.94498795 0.40120015 0.85390925 0.69520724
0002a0 9a cc 13 3f 37 cd 34 3e 52 29 e6 3c cf 1a 5c 3f
       0.5773407 0.17656408 0.028095875 0.85978407
0002b0 4a 90 93 bd a3 b1 46 3f 7b 35 fb 3d d9 c7 be 3e
       -0.07205255 0.776148 0.1226606 0.37261847
0002c0 bc 38 49 3f ea 1d f9 bb 8c a3 64 3f 65 b5 14 3f
       0.78602195 -0.007602443 0.8931205 0.58089286
0002d0 95 3e 53 3f d4 e6 33 3f 5d dc 58 3f d3 aa 87 3e
       0.8251737 0.7027409 0.8471125 0.26497516
0002e0 d6 c4 24 3e 67 0f 1c 3f 9d e9 9b bd d7 c4 ed 3d
       0.16090712 0.60961 -0.076129176 0.1160981
0002f0 03 57 0d 3f 9e 84 53 3f e6 b7 f3 3e 30 ae 77 3e
       0.55210894 0.8262423 0.4760124 0.24187541
000300 ac a4 32 3f 8c b7 15 3f 2e b3 13 3f c6 0f 69 3f
       0.6978252 0.58483195 0.5769528 0.91039693
000310 56 17 52 3f 23 d5 26 3f d7 e3 c1 bd 2f 28 1e 3f
       0.8206686 0.6516897 -0.09467285 0.61780065
000320 0f 67 42 3f 84 56 be 3d f4 f1 37 3f 7e 59 65 3f
       0.75938505 0.09293845 0.71853566 0.8958968
000330 89 e7 17 3f fa 3a 58 3f 86 ee 34 3f c4 fd 9c 3e
       0.5933767 0.8446499 0.7067646 0.30662358
000340 e1 08 0e bc ca a7 45 3e e1 1a 2a 3f 6e 68 22 3d
       -0.008669109 0.19302288 0.66447264 0.039650373
000350 fc 3c 51 3f c2 23 f8 3e 27 7b 5c 3e fa 7f 4b 3f
       0.8173368 0.4846478 0.21531354 0.7949215
000360 ed f1 37 3d 89 ef b2 3e 42 15 e9 bd 5e 2d 28 3f
       0.044908453 0.34948376 -0.11381008 0.65694225
000370 f9 85 1d 3f 85 a3 37 3f c7 99 e6 3d 73 48 61 3f
       0.6153255 0.71733886 0.112597995 0.88001174
000380 b0 38 bd bd f3 6d 46 3f cf 3f 4e 3f 46 93 00 3f
       -0.09239328 0.7751152 0.80566114 0.5022472
000390 92 5f 82 3d c0 e0 af 3e 82 12 eb 3e 4e 21 21 3f
       0.06365885 0.34351158 0.45912558 0.62941444
0003a0 a6 c0 6c 3f 2e 27 56 3f 62 61 13 3f 7e a9 c4 3e
       0.9248146 0.83653533 0.5757047 0.38410562
0003b0 82 c6 ef 3d d3 92 10 3f 24 de e1 3e 7d b6 a4 3e
       0.11707784 0.56474036 0.44114792 0.32170478
0003c0 58 70 43 3f 79 fe 11 3d f2 8c f9 3e 42 ae 0d 3f
       0.763433 0.035643075 0.48740345 0.5534402
0003d0 1b c7 dc 3c f7 fa bd 3d 12 a1 3e bc ad b0 5f 3f
       0.02695041 0.09276383 -0.011635082 0.8737896
0003e0 bf c0 52 3e a5 f5 33 3f c4 47 93 3e 1c fc 1f 3f
       0.2058134 0.702967 0.2876569 0.62494063
0003f0 d4 1f ce bc 6d 3b 39 3f 92 a0 7c 3f f8 27 f2 3e
       -0.025161661 0.723563 0.9868251 0.4729612

cell_nlos.erev f4 [32, 32]
000000 59 78 52 3d 0b f7 61 3e 01 88 f0 3d 9b 81 cc 3d
       0.051384304 0.22066896 0.11744691 0.09985658
000010 dd 3a f8 bd 03 c7 62 bd de 35 e7 bd c4 e2 8b 3d
       -0.12120602 -0.055365574 -0.11289571 0.068303615
000020 67 4e 09 bb d0 78 50 bd 91 81 62 3d fe 8f 52 3d
       -0.0020951272 -0.050896466 0.055299345 0.051406853
000030 0b 4b 0a 3e c9 72 b5 3c 09 96 de 3b e2 55 fe bc
       0.13505189 0.02214946 0.006792788 -0.031046811
000040 ad 60 0f bd 8c 89 39 3c 88 36 88 bd 66 08 28 3e
       -0.035004307 0.011324298 -0.06651026 0.16409454
000050 84 b2 6e 3e 67 88 86 3e f4 97 87 3e 49 fb 0f bc
       0.23310286 0.26275942 0.2648312 -0.008787938
000060 82 6a 22 3e 68 a2 47 3c 8b b7 89 3e e4 8c 02 be
       0.15860942 0.012184717 0.26897845 -0.12749058
000070 56 d1 9f bd 01 34 63 bd b9 d3 71 3d a4 69 42 be
       -0.078035995 -0.055469517 0.059039805 -0.18985611
000080 42 a8 00 3e cf 81 cf 3d 5c 14 b0 bd ba c8 83 3e
       0.12564185 0.10132181 -0.08597633 0.2573908
000090 7a 4e 02 bc c5 b6 9b 3e 9d 3b 97 3d 0a 32 5e 3e
       -0.007953281 0.3041288 0.07384417 0.21698776
0000a0 dc 1d 86 3e 24 a9 3c bd 09 6f 1f 3d 30 9a 80 3e
       0.26194656 -0.046059743 0.03892425 0.25117636
0000b0 48 cb e8 3d 0c 70 a3 bd 37 f6 40 3d 00 6a 0f 3e
       0.11366898 -0.079803556 0.04710981 0.1400528
0000c0 5a 03 b3 bd f0 29 87 3e 74 b9 5a bd fe b6 cd bc
       -0.08740874 0.26399183 -0.053399518 -0.025111672
0000d0 2c 02 50 3e 28 dd a6 bd d7 9f 69 3e be a5 9f 3d
       0.20313329 -0.08147651 0.2281488 0.07795285
0000e0 bc ca 06 3e e2 4a 80 bd 36 7a 87 bd 77 50 31 be
       0.13163275 -0.06264283 -0.06615107 -0.17315851
0000f0 86 7a d4 bd bb 2a 82 3e 1d 00 35 3d 21 e9 8b 3d
       -0.10374932 0.25423226 0.04418956 0.06831575
000100 24 ec f6 3d 97 6a 68 bc 81 26 81 bd 67 b6 af bd
       0.12056759 -0.014185569 -0.06306172 -0.08579712
000110 23 23 ef 3d 9f 11 37 3d 80 d4 33 3e 83 24 69 3e
       0.11676624 0.04469454 0.17561531 0.22767834
000120 04 01 06 3d 44 61 d1 3d a0 44 bd bd a6 5b a0 bd
       0.032715812 0.1022363 -0.09241605 -0.078299806
000130 4f 37 62 3e 79 6f 90 bd f8 bb 7d 3d 73 56 8e 3e
       0.22091411 -0.07052512 0.06194684 0.2780033
000140 7b 47 6c bc 79 d0 f7 3d f1 f1 57 3e 64 94 d4 bd
       -0.014421339 0.1210031 0.21088387 -0.10379866
000150 33 a1 f2 3d 77 ae 9b bb 98 9e d5 bc f0 0e d7 bd
       0.118471526 -0.0047510224 -0.0260766 -0.10500896
000160 6a fe 47 3e b0 78 aa 3a 36 3f 83 3e 70 93 1e 3e
       0.19530645 0.0013005938 0.25634164 0.1548593
000170 af b2 9b 3d 95 83 70 3e 11 08 16 3d 13 69 1c 3e
       0.076024406 0.23487695 0.036628786 0.15274458
000180 ab 56 b4 3d 1f 12 1b bd a1 16 2b bb 1b 74 12 bd
       0.08805593 -0.03785908 -0.0026106017 -0.035755258
000190 07 6b e4 3d 26 96 c8 3d 03 91 7c 3e 2e 05 1b 3e
       0.11153226 0.097942635 0.24664693 0.15138695
0001a0 25 5d 91 3c d6 9d 97 3d 7b db b2 3d e7 dd 44 bc
       0.01774461 0.07403152 0.08733269 -0.012015796
0001b0 45 56 94 3e fb 2d c4 3d 30 48 1b 3e 4c 04 88 3e
       0.28972068 0.095790826 0.15164256 0.26565778
0001c0 2b 1d e1 bd 4c 4f 6b 3e 09 02 72 3e f4 06 55 3e
       -0.109918915 0.22979468 0.23633589 0.20803434
0001d0 a6 c5 32 3e ea ae 0e 3d b1 76 03 bd 13 ba 64 3e
       0.1745821 0.03483478 -0.032095615 0.22336607
0001e0 0c 64 16 3e 21 17 80 3e b9 83 66 3e 3f 31 09 be
       0.14686602 0.25017646 0.22511186 -0.13397692
0001f0 4f eb 68 3e 8f b6 c2 3d 27 81 af bd 55 57 3c 3d
       0.22746013 0.095074765 -0.08569556 0.045981724
000200 61 3e 36 bd 7e 90 49 3c f3 76 92 3c a7 95 c3 bd
       -0.044493083 0.012302516 0.017878985 -0.09550028
000210 87 e1 d7 bd 39 68 8b 3e c9 ae 14 bd 2c 7d 44 3d
       -0.10541063 0.27227953 -0.0362995 0.047970936
000220 89 97 ca 3c 59 bc 72 3e 1f e9 c3 3c d3 5b a8 3b
       0.02473046 0.23704661 0.023914872 0.0051378994
000230 0f 6e b9 3d 2d 63 cf 3b 3d c7 f4 3d 61 7f 85 bc
       0.09054195 0.0063289613 0.11952064 -0.01629609
000240 b2 d3 b2 bd dd 0e d8 3c 64 1a ca bd b4 f1 b1 bd
       -0.08731784 0.026374275 -0.09868315 -0.08688679
000250 50 51 19 3e ce ae 6a 3d d1 ef 8a bd 9c 84 46 bd
       0.14972425 0.057295613 -0.067840226 -0.04846631
000260 fa 16 0a bd 57 ca 65 3e 71 f0 31 bd 44 1b 89 bd
       -0.03371332 0.22440468 -0.043442193 -0.06694654
000270 b2 6b 48 3e 0f 97 e0 bd 25 b4 fc 3d ce 7a 8b 3d
       0.19572333 -0.10966312 0.12339047 0.068105325
000280 46 b0 90 3e ed c1 39 3e 02 f7 10 3d 22 40 9a 3e
       0.28259486 0.18140383 0.035391815 0.30127054
000290 ec 5b fe 3c 9e 21 c3 3d 6b 7e 16 3e 45 ee 74 bd
       0.031049691 0.09527896 0.14696662 -0.059797544
0002a0 74 ee 6f 3e e0 31 21 3e 04 b3 ad 3d b5 ef 17 3e
       0.23430806 0.15741682 0.0848141 0.14837535
0002b0 e1 e0 a3 bd e2 f6 43 3e 7e b7 9a 3d cd 52 62 3e
       -0.080018766 0.19137147 0.075545296 0.22101898
0002c0 bf 73 0c 3e 84 42 f6 3d 5d 56 1e 3e 15 63 41 3e
       0.13716029 0.120244056 0.15462632 0.18885453
0002d0 90 f3 23 3e 08 72 8b 3e 38 d8 9d 3e 4b 0f 9a bd
       0.1601088 0.27235436 0.30829024 -0.07522448
0002e0 5e 02 40 bd 2c 95 4e bd b5 0e 89 bd c6 33 9f 3d
       -0.046877258 -0.05043523 -0.06692258 0.07773547
0002f0 04 c4 58 3e a7 4d c6 3d 83 c4 7d 3d e2 a9 0e be
       0.21168524 0.0968278 0.061954986 -0.13931993
000300 f3 f5 f4 bd c4 fe 0e 3e 74 55 0e 3e 40 f0 1e 3e
       -0.119609736 0.13964373 0.13899785 0.15521336
000310 73 78 97 bb 23 a0 21 3e bc 57 a9 3d 57 21 33 3c
       -0.004622513 0.15783744 0.08268687 0.010933242
000320 a4 90 4d 3e 47 77 a6 3d 74 c1 a7 bd 84 9e 29 bd
       0.20074707 0.08128219 -0.08191195 -0.041410938
000330 ba 41 6e 3e 62 4a 8a 3e c1 9d 0b 3e f4 36 58 bd
       0.2326726 0.27009875 0.13634397 -0.052786782
000340 da 67 b8 bd da bd eb bd b2 42 00 3c 0c 7e b8 3d
       -0.09004183 -0.11510821 0.007828401 0.090084165
000350 e7 e9 8a bc 26 26 1b bd c8 49 58 bc e4 3a e6 3d
       -0.016957236 -0.037878178 -0.013201185 0.11241701
000360 b9 4f 3d 3e d8 48 8d bd 20 7c 85 bc 1b cb ee 3b
       0.18487443 -0.068986595 -0.016294539 0.0072873957
000370 78 34 76 3e 99 ff 46 3e 5d f1 29 3d 7e 63 3e bd
       0.24043453 0.1943344 0.041489948 -0.046481602
000380 16 66 b1 bc ea 80 21 3e 1b 76 82 3e 80 4c 92 3d
       -0.021655124 0.15771833 0.25480732 0.071434975
000390 91 6b ac bd 79 35 a0 3e 51 11 25 3e 50 40 20 3e
       -0.08418954 0.31290796 0.16119887 0.15649533
0003a0 fe 4f 78 3e 70 5c 3b 3d 3f f9 81 bd 67 8b 08 3e
       0.24249265 0.045742452 -0.06346368 0.13334428
0003b0 d8 1d 7f 3e 81 c0 56 3e a6 80 a7 3d ed f8 82 3e
       0.24913728 0.20971872 0.081788346 0.2558054
0003c0 20 dd 9e 3d 8b ec c6 39 fa 3a 83 3d 05 8c 83 3e
       0.0775702 0.0003794174 0.06407733 0.25692764
0003d0 ec bc b6 bd 90 36 87 3e 74 59 64 bd 31 2f 37 bd
       -0.08922753 0.26408815 -0.05574937 -0.04472274
0003e0 67 a0 c1 bd 86 f5 75 3e a5 75 0a 3e 6a 1d 31 be
       -0.094544224 0.24019441 0.1352144 -0.17296377
0003f0 a7 6e 7e 3a 53 e9 67 3e b7 7b 98 3e 3e 02 40 3d
       0.00097058195 0.226476 0.29781887 0.04687714
