lnn/stage1_pi_hlnn_best.pt (torch, 33870 bytes, 10 tensors)

cell.A f4 [48]
-0.59361494 -0.5643871 -0.5366924 -0.5418969 -0.5606558 -0.53872484 -0.5504337 -0.5777965
-0.5265256 -0.54706234 -0.5762424 -0.52977276 -0.5352342 -0.5027842 -0.5554466 -0.5527403
-0.57331157 -0.5391449 -0.5300751 -0.54645246 -0.52962804 -0.57487154 -0.57660097 -0.54525787
-0.54996824 -0.53041965 -0.5388965 -0.5850963 -0.58902687 -0.5136397 -0.57065713 -0.6019753
-0.5622552 -0.5282717 -0.5377909 -0.54153144 -0.5446901 -0.53700805 -0.5162879 -0.5513414
-0.5259736 -0.5665912 -0.4877018 -0.5324361 -0.55090946 -0.53216124 -0.5194412 -0.52905875
00000000: 26f7 17bf ac7b 10bf ac64 09bf c1b9 0abf
00000010: 2387 0fbf dfe9 09bf 39e9 0cbf 79ea 13bf
00000020: 62ca 06bf 470c 0cbf 9f84 13bf 309f 07bf
00000030: 1c05 09bf 77b6 00bf c031 0ebf 6380 0dbf
00000040: 8cc4 12bf 6605 0abf 00b3 07bf 4fe4 0bbf
00000050: b495 07bf c82a 13bf 1f9c 13bf 0596 0bbf
00000060: b8ca 0cbf 95c9 07bf 1ff5 09bf dfc8 15bf
00000070: 77ca 16bf e47d 03bf 9616 12bf 0e1b 1abf
00000080: f5ef 0fbf d03c 07bf aaac 09bf cea1 0abf
00000090: cf70 0bbf 5c79 09bf 722b 04bf b624 0dbf
000000a0: 35a6 06bf 1f0c 11bf 0db4 f9be bb4d 08bf
000000b0: 6708 0dbf b83b 08bf 19fa 04bf 6570 07bf

cell.synapse.weight f4 [48, 49]
-0.19012773 -0.12166261 0.1692578 0.11276736 0.13408074 -0.017868595 0.09471285 -0.04069785
-0.045827273 -0.14551893 0.040180773 0.083414234 -0.17841887 0.08151262 0.040948898 0.18167788
-0.041613784 -0.05870592 -0.009540989 0.14929089 -0.06624307 0.07226356 -0.0875087 0.178565
-0.17771251 -0.09317274 -0.048576783 -0.052819 0.05117499 0.1121847 0.13313109 0.05105353
-0.03708516 0.14459795 -0.020596474 -0.098006606 0.04178633 0.019234972 0.19218814 0.003786424
0.102645665 0.053204548 -0.105315134 0.03656503 -0.061272677 -0.08320156 -0.015481476 -0.10995669
0.08628604 0.15964907 -0.06493672 0.028150335 -0.14356905 -0.17306967 0.019213023 0.017431736
-0.13607404 0.17361787 0.04987241 -0.13142882 0.011062406 0.04193599 0.0050682025 -0.10625878
-0.032385517 0.08384694 -0.0010775717 0.040394504 -0.18037373 -0.064635545 -0.019083729 -0.16432813
-0.015637306 -0.07715627 0.07985013 0.03471312 0.009259857 -0.13010935 -0.1304702 0.046244036
0.18529817 -0.13086559 -0.13744967 -0.09398188 -0.10153991 -0.012077361 -0.13476278 0.052244946
0.13341317 -0.08087522 0.09209836 0.07010843 -0.08659481 0.029884232 -0.07981697 -0.09134645
-0.086323716 -0.10383525 0.01419472 0.12083837 -0.040431097 -0.17556739 -0.17495528 -0.044627614
0.14875963 0.007407398 0.1766968 -0.03197687 -0.008325713 -0.19782639 0.11239465 0.027434818
-0.024479497 -0.09437008 -0.1357424 0.009125234 -0.037944652 -0.10915174 0.046764895 -0.0004920909
-0.021628296 -0.21580462 0.08116433 -0.07587225 -0.111493886 -0.04934341 -0.1962441 -0.18685439
0.11010019 0.16956535 -0.15445717 -0.010744935 -0.10461709 0.14092113 0.099634856 0.021121725
-0.18087018 -0.042063598 -0.02890836 -0.1540084 -0.04411797 0.036877293 -0.14179836 0.09543971
-0.02638843 -0.004031981 -0.072760515 -0.027176494 -0.046745867 -0.16100101 0.06897551 -0.04732281
0.11787565 0.036245808 -0.04986647 0.13407233 -0.111624226 -0.13173188 0.0116886385 0.0044403113
0.1470072 -0.028181434 0.068340994 -0.011851751 0.080823936 -0.14946556 -0.078133695 -0.0031780961
0.08277269 0.0050803614 -0.11039177 0.04547165 0.13440418 0.084355 0.06950413 -0.16904563
-0.12058038 0.0887056 0.17330468 -0.10684624 0.040447675 -0.045530014 0.10324082 -0.010263479
-0.15144007 -0.2041736 0.014390663 0.037952688 -0.10425668 0.13616198 0.064581275 0.0633876
0.1233872 -0.16550586 -0.025763338 0.04202352 0.15375532 -0.036149826 -0.14484653 0.07827223
-0.14845453 0.073186114 -0.0037307409 -0.044096332 0.11457886 0.07526991 -0.13117337 -0.010255911
-0.08837648 -0.045610923 -0.0393546 -0.058564294 0.114557065 -0.003337292 0.0933158 0.025187097
0.03747952 0.12495993 -0.14099233 -0.19960237 0.0383529 0.078046605 0.0740466 0.025540803
0.07815827 -0.03494991 0.076576486 -0.026877917 -0.03097917 -0.08607333 -0.13535935 -0.09513338
-0.07464264 -0.053519495 -0.12090676 0.1625355 0.0732354 -0.15591265 0.043605797 0.12631196
-0.021073626 0.070861764 0.020650513 -0.02778511 -0.11788932 -0.10076774 -0.12314517 0.18910334
-0.0856269 0.05806335 -0.00069019094 -0.045428336 0.043587692 -0.11302065 -0.001881981 0.088030145
00000000: d8b0 42be 3f2a f9bd eb51 2d3e 93f2 e63d
00000010: 764c 093e 2961 92bc d0f8 c13d cab2 26bd
00000020: 61b5 3bbd ea02 15be 9894 243d 15d5 aa3d
00000030: 70b3 36be 17f0 a63d 08ba 273d c409 3a3e
00000040: 3773 2abd 9e75 70bd cf51 1cbc b6df 183e
00000050: 72aa 87bd ebfe 933d c337 b3bd bed9 363e
00000060: 45fa 35be 59d1 bebd 73f8 46bd bc58 58bd
00000070: de9c 513d 18c1 e53d 8453 083e 821d 513d
00000080: 9ce6 17bd 7c11 143e f0b9 a8bc b0b7 c8bd
00000090: 2528 2b3d a992 9d3c f8cc 443e a725 783b
000000a0: e437 d23d 03ed 593d 76af d7bd 37c5 153d
000000b0: 0ff9 7abd 9465 aabd 04a6 7dbc f930 e1bd
000000c0: bcb6 b03d 0c7b 233e 8bfd 84bd 889b e63c
000000d0: c403 13be 2d39 31be a164 9d3c 00cd 8e3c
000000e0: fe56 0bbe e2c8 313e 0347 4c3d 4795 06be
000000f0: 183f 353c 13c5 2b3d 2a13 a63b 349e d9bd
00000100: ada6 04bd f2b7 ab3d 4e3d 8dba b574 253d
00000110: e4b3 38be a45f 84bd 7b55 9cbc a245 28be
00000120: cf19 80bc 1b04 9ebd 7788 a33d 582f 0e3d
00000130: a8b6 173c 633b 05be fb99 05be 636a 3d3d
00000140: cebe 3d3e a101 06be 9bbf 0cbe 9279 c0bd
00000150: 28f4 cfbd 20e0 45bc 41ff 09be ccfe 553d
00000160: 769d 083e e8a1 a5bd 119e bc3d 0295 8f3d
00000170: 9f58 b1bd c7cf f43c 1477 a3bd d913 bbbd
00000180: 7dca b0bd 93a7 d4bd f990 683c 1b7a f73d
00000190: 149b 25bd f0c7 33be 7a27 33be 72cb 36bd
000001a0: 7254 183e c2b9 f23b 02f0 343e 2efa 02bd
000001b0: 9268 08bc 0093 4abe 2b2f e63d fcbe e03c
000001c0: 3a89 c8bc 1a45 c1bd 0e00 0bbe 0182 153c
000001d0: da6b 1bbd f38a dfbd 8c8c 3f3d a9ff 00ba
000001e0: d32d b1bc e3fb 5cbe 7c39 a63d e962 9bbd
000001f0: e856 e4bd 511c 4abd 37f4 48be c256 3fbe
00000200: 357c e13d 8aa2 2d3e 052a 1ebe 860b 30bc
00000210: 7c41 d6bd a14d 103e 5c0d cc3d 7807 ad3c
00000220: 0836 39be e14a 2cbd 3ad1 ecbc 61b4 1dbe
00000230: 0bb5 34bd a50c 173d 9733 11be e575 c33d
00000240: 8c2c d8bc b51e 84bb 7703 95bd 3da1 debc
00000250: 9878 3fbd 73dd 24be 0843 8d3d 90d5 41bd
00000260: ca68 f13d 7c76 143d c940 4cbd 424a 093e
00000270: 3e9b e4bd b9e4 06be b481 3f3c 0880 913b
00000280: 0e89 163e c0dc e6bc 5df6 8b3d d92d 42bc
00000290: 0587 a53d 800d 19be 8f04 a0bd 9b47 50bb
000002a0: ba84 a93d 2979 a63b 1515 e2bd 7b40 3a3d
000002b0: 40a1 093e 50c2 ac3d 2e58 8e3d 4c1a 2dbe
000002c0: d9f2 f6bd 48ab b53d c876 313e 34d2 dabd
000002d0: 76ac 253d ae7d 3abd ec6f d33d 2728 28bc
000002e0: 1b13 1bbe e212 51be d1c6 6b3c 4774 1b3d
000002f0: 8784 d5bd 0c6e 0b3e 3043 843d 5cd1 813d
00000300: 6eb2 fc3d 5e7a 29be a30d d3bc db20 2c3d
00000310: 0972 1d3e d711 14bd a652 14be 314d a03d
00000320: 7704 18be 9ae2 953d 727f 74bb 5b9e 34bd
00000330: 52a8 ea3d 1c27 9a3d 5052 06be 6908 28bc
00000340: bafe b4bd 85d2 3abd 4a32 21bd 1de1 6fbd
00000350: e59c ea3d 78b6 5abb 5b1c bf3d 2c55 ce3c
00000360: 2084 193d feea ff3d 4b60 10be 9064 4cbe
00000370: ee17 1d3d e6d6 9f3d bea5 973d f23a d13c
00000380: 7111 a03d a327 0fbd 22d4 9c3d 142f dcbc
00000390: 07c8 fdbc 3747 b0bd a49b 0abe 4ad5 c2bd
000003a0: 3ede 98bd 4237 5bbd f79d f7bd b56f 263e
000003b0: 71fc 953d 91a7 1fbe fe9b 323d ec57 013e
000003c0: 99a2 acbc f91f 913d 442b a93c 999d e3bc
000003d0: f56f f1bd 515f cebd 8933 fcbd 4ea4 413e
000003e0: 285d afbd d6d3 6d3d eeed 34ba 1013 3abd
000003f0: 0289 323d 5f77 e7bd ceac f6ba 2649 b43d

cell.synapse.bias f4 [48]
0.00555791 -0.008108086 -0.09796016 -0.06302707 -0.051163025 0.03411447 0.05929045 0.057089787
-0.10025648 -0.011634156 -0.027571268 0.14255469 0.10121093 -0.11131206 -0.09399067 -0.12574606
-0.028905634 -0.12209402 0.05507306 -0.022630718 -0.07004941 0.0052104387 -0.05143772 0.11458619
0.15050247 -0.1476562 0.075644635 0.0022956533 0.07428383 -0.06454756 -0.0111822365 0.0049996325
0.05755047 0.076513685 0.06486069 0.006668434 -0.113410264 -0.088392206 -0.07231523 -0.13560371
0.12943326 -0.07602515 -0.0809483 -0.064087614 0.07801609 -0.104188636 -0.11440537 -0.113108
00000000: 211f b63b c7d7 04bc 569f c8bd 5614 81bd
00000010: 5290 51bd 9dbb 0b3d 8bda 723d fbd6 693d
00000020: 4553 cdbd 309d 3ebc 24dd e1bc dbf9 113e
00000030: ad47 cf3d 94f7 e3bd 2e7e c0bd 93c3 00be
00000040: 82cb ecbc 6e0c fabd 4a94 613d 0e64 b9bc
00000050: 1176 8fbd 54bc aa3b 5cb0 52bd 2aac ea3d
00000060: 521d 1a3e 3033 17be 93eb 9a3d ac72 163b
00000070: 1f22 983d 8331 84bd b335 37bc f5d3 a33b
00000080: 0bba 6b3d 35b3 9c3d aed5 843d e182 da3b
00000090: a443 e8bd f906 b5bd 021a 94bd b3db 0abe
000000a0: 278a 043e 13b3 9bbd 39c8 a5bd 5e40 83bd
000000b0: e6c6 9f3d da60 d5bd 5d4d eabd 2ba5 e7bd

cell.tau_net.0.weight f4 [32, 49]
-0.0047891643 -0.067177586 -0.07009415 -0.045586202 -0.082626976 0.07430823 0.030122694 0.06696504
-0.08676471 -0.12683874 0.09181306 0.02965543 -0.07699564 -0.09832516 0.049360182 -0.04511614
0.07057895 0.1423716 0.012474076 -0.019361136 -0.024794402 -0.14592525 0.16385342 0.09527305
-0.13179289 0.13078408 -0.009713393 0.12707436 0.10973564 0.03362865 -0.1271324 -0.16729127
0.19789799 0.15202911 -0.05775163 0.16123044 -0.23275425 0.14322507 0.15536681 0.045575768
0.015353694 -0.058938634 -0.11007197 0.03217576 0.11681167 0.091091424 -0.041842826 0.006153329
-0.07540009 -0.10226689 0.03274749 0.065765455 0.14772066 -0.06599923 -0.06049983 0.028757576
0.046509355 -0.16831303 -0.0057159523 0.049774326 0.08743906 0.003316396 -0.13451084 -0.116962895
-0.19439252 0.055979423 -0.087888315 0.16602191 -0.053071924 0.07476534 0.08361245 -0.028722797
-0.07503906 -0.017143888 -0.03365403 0.014286819 0.1387375 0.1506541 0.015953746 -0.142418
-0.1768201 -0.04699876 0.19278997 0.030578973 0.05441047 -0.08608803 -0.02953845 0.16563979
-0.09614144 -0.11758502 0.17981748 0.028806042 0.04614227 0.13867207 -0.12898172 -0.009786242
-0.10240936 0.017065354 0.0010634587 -0.11636785 0.21531756 0.03348804 0.13265373 0.0639256
-0.14838304 -0.021448418 -0.18356097 -0.057871446 -0.039455336 -0.039350897 0.0062711756 -0.15780267
-0.112893544 -0.17954032 0.0009874846 0.11105899 0.08376821 -0.08566548 0.15097119 0.07364345
0.023388688 0.18153103 0.0069639087 -0.020633455 -0.11668058 -0.030921133 0.11147582 0.12353528
-0.20371412 -0.11581937 0.059144158 0.1816167 -0.0086366525 0.055884287 -0.059481636 -0.028002843
0.000288093 -0.10663061 -0.10055749 0.0077082478 -0.053549454 -0.051191274 -0.029451363 0.028623914
0.037654117 -0.096444786 -0.016016476 -0.12815973 -0.104406044 0.036558606 0.0059963684 0.0857881
-0.013981898 -0.051489446 0.03807357 0.09196264 0.063035734 -0.051994484 0.03249595 -0.037106175
-0.03621546 0.005152861 -0.1446204 -0.08513278 -0.11949995 -0.010796371 -0.15963495 0.10522796
-0.17370318 -0.026358785 -0.08121813 0.08395387 0.04421279 0.035223905 0.027628168 0.1468653
-0.023736635 -0.15253189 0.06724451 -0.061835576 -0.0017733544 0.16280973 0.050584305 -0.060644995
0.18047373 -0.0796862 -0.09245184 0.0061989333 0.0013199224 -0.05606912 -0.08056451 0.027372645
0.074638024 -0.10113618 -0.00047442882 0.10827347 0.11420209 0.083309956 0.111854754 -0.020429524
0.034074042 -0.029112985 -0.1452736 0.13331616 -0.15516262 -0.13397154 -0.0292388 -0.117865354
-0.11353039 -0.09140492 -0.014467426 -0.1985568 -0.14803725 -0.03848672 -0.083718315 0.005373668
0.048209332 -0.016472295 0.16807441 -0.06298234 -0.062849075 0.114864185 0.06032042 0.124981806
-0.004222653 0.03443164 -0.17029123 -0.12622145 -0.03479451 -0.06833901 -0.03598423 -0.057840217
-0.0024717427 0.06452884 0.0062056812 -0.065007456 -0.036716502 0.105832875 -0.15849754 0.082984716
0.09737307 -0.05946724 0.04187828 -0.04499561 -0.071485795 0.08029128 -0.019419786 0.17883544
-0.011296175 -0.07842339 0.16120563 0.0049839136 0.12416676 -0.10019992 -0.009214232 -0.058391035
00000000: 6cee 9cbb 6794 89bd 868d 8fbd 99b8 3abd
00000010: 5538 a9bd ea2e 983d dec3 f63c f824 893d
00000020: b2b1 b1bd 04e2 01be 7c08 bc3d f2ef f23c
00000030: e4af 9dbd b45e c9bd e72d 4a3d b4cb 38bd
00000040: b28b 903d dcc9 113e 1160 4c3c 3f9b 9ebc
00000050: a11d cbbc 6e6d 15be 31c9 273e 841e c33d
00000060: b7f4 06be 43ec 053e ec24 1fbc c81f 023e
00000070: 14bd e03d 32be 093d ff2e 02be 674e 2bbe
00000080: c5a5 4a3e 85ad 1b3e f98c 6cbd 9819 253e
00000090: 2157 6ebe 98a9 123e 7a18 1f3e a8ad 3a3d
000000a0: 0f8e 7b3c a369 71bd 6a6d e1bd bbca 033d
000000b0: f53a ef3d 248e ba3d 6263 2bbd dda1 c93b
000000c0: 5d6b 9abd 4e71 d1bd 3b22 063d 0ab0 863d
000000d0: 1644 173e 9b2a 87bd abce 77bd 0295 eb3c
000000e0: 9880 3e3d 405a 2cbe e24c bbbb 2ae0 4b3d
000000f0: 4013 b33d e457 593b 36bd 09be 3e8a efbd
00000100: d50e 47be ae4a 653d cafe b3bd a601 2a3e
00000110: f261 59bd 921e 993d 013d ab3d 124c ebbc
00000120: 14ae 99bd 5771 8cbc cfd8 09bd 4313 6a3c
00000130: 3411 0e3e 1245 1a3e 6eb1 823c 06d6 11be
00000140: 5410 35be c681 40bd bc6a 453e c180 fa3c
00000150: 83dd 5e3d ec4e b0bd 9ffa f1bc 7a9d 293e
00000160: cee5 c4bd 6ad0 f0bd 1322 383e a6fa eb3c
00000170: adff 3c3d 0d00 0e3e c913 04be 7956 20bc
00000180: 00bc d1bd a4cc 8b3c c163 8b3a 4452 eebd
00000190: 357c 5c3e c12a 093d 61d6 073e 6deb 823d
000001a0: b9f1 17be 98b4 afbc 68f7 3bbe 9c0a 6dbd
000001b0: eb9b 21bd 682e 21bd 6f7e cd3b 0697 21be
000001c0: bb34 e7bd 6bd9 37be 7c6e 813a e572 e33d
000001d0: ab8e ab3d 6271 afbd 3198 1a3e 61d2 963d
000001e0: a299 bf3c 45e3 393e 8031 e43b 7e07 a9bc
000001f0: 3af6 eebd 514e fdbc 6f4d e43d 1100 fd3d
00000200: 6f9a 50be b532 edbd 2541 723d baf9 393e
00000210: bf80 0dbc ece6 643d 04a3 73bd 3866 e5bc
00000220: 300b 9739 2661 dabd 16f1 cdbd 7895 fc3b
00000230: ac56 5bbd f1ad 51bd fc43 f1bc b37c ea3c
00000240: 343b 1a3d d884 c5bd fc34 83bc 4e3c 03be
00000250: d6d2 d5bd 7abe 153d 2f7d c43b acb1 af3d
00000260: 5514 65bc 99e6 52bd 08f3 1b3d e956 bc3d
00000270: e118 813d 2bf8 54bd 791a 053d a5fc 17bd
00000280: aa56 14bd 55d9 a83b 5f17 14be 185a aebd
00000290: 64bc f4bd 43e3 30bc 5877 23be c281 d73d
000002a0: 3fdf 31be 61ee d7bc b155 a6bd 02f0 ab3d
000002b0: 7818 353d f146 103d 7854 e23c db63 163e
000002c0: 5573 c2bc 5231 1cbe 7db7 893d 4d47 7dbd
000002d0: e66f e8ba 98b7 263e 7d31 4f3d e366 78bd
000002e0: 1bce 383e 8532 a3bd 6457 bdbd 6c20 cb3b
000002f0: 3f01 ad3a bca8 65bd 01ff a4bd 993c e03c
00000300: d2db 983d 7c20 cfbd c2bc f8b9 7bbe dd3d
00000310: c9e2 e93d 699e aa3d 1b14 e53d d15b a7bc
00000320: 3991 0b3d 5b7e eebc 9ac2 14be 0884 083e
00000330: f3e2 1ebe d62f 09be 3586 efbc 6463 f1bd
00000340: 9f82 e8bd 8132 bbbd c808 6dbc 7952 4bbe
00000350: 1497 17be 40a4 1dbd 8274 abbd 9815 b03b
00000360: 2677 453d e8f0 86bc b31b 2c3e e3fc 80bd
00000370: 04b7 80bd ea3d eb3d 8b12 773d 76f6 ff3d
00000380: 2e5e 8abb 3108 0d3d d360 2ebe 3240 01be
00000390: b084 0ebd 53f5 8bbd 3364 13bd dde9 6cbd
000003a0: f6fc 21bb b227 843d 0759 cb3b a122 85bd
000003b0: 0b64 16bd e8be d83d 2e4d 22be e4f3 a93d
000003c0: 886b c73d ec93 73bd 8f88 2b3d 514d 38bd
000003d0: 2567 92bd c16f a43d 3e16 9fbc a320 373e
000003e0: 9813 39bc 719c a0bd 1713 253e 1950 a33b
000003f0: 244b fe3d 9e35 cdbd 4af7 16bc 702b 6fbd

cell.tau_net.0.bias f4 [32]
-0.0629792 -0.059590545 0.004556943 -0.14221962 -0.17035706 -0.17382161 0.025317283 0.087362975
-0.16810767 0.077229716 0.010017459 -0.104107365 0.043166768 0.04811451 0.05972691 0.17972767
0.02245421 -0.011695719 -0.09346577 0.14876816 0.17653617 0.043442685 -0.15713297 0.16932558
-0.048357505 -0.1475867 -0.16827367 0.006792782 -0.00064996374 -0.047240596 -0.17074285 0.13867053
00000000: 3dfb 80bd 3715 74bd 6952 953b 05a2 11be
00000010: 1572 2ebe 4bfe 31be 3166 cf3c 5ceb b23d
00000020: 6b24 2cbe 9d2a 9e3d 4520 243c 3e36 d5bd
00000030: a3cf 303d b813 453d 34a4 743d 880a 383e
00000040: e4f1 b73c 679f 3fbc fb6a bfbd ae56 183e
00000050: e6c5 343e f5f0 313d 77e7 20be af63 2d3e
00000060: 8512 46bd f820 17be ef4f 2cbe fc95 de3b
00000070: 5462 2aba 5b7f 41bd 37d7 2ebe a6ff 0d3e

cell.tau_net.2.weight f4 [48, 32]
-0.06399007 0.13549076 -0.005123181 0.09561924 -0.11781593 -0.16768622 0.10621686 0.13117383
0.10386044 0.039250202 -0.14355391 -0.169295 -0.030770488 0.05049568 -0.019101534 0.22895066
-0.09282095 0.0074956696 0.035423443 0.12926024 0.08819211 0.11055306 -0.18251 -0.09564609
0.06666265 -0.20516454 -0.20004901 -0.12995143 0.13131446 -0.18622065 0.050517313 0.16428748
-0.077763386 -0.21073662 -0.2132301 -0.23750144 -0.0029945413 -0.22180134 -0.11650284 0.13020588
-0.12724052 -0.006545676 -0.23108694 0.198871 -0.19297574 0.009831503 -0.045380075 0.2253646
-0.13949043 -0.17165096 -0.006890982 0.088048644 0.254331 0.16695294 -0.12331887 -0.010979982
-0.102086216 -0.0651851 -0.04577502 0.090934604 -0.27726218 0.057848487 -0.039826106 0.21570197
0.049373697 -0.043761 -0.18220046 -0.06932969 0.13803913 -0.17580242 -0.14294796 0.20310241
-0.051722117 -0.060637217 -0.020040011 0.061384927 -0.00051780563 0.17952089 0.04292116 -0.031699795
-0.09394253 -0.0485435 -0.06536926 0.16462934 0.124909595 0.16025239 0.099383354 0.19096296
-0.14269204 -0.08522627 -0.042670615 0.10096343 -0.031713516 0.044810515 -0.049398504 -0.13176195
-0.08271224 -0.092444584 -0.16490246 0.089141056 -0.23502682 -0.25226268 -0.20422639 -0.05575833
-0.12710685 -0.13813078 0.058851898 0.14019807 0.022729041 0.24871458 -0.045402233 -0.006273763
0.09894363 0.03605521 -0.053461447 0.19661112 0.14301583 0.08122273 -0.16082583 0.163034
-0.08124266 0.06678145 -0.19010827 -0.20162427 0.030967163 -0.08670923 -0.1551213 0.06639626
-0.24722117 -0.100422755 -0.0760443 -0.11143827 -0.09536866 -0.20452599 -0.09897662 0.06395115
-0.25087917 -0.16823785 0.06662104 -0.12813821 -0.08991668 -0.003902412 0.2631061 0.22183894
0.025538726 -0.17854239 -0.23726821 0.067202106 0.19084021 0.11951398 -0.1915306 -0.07234268
0.21561654 -0.055535823 0.048570164 -0.21053366 -0.07108524 0.18598369 -0.27252167 -0.09181426
-0.234364 -0.14714564 -0.063373394 0.018077603 -0.16798776 0.02218969 0.107690364 0.21395345
-0.231729 0.053472247 0.06190469 0.1362869 -0.20261623 0.051917512 0.009636026 0.04048601
-0.016177047 -0.04233738 -0.022448478 -0.016477318 0.017336495 0.11833769 -0.17375393 0.12131383
-0.052494295 0.067574896 -0.10278525 0.023289409 -0.02070087 0.04190312 0.06409736 -0.000704702
0.087634735 -0.14382775 -0.046930972 -0.14276893 -0.005764506 -0.24050668 0.0049856496 -0.018611318
0.12969652 0.1495545 0.061066635 -0.14250675 0.036601786 -0.05754919 0.081947684 -0.04819407
0.053719886 -0.08571918 -0.006319239 0.123601735 0.16639149 0.1860908 -0.08089493 -0.06318737
0.12274838 -0.123102576 -0.042302333 -0.035086002 0.0959131 0.13645925 -0.07762192 -0.053965576
0.05081036 -0.010944753 -0.19898409 -0.11783247 -0.23561299 -0.13368915 -0.24023138 -0.049648482
-0.22658457 -0.081371345 -0.028746678 -0.10706846 -0.12226548 0.14411725 0.14663859 0.100248024
-0.17936921 -0.12233226 -0.027942602 -0.053669084 -0.006295164 0.14918436 -0.10118585 0.22931819
0.117046975 -0.022804858 -0.19292411 -0.10091351 -0.14578038 -0.024772227 -0.13578027 0.19951613
00000000: 3a0d 83bd 17be 0a3e 5be0 a7bb 05d4 c33d
00000010: 7a49 f1bd f0b5 2bbe 3a88 d93d 6f52 063e
00000020: c8b4 d43d d2c4 203d ccff 12be ab5b 2dbe
00000030: 6412 fcbc 8fd4 4e3d d27a 9cbc 0b72 6a3e
00000040: e918 bebd 3c9e f53b 2c18 113d cc5c 043e
00000050: 119e b43d a569 e23d e7e3 3abe 19e2 c3bd
00000060: 6d86 883d a716 52be a6d9 4cbe fd11 05be
00000070: 4c77 063e a0b0 3ebe 3eeb 4e3d fa3a 283e
00000080: 6942 9fbd 57cb 57be fe58 5abe 9433 73be
00000090: 1140 44bb e41f 63be 0a99 eebd b154 053e
000000a0: 574b 02be 1c7d d6bb 0ea2 6cbe d7a4 4b3e
000000b0: 6f9b 45be 5014 213c 75e0 39bd fac5 663e
000000c0: 94d6 0ebe 45c5 2fbe bfcd e1bb d952 b43d
000000d0: ac37 823e b6f5 2a3e 9b8e fcbd 62e5 33bc
000000e0: 9412 d1bd c47f 85bd 967e 3bbd ec3b ba3d
000000f0: 4ff5 8dbe 89f2 6c3d b320 23bd fae0 5c3e
00000100: 133c 4a3d bc3e 33bd c292 3abe b9fc 8dbd
00000110: 215a 0d3e 8d05 34be f360 12be 14fa 4f3e
00000120: 92da 53bd bb5e 78bd f32a a4bc c36e 7b3d
00000130: 59bd 07ba 53d4 373e 19ce 2f3d a5d7 01bd
00000140: f164 c0bd 8dd5 46bd 52e0 85bd 9894 283e
00000150: 9ad0 ff3d 3419 243e 8089 cb3d cb8b 433e
00000160: dd1d 12be 1c8b aebd 62c7 2ebd eac5 ce3d
00000170: 08e6 01bd 3b8b 373d 1656 4abd 9bec 06be
00000180: 0965 a9bd 9653 bdbd 31dc 28be 968f b63d
00000190: dfaa 70be 9328 81be b920 51be d962 64bd
000001a0: 4c28 02be 2872 0dbe b00e 713d 1590 0f3e
000001b0: 4132 ba3c 09af 7e3e b1f7 39bd 2394 cdbb
000001c0: f5a2 ca3d a1ae 133d 64fa 5abd 6d54 493e
000001d0: be72 123e 1a58 a63d 87af 24be 63f2 263e
000001e0: 8d62 a6bd b6c4 883d beab 42be 9876 4ebe
000001f0: d9ae fd3c 9c94 b1bd 1ed8 1ebe c3fa 873d
00000200: 8c27 7dbe 72aa cdbd 1dbd 9bbd bf39 e4bd
00000210: a550 c3bd 436f 51be 41b4 cabd d2f8 823d
00000220: 3c73 80be 8b46 2cbe 9d70 883d aa36 03be
00000230: 3c26 b8bd 9cbf 7fbb d8b5 863e bf29 633e
00000240: 9736 d13c d1d3 36be 70f6 72be 42a1 893d
00000250: 9e6b 433e bfc3 f43d 9920 44be 6628 94bd
00000260: 95ca 5c3e 8879 63bd 82f1 463d 2396 57be
00000270: 2395 91bd 8272 3e3e f687 8bbe 1d09 bcbd
00000280: 1efd 6fbe 59ad 16be e9c9 81bd 7b17 943c
00000290: fc04 2cbe 27c7 b53c c48c dc3d 9d16 5b3e
000002a0: 5e4a 6dbe b705 5b3d c68f 7d3d cb8e 0b3e
000002b0: a17a 4fbe 75a7 543d 6ce0 1d3c a9d4 253d
000002c0: ba85 84bc f669 2dbd dfe5 b7bc 71fb 86bc
000002d0: 4405 8e3c 085b f23d 8dec 31be 6373 f83d
000002e0: 4204 57bd b564 8a3d 1381 d2bd 6ec9 be3c
000002f0: df94 a9bc 9ba2 2b3d 7a45 833d c0bb 38ba
00000300: d779 b33d 9547 13be b13a 40bd 0532 12be
00000310: 2ee4 bcbb 6247 76be a95e a33b c376 98bc
00000320: 2acf 043e d124 193e 0221 7a3d 4aed 11be
00000330: c1eb 153d b3b8 6bbd 30d4 a73d 2567 45bd
00000340: 6209 5c3d 8a8d afbd 9e11 cfbb e822 fd3d
00000350: 8862 2a3e 968e 3e3e 3eac a5bd 6168 81bd
00000360: 8163 fb3d 341d fcbd 3645 2dbd 57b6 0fbd
00000370: 166e c43d f9bb 0b3e 3ef8 9ebd 020b 5dbd
00000380: 861e 503d 9f51 33bc 7cc2 4bbe 2652 f1bd
00000390: 8844 71be cfe5 08be 37ff 75be 355c 4bbd
000003a0: c905 68be 05a6 a6bd 277e ebbc b546 dbbd
000003b0: 5366 fabd 7993 133e 6d28 163e d64e cd3d
000003c0: 90ac 37be 5689 fabd e2e7 e4bc 1dd4 5bbd
000003d0: aa47 cebb c9c3 183e 873a cfbd 63d2 6a3e
000003e0: 53b6 ef3d 41d1 babc e68d 45be beab cebd
000003f0: 7447 15be 20ef cabc fc09 0bbe f54d 4c3e

cell.tau_net.2.bias f4 [48]
-0.022613429 0.21740516 -0.1332912 0.08127002 -0.050225865 0.07730578 0.21827078 0.051301535
0.06678042 -0.01804314 -0.010438407 -0.119783714 0.13953555 -0.00021761865 0.12271539 -0.079959
-0.071283884 -0.12586774 -0.07047621 0.03348312 0.0055438248 0.14583799 -0.010000551 0.2210217
-0.015825981 -0.14030823 0.18256587 -0.032452315 0.10728525 -0.0037506914 0.03510672 0.09412358
-0.12215774 0.17824112 -0.07604765 0.14413226 -0.056164786 0.000887707 0.008472593 -0.012880343
-0.053569164 -0.08699406 -0.1341056 0.023570996 0.0015901679 0.009661258 0.062285587 0.0076165022
00000000: cc3f b9bc 759f 5e3e 7d7d 08be e570 a63d
00000010: a3b9 4dbd 7e52 9e3d 6082 5f3e 8f21 523d
00000020: 2cc4 883d 35cf 93bc da05 2bbc 2a51 f5bd
00000030: 68e2 0e3e 9030 64b9 3552 fb3d 8bc1 a3bd
00000040: 49fd 91bd 79e3 00be d555 90bd 9925 093d
00000050: f9a8 b53b 8e56 153e 5ad9 23bc 8353 623e
00000060: 7da5 81bc f6ac 0fbe 8cf2 3a3e b8ec 04bd
00000070: 5fb8 db3d 29ce 75bb 10cc 0f3d ddc3 c03d
00000080: d62d fabd d784 363e dfbe 9bbd 6897 133e
00000090: 0c0d 66bd 02b5 683a a1d0 0a3c 1308 53bc
000000a0: 576b 5bbd f129 b2bd fa52 09be f617 c13c
000000b0: 2e6d d03a 414a 1e3c 2c1f 7f3d da93 f93b

classifier.0.weight f4 [32, 48]
0.007506056 -0.2039463 -0.05209509 -0.06747819 -0.0579494 0.13783833 -0.023804959 0.04139007
-0.017871786 -0.17170592 -0.14648522 0.21546294 0.026974155 -0.119371384 0.0502342 0.12817477
-0.007779374 -0.18257193 -0.1921585 -0.044630293 0.13254276 -0.24534465 -0.2536009 0.11814842
-0.11577631 -0.018131377 -0.12088208 -0.28031334 -0.14478731 0.07862626 0.13687302 -0.124461986
-0.15073915 0.007192039 -0.13506705 0.17468071 -0.06164177 -0.17162906 0.001780133 -0.035855375
-0.062453575 0.1655441 0.16443627 -0.17561503 0.24944611 0.15932807 0.083822876 -0.1480935
0.10817858 -0.29050723 -0.008265431 -0.11272662 -0.07224556 0.22734118 -0.18487607 0.15253979
0.22018652 -0.25163323 -0.031145666 0.17951971 0.06456219 -0.11786429 0.135236 0.16373292
0.061683092 -0.06767729 -0.02089963 0.057999805 0.20028445 -0.09334805 -0.3127575 0.22622716
0.045849863 0.058016807 -0.09656132 -0.16565955 -0.14747764 0.17767227 0.15672359 -0.27809718
-0.09578093 -0.20167871 -0.043262016 0.1789652 -0.19079092 -0.07263697 0.10833799 0.013129483
0.024561577 0.2198226 0.17808494 -0.21680261 0.02933543 -0.092210226 0.20183364 0.009217268
-0.16605772 0.18846983 0.1283711 0.05090189 0.116129145 -0.21439597 0.01861699 -0.069937095
0.026909813 0.024790507 0.16497335 -0.113295145 -0.22068751 -0.094164476 -0.089124605 -0.12906107
-0.08915348 0.15911509 -0.035190657 0.043454923 -0.09713381 0.17023306 0.086259186 -0.13662438
0.116476834 -0.025345983 0.14702432 0.23839341 -0.0023122104 0.054021344 -0.20112841 0.0869485
0.19669372 -0.063335255 0.015462453 -0.24594247 0.23817103 0.13495667 0.1084296 -0.1836371
-0.04584427 0.004715572 -0.12146812 -0.044548474 -0.22166704 0.003829787 -0.15919825 0.071520135
0.222042 -0.14312291 -0.08697926 -0.21745782 -0.11649533 0.1043641 -0.041306216 0.05738945
-0.039278626 -0.17336532 -0.012003728 -0.012606292 0.08771684 -0.034016743 -0.022692924 0.028675541
0.18139705 0.015485098 -0.04898943 -0.09194959 -0.005486566 -0.13554701 -0.15158261 0.17514771
-0.023077827 -0.08177063 -0.08404025 -0.23740672 0.047813244 0.051708907 0.05255957 -0.038972672
-0.224172 -0.110053524 -0.028542494 0.18330081 0.032303445 -0.13079672 -0.09527405 0.065802634
-0.12554128 0.20612489 -0.013229489 -0.11957198 0.07366138 0.13822283 0.11170336 -0.14332311
0.13939705 -0.093345165 -0.10106401 -0.051603045 -0.24141537 0.031795572 0.0077190157 0.2625255
0.10842243 -0.20090714 -0.07960075 -0.012773583 -0.0334929 -0.096974835 0.033074886 0.081741065
0.09587584 0.029689211 -0.031917185 0.06962611 -0.007394175 -0.15752174 -0.12034995 0.15992741
-0.014461566 0.20325845 -0.14591363 -0.00093205844 -0.053141102 0.092980936 0.10856681 -0.23049062
-0.039771 -0.05240382 0.042898618 0.19760048 -0.21629807 -0.01074707 0.0284716 -0.043949664
0.07066305 0.075589634 0.058788944 -0.06331422 0.03688252 0.105235755 0.11986078 0.07496039
0.07458356 -0.22952461 -0.04129158 -0.13874285 -0.095191315 -0.014789838 0.05253031 0.037716
0.043225236 -0.10130563 -0.18186896 0.16089249 -0.032145713 -0.033417467 -0.05237601 0.12665156
00000000: 5df5 f53b 4dd7 50be a961 55bd 0132 8abd
00000010: 5a5c 6dbd 7e25 0d3e 9e02 c3bc a288 293d
00000020: da67 92bc add3 2fbe 3900 16be 51a2 5c3e
00000030: e7f8 dc3c fc78 f4bd 60c2 4d3d 3f40 033e
00000040: 1eea febb 23f4 3abe 33c5 44be 41ce 36bd
00000050: 4ab9 073e a13b 7bbe fad7 81be ccf7 f13d
00000060: 211c edbd 4188 94bc 0691 f7bd 3b85 8fbe
00000070: 2043 14be ce06 a13d 7128 0c3e ede5 febd
00000080: 5d5b 1abe 32ab eb3b 044f 0abe 80df 323e
00000090: 157c 7cbd 87bf 2fbe 5a53 e93a 16dd 12bd
000000a0: 52cf 7fbd 6484 293e fb61 283e 6dd4 33be
000000b0: cd6e 7f3e e626 233e 54ab ab3d d3a5 17be
000000c0: bb8c dd3d 5dbd 94be bb6b 07bc 37dd e6bd
000000d0: 7bf5 93bd 20cc 683e 2750 3dbe 6433 1c3e
000000e0: 9378 613e 12d6 80be 3225 ffbc 04d4 373e
000000f0: 2e39 843d d562 f1bd 4e7b 0a3e 9aa9 273e
00000100: 69a7 7c3d 649a 8abd b335 abbc 3491 6d3d
00000110: 5e17 4d3e 432d bfbd c021 a0be 18a8 673e
00000120: 11cd 3b3d 08a3 6d3d f1c1 c5bd a8a2 29be
00000130: 6104 17be b8ef 353e 267c 203e c162 8ebe
00000140: cb28 c4bd dd84 4ebe 8333 31bd a742 373e
00000150: b25e 43be b1c2 94bd 4fe0 dd3d 0b1d 573c
00000160: 5c35 c93c 2d19 613e e65b 363e 8101 5ebe
00000170: db50 f03c b7d8 bcbd 7aad 4e3e 0604 173c
00000180: 090b 2abe 3cfe 403e b773 033e 807e 503d
00000190: 1ed5 ed3d 9e8a 5bbe a882 983c 2e3b 8fbd
000001a0: f871 dc3c 7615 cb3c c6ee 283e 4907 e8bd
000001b0: e8fb 61be 4ed9 c0bd f686 b6bd 9628 04be
000001c0: 1a96 b6bd 11ef 223e 1424 10bd cafd 313d
000001d0: 17ee c6bd 9351 2e3e a8a8 b03d 43e7 0bbe
000001e0: 688b ee3d 61a2 cfbc 8b8d 163e 671d 743e
000001f0: 7488 17bb 7c45 5d3d 9bf4 4dbe 0e12 b23d
00000200: 146a 493e eab5 81bd 3a56 7d3c 58d8 7bbe
00000210: 1be3 733e 1532 0a3e 5710 de3d 5d0b 3cbe
00000220: 34c7 3bbd 1685 9a3b 47c4 f8bd 7678 36bd
00000230: affc 62be 2afd 7a3b de04 23be 2679 923d
00000240: fa5e 633e d08e 12be 2f22 b2bd 43ad 5ebe
00000250: 1b95 eebd d8bc d53d b530 29bd 3311 6b3d
00000260: a0e2 20bd ae86 31be 49ab 44bc 9f8a 4ebc
00000270: e3a4 b33d 2455 0bbd 83e6 b9bc f8e8 ea3c
00000280: 26c0 393e 35b5 7d3c 24a9 48bd 1150 bcbd
00000290: a7c8 b3bb d6cc 0abe 7938 1bbe ec59 333e
000002a0: b60d bdbc 5c77 a7bd 4b1d acbd bf1a 73be
000002b0: d2d7 433d b8cc 533d b448 573d cfa1 1fbd
000002c0: 588d 65be be63 e1bd f3d1 e9bc 35b3 3b3e
000002d0: 9e50 043d 93ef 05be 0b1f c3bd 88c3 863d
000002e0: e58d 00be 6712 533e 80c0 58bc 27e2 f4bd
000002f0: c7db 963d 498a 0d3e bbc4 e43d 4bc3 12be
00000300: 1abe 0e3e c02b bfbd a6fa cebd b75d 53bd
00000310: 9735 77be 133c 023d ccef fc3b be69 863e
00000320: 940c de3d 9aba 4dbe b805 a3bd 4a48 51bc
00000330: da2f 09bd be9a c6bd 8879 073d dc67 a73d
00000340: 8d5a c43d ca36 f33c 98bb 02bd 2298 8e3d
00000350: d64a f2bb 614d 21be 097a f6bd 03c4 233e
00000360: 34f0 6cbc fc22 503e 626a 15be 6255 74ba
00000370: 7caa 59bd ca6c be3d 4758 de3d bc05 6cbe
00000380: ebe6 22bd 63a5 56bd 76b6 2f3d c857 4a3e
00000390: 3e7d 5dbe 7b14 30bc 463d e93c 9004 34bd
000003a0: cab7 903d bdce 9a3d adcc 703d e3aa 81bd
000003b0: 2012 173d d885 d73d 9279 f53d d584 993d
000003c0: 44bf 983d 8008 6bbe 5c21 29bd 9b12 0ebe
000003d0: aaf3 c2bd 1451 72bc 062a 573d 187c 1a3d
000003e0: f20c 313d 5379 cfbd db3b 3abe 00c1 243e
000003f0: 39ab 03bd c1e0 08bd 3a88 56bd f2b0 013e

classifier.0.bias f4 [32]
-0.03042296 0.12521313 0.075111926 0.013975359 -0.112167545 0.019749632 -0.087275214 -0.061574016
0.0785296 0.012135088 0.009351913 -0.011196499 0.1464005 0.063884266 -0.05118469 0.16738074
-0.06314787 0.13988729 0.1126065 0.029624986 -0.11853369 0.0042955275 -0.07784075 -0.10895309
-0.050546817 -0.009005008 -0.118267626 -0.037602466 -0.052683946 -0.10252546 -0.087314256 -0.07288112
00000000: 9239 f9bc df37 003e 48d4 993d e7f8 643c
00000010: 19b8 e5bd fbc9 a13c 59bd b2bd 0935 7cbd
00000020: 20d4 a03d 40d2 463c c438 193c 8571 37bc
00000030: 03ea 153e c1d5 823d 0aa7 51bd db65 2b3e
00000040: ac53 81bd 9d3e 0f3e 3d9e e63d 19b0 f23c
00000050: cbc1 f2bd 7fc1 8c3b f96a 9fbd cc22 dfbd
00000060: 2e0a 4fbd be89 13bc 4c36 f2bd 0b05 1abd
00000070: 1fcb 57bd def8 d1bd d1d1 b2bd b242 95bd

classifier.3.weight f4 [1, 32]
0.10528565 0.12757131 -0.19493112 0.31459984 0.1643472 0.20542902 0.18347041 -0.19476683
0.122118 0.19574337 -0.24597852 0.25757986 -0.20326379 -0.15261352 -0.26937643 -0.21627776
0.25797462 -0.23692098 0.22918215 0.18342851 0.26068312 -0.1957859 -0.23959175 0.23278397
-0.19779088 -0.122952305 0.24126546 -0.17163454 -0.17834207 0.1927214 0.24224189 0.10269713
00000000: 01a0 d73d 0ea2 023e 069c 47be 3b13 a13e
00000010: a24a 283e fc5b 523e abdf 3b3e f570 47be
00000020: 0119 fa3d f370 483e cbe1 7bbe 82e1 833e
00000030: 6224 50be b846 1cbe b5eb 89be eb77 5dbe
00000040: 4015 843e 6a9b 72be baae 6a3e afd4 3b3e
00000050: 4278 853e 197c 48be 8a57 75be ec5e 6e3e
00000060: b189 4abe 6bce fbbd 4b0e 773e f7c0 2fbe
00000070: 4e9f 36be c258 453e 420e 783e df52 d23d
