lnn/stage1_pi_hlnn_no_fp_best.pt (torch, 80013 bytes, 31 tensors)

cell_los.gleak f4 [32]
000000 20 53 95 3d 6c f2 ad 3e c6 2b 7b 3e b9 99 09 3f
       0.072912455 0.33974016 0.24528417 0.5375019
000010 b4 65 86 bd ed ff 6f 3e e8 73 a5 bd c6 ff 11 be
       -0.06562367 0.23437472 -0.08078748 -0.14257726
000020 ac 5a f0 bd 77 2a 95 3e 69 7f ed 3e 44 bc e1 3e
       -0.11736044 0.2913396 0.4638627 0.44088948
000030 bf 06 fb 3e 21 b4 0e 3e 53 f8 a8 3d 21 fb 84 3e
       0.49028584 0.13935901 0.08250489 0.25972846
000040 a4 68 b7 bd 7a 3e e7 3e 16 86 f4 3e b0 d8 c8 3e
       -0.089555055 0.45164853 0.4775855 0.3922782
000050 3e 0a 8b bd 60 ee 2e 3f 27 4e 53 3f 6e c7 ea bd
       -0.06789063 0.6833248 0.82541126 -0.114638194
000060 4a e2 08 3c c1 aa b8 3e ba 19 16 3f d0 30 52 3e
       0.008354733 0.36067775 0.58633006 0.20526433
000070 9b fe 79 3d 4b 08 89 3e 05 e8 4e 3e 6f ee ee 3d
       0.061033826 0.2676414 0.20205696 0.11666571

cell_los.vleak f4 [32]
000000 6c a0 60 bd ac 16 77 bc 4b 73 f5 3c 0b f0 11 3e
       -0.05484049 -0.015081089 0.029962203 0.14251725
000010 30 dc cc bd af 6d bb 3c 33 45 05 3e 61 26 21 be
       -0.10002935 0.02287945 0.13014679 -0.15737297
000020 f9 9b 97 3d ac 11 9a 3d ad 74 0a be ef 3f f5 3d
       0.07402796 0.07522902 -0.13521071 0.11975085
000030 54 45 06 be 26 dd 12 be c1 db d1 3d f3 02 5c 3d
       -0.13112384 -0.14342174 0.10246993 0.05371375
000040 6d 53 8b bd d3 d0 55 be 09 10 5b 3d ca 69 d4 3c
       -0.068030216 -0.20880441 0.05348209 0.02592935
000050 98 1e 3e be 42 71 60 bd 16 12 f1 3d d4 03 95 3d
       -0.18566358 -0.05479551 0.11771028 0.07276121
000060 a3 28 23 be 46 95 0b bd d3 ec 0c be fa 39 fc 3c
       -0.1593347 -0.034077905 -0.13762216 0.030789364
000070 7a 61 98 3d 80 71 8c bd 25 a9 46 be 57 b1 5b be
       0.07440467 -0.06857586 -0.19400461 -0.21454369

cell_los.cm f4 [32]
000000 7a 3a 44 3f d7 08 20 3f 2a f5 05 3f b7 40 22 3f
       0.7665173 0.6251349 0.52327216 0.63379997
000010 df c4 32 3f 1b a0 28 3f 83 47 23 3f 05 97 17 3f
       0.6983165 0.658693 0.63780993 0.5921481
000020 98 d2 c6 3e c8 37 09 3f f3 30 1c 3f c2 3a 32 3f
       0.38832545 0.5360074 0.6101219 0.6962091
000030 ef cf 2c 3f 87 ff 25 3f 96 7a 1c 3f 48 7e 26 3f
       0.6750478 0.6484303 0.6112455 0.6503644
000040 f5 c9 1e 3f 86 cc fe 3e 6d 35 31 3f 2f 22 16 3f
       0.6202691 0.49765414 0.69222146 0.5864591
000050 ef 81 13 3f c9 6e 1f 3f a5 dc 4d 3f 70 57 44 3f
       0.5762014 0.6227842 0.804148 0.7669592
000060 2d 8b 2e 3f 21 56 1a 3f bc dc 13 3f cc e3 14 3f
       0.68181115 0.6028767 0.5775869 0.5816009
000070 c3 74 0b 3f b9 6e ea 3e f8 61 28 3f d1 c3 23 3f
       0.5447504 0.457876 0.6577449 0.6397067

cell_los.w f4 [32, 32]
000000 10 8c 77 3f 94 f8 43 3f 1d 0b 29 3e d9 72 ef 3e
       0.96698093 0.76551175 0.16508146 0.4676731
000010 b2 4b 42 3f 2f a1 dc 3e 8c 3f aa bd 10 cd c8 3e
       0.7589675 0.43091723 -0.08312902 0.3921895
000020 67 68 3c 3f 88 7d d7 3e 21 1a 40 3f 71 90 64 3f
       0.73596805 0.4208796 0.7503987 0.892829
000030 0a 29 b3 3d 9c 07 4b 3f 12 68 7a bb 17 62 4b 3e
       0.08748062 0.79308486 -0.0038209003 0.19861637
000040 06 31 06 3f 8c 57 e0 3e d2 1d 56 3f ba c6 44 3f
       0.52418554 0.43816793 0.8363925 0.7686573
000050 75 6a 88 3e bd 3a 46 3f bc 42 cd 3d aa 05 ca 3d
       0.2664372 0.7743338 0.10022494 0.098643616
000060 56 41 1e 3f 7b 60 40 3f 3d 7b 69 3f 42 de 4f 3f
       0.61818445 0.7514722 0.9120367 0.81198514
000070 68 f8 21 bb 0f b3 48 3f e6 0f 67 3f db ae ab 3e
       -0.0024714712 0.7839822 0.90258634 0.33531842
000080 44 88 62 3f 75 a4 f0 3e c6 51 a2 3e 02 3a a1 3e
       0.88489175 0.4700047 0.31703013 0.3148957
000090 cf 88 cd 3e 1c b0 8b 3e 9b 2e 9c 3e e9 5c 7d 3e
       0.4014344 0.27282798 0.30504307 0.24742474
0000a0 14 2f 0a 3d d0 7f b6 bd ae ac 15 3f d5 d7 89 3c
       0.033736303 -0.08911097 0.58466613 0.01682655
0000b0 3e 04 c8 3e 4f 98 57 3f b4 96 0a 3f 56 4f 33 3f
       0.39065737 0.8421678 0.54136205 0.7004293
0000c0 15 b0 39 3f 30 f2 49 3f 5b 83 a9 bd 32 86 46 3f
       0.72534305 0.78885174 -0.08277007 0.77548516
0000d0 ff 13 8c 3c 22 2f a0 3d c2 aa 86 3e 7f a9 4a 3f
       0.017099379 0.0782149 0.26302153 0.7916488
0000e0 7b 9f 2d 3f 87 2c 1b 3f 5f c4 53 3f 45 e4 f1 3b
       0.6782147 0.6061482 0.82721514 0.007381948
0000f0 08 f7 3a be c8 23 e2 3e 25 dd 67 3e 56 03 10 3f
       -0.18258297 0.44167924 0.22642954 0.5625509
000100 17 55 9c 3c 13 ef 70 3f 62 83 76 bd de 9c 08 3f
       0.019083543 0.941148 -0.06018389 0.5336436
000110 54 21 2a 3f b7 48 91 3d 90 d1 53 3f fa e6 ef 3e
       0.66457105 0.070939474 0.8274164 0.4685591
000120 82 c1 1f 3e 1c e6 4b 3e e1 8e 53 3f dc df 11 3e
       0.15601161 0.19911999 0.8263989 0.14245552
000130 57 89 c0 3e 53 73 0f 3f 7b d5 20 3f b7 db 06 3e
       0.37604782 0.56035346 0.62825745 0.13169752
000140 e7 2f 33 3f 35 49 1c 3f 39 e6 16 3f f6 9a db 3d
       0.6999497 0.61049205 0.5894504 0.10722916
000150 0d 4b 2d 3f 6f 92 34 3e 40 61 3e 3f 70 b6 be 3e
       0.67692643 0.17633985 0.7436714 0.37248564
000160 39 a0 5a 3f d2 d8 9b 3e 7a 03 43 3f 68 e8 51 3f
       0.8540073 0.30438858 0.7617718 0.8199525
000170 9c d7 a0 3e be a6 be 3e 31 91 bb bc 7b 35 56 3e
       0.31414497 0.3723659 -0.022896381 0.20918839
000180 86 61 23 3f 5b 4e 10 3e 92 76 47 3e 34 5b 20 3f
       0.63820684 0.1409239 0.19478825 0.62639165
000190 ae 0d ad 3e 94 ab 73 bb 95 e0 fd 3e 3c 35 1c 3f
       0.337995 -0.0037181126 0.49585405 0.6101873
0001a0 ed 3d 54 be c9 d7 a3 3e 66 c3 26 3b 85 4a 17 3f
       -0.20726748 0.32000569 0.0025446056 0.5909808
0001b0 27 39 11 3f e0 8b 1c 3f 41 8a 71 3f ce dc 9e 3e
       0.5672783 0.6115093 0.94351584 0.31027836
0001c0 d9 1d 1f 3e 16 ed 11 3f 37 51 34 3f f7 4e 82 3e
       0.1553873 0.5700239 0.70436424 0.2545087
0001d0 0c 98 87 3d 2e 56 13 3e 09 1a 12 3f 69 cc f3 3e
       0.066207975 0.14388344 0.57070976 0.4761689
0001e0 2e 1a be 3d fb 3b 58 3f b6 d9 96 3d 7b 82 8a 3e
       0.09282337 0.8446652 0.07365744 0.27052674
0001f0 41 9a bc 3e 36 1d 96 bc a6 8f 34 3f fe 04 22 3e
       0.36836436 -0.018324476 0.7053169 0.15822217
000200 be fe 35 3f 69 ef 06 3f 46 a4 a6 3d 30 7c 45 3f
       0.7109183 0.5270906 0.081368014 0.7714262
000210 4f ab b5 3e aa 68 ef 3e 92 0d 60 3f bc 10 18 be
       0.3548226 0.4675954 0.87520707 -0.14850134
000220 fd 9e 4b 3f a6 71 2d bb ce 37 67 bc a3 a5 3f 3f
       0.7953947 -0.0026465445 -0.014112426 0.74862117
000230 6f 76 c9 3d cc 66 9d bb 5f 19 45 3e 06 36 50 3f
       0.098370425 -0.004803514 0.1924796 0.81332433
000240 e8 03 21 3f cd 2f b2 3e ec 9b 22 3f 6e 41 ff 3e
       0.62896585 0.34802094 0.6351917 0.49854606
000250 ff 54 08 3e 92 89 ee 3e 3a a8 4d 3f 1a 8e 19 3e
       0.13313673 0.46589333 0.8033482 0.14995614
000260 4d ab b6 3e 91 de 73 3f 73 c0 91 3e 8e 37 4e 3f
       0.35677567 0.95261484 0.2846714 0.8055352
000270 47 28 57 3f 28 f1 2b 3f 2d b3 df 3e be ba 0a 3f
       0.84045833 0.6716485 0.43691388 0.54191196
000280 0b f0 9e 3e bf 7a e7 bd b2 41 67 3d 1f b0 f5 3c
       0.31042513 -0.11302709 0.056459136 0.029991208
000290 1d 10 91 3e 3f cf c5 3d 1a 0e 0e 3d 75 93 c7 bd
       0.28332606 0.0965867 0.034681417 -0.09744922
0002a0 da f6 99 3d d4 43 cd 3e 14 0d 72 3f f6 38 86 3e
       0.07517786 0.4009081 0.94551206 0.26215333
0002b0 f8 4c 4e bd 0b f2 af 3e 17 bb 34 3e fb d1 3e be
       -0.050366372 0.34364352 0.17649494 -0.18634789
0002c0 90 da 72 3f 9a a9 4d 3f 08 7f 29 3f 01 7b 60 3d
       0.9486475 0.80336916 0.6620946 0.054804806
0002d0 ef 97 c1 3d c3 cd 34 3f d4 9e b3 bd e4 e7 65 bd
       0.09452807 0.7062647 -0.087705284 -0.05612935
0002e0 4e 13 a6 ba 51 33 25 3f d4 1f eb 3e 94 aa b7 3d
       -0.0012670548 0.6453143 0.4592272 0.08968082
0002f0 8d c7 3f 3f 3b d8 b6 bd 1b fc 0d 3f 7c 09 3b 3f
       0.74913865 -0.089279614 0.5546281 0.73061347
000300 3f 34 5c 3f 3c d8 4d 3f 82 af 7d 3e bc cb 25 3f
       0.8601722 0.8040807 0.24773982 0.64764
000310 f1 7a ae 3e c6 28 cc 3e e7 65 d1 3d 74 83 38 3f
       0.34078172 0.39874858 0.102245145 0.7207558
000320 2f f3 b5 3e c1 e2 e9 3e 24 2b be 3e 9c 53 28 3f
       0.35537097 0.45680812 0.3714229 0.6575258
000330 59 e0 06 be 71 33 6e 3f bb e4 5e 3f 48 ac 20 3f
       -0.1317152 0.93047243 0.87067765 0.6276288
000340 86 41 9f 3e a5 07 59 3d 5d 7b e9 3e be 1b 04 be
       0.31104678 0.052985806 0.4560193 -0.12901208
000350 bf a5 01 3e 64 dc 56 3f 71 aa b2 3e a5 5c 1d 3f
       0.12660883 0.8393004 0.3489566 0.6146949
000360 b0 5f 83 3e fb 23 00 3e 8f 27 ba bb f0 18 0f 3f
       0.2565894 0.12513725 -0.0056809853 0.55897427
000370 7c 64 d9 3e 04 22 f6 3e 34 94 30 3f 38 ec 49 3f
       0.42459476 0.48072827 0.6897614 0.78876066
000380 55 9e c3 3d ae b5 c6 3e d9 cc 3c 3f c7 1c 32 3f
       0.09551684 0.38810486 0.7375007 0.6957516
000390 b5 8a 18 3f a0 a0 3e 3e 36 42 48 bd ac ab 6f 3f
       0.5958665 0.18615961 -0.04889127 0.93621325
0003a0 fc 1e 0d 3e e0 d6 1b 3f bd 11 25 3e f7 d3 8d 3e
       0.13781351 0.6087475 0.16120048 0.2770078
0003b0 43 43 03 3f ba bf 7a 3f 1c a1 2a 3e 15 c7 09 3f
       0.5127451 0.979488 0.16663021 0.538194
0003c0 e1 da 3d 3f 31 30 ce 3e eb 82 20 3f 50 1c ee 3e
       0.7416211 0.40271142 0.62699765 0.46505976
0003d0 d5 14 5f 3f 41 c6 90 3e ff a2 68 3f b0 05 f9 3d
       0.8714116 0.28276256 0.9087371 0.12159288
0003e0 08 28 25 3f 0c 53 5d 3c ec 38 53 3f a1 63 57 3f
       0.6451421 0.013508569 0.8250873 0.84136397
0003f0 2e c2 c9 3e 1d a5 59 3e 92 af f3 3e 25 a1 40 bd
       0.3940596 0.21254392 0.47594887 -0.04702868

cell_los.erev f4 [32, 32]
000000 27 d9 83 be f9 50 c8 3d dc 29 13 3d ee 08 36 3d
       -0.25751612 0.09781069 0.035928592 0.04444211
000010 4f a6 fa 3c e9 ec 0e 3d 31 15 03 3e 6b e3 a0 3c
       0.03059688 0.034893904 0.12801053 0.019639691
000020 02 5e 01 be 63 f1 ff 3a 1c b0 a1 bd 37 a0 1f be
       -0.12633517 0.0019526895 -0.07894918 -0.15588461
000030 24 40 c8 3c f4 7c 12 3e 04 75 0d 3e b4 ba 11 be
       0.024444647 0.14305478 0.13814169 -0.14231378
000040 37 03 98 bd c5 0a 97 3c 66 bc 98 3d c5 3e 51 be
       -0.07422488 0.018437753 0.07457809 -0.20434101
000050 99 7b 5e bd ce 2e af bd 2c ca 3c 3e 00 35 a6 3c
       -0.05431709 -0.08553849 0.18436497 0.020288944
000060 63 17 1f be 90 17 d0 bd 58 7f bc 3d 20 5e 2d be
       -0.15536265 -0.10160744 0.092039764 -0.16930437
000070 82 2d 6f bc 74 e3 e3 3d a6 44 96 be 8e 6f a3 bd
       -0.014598252 0.111273676 -0.2934925 -0.07980262
000080 08 e9 8f be 55 6f 59 bd 14 92 36 3d 25 26 96 bb
       -0.28107476 -0.05308469 0.044572905 -0.004582184
000090 da c5 5d 3c c1 cc 1d be 25 dc e1 3d 44 65 86 bd
       0.013535941 -0.15410139 0.11028317 -0.06562284
0000a0 d7 17 86 3d f7 13 99 bd 63 42 05 3e 3d 8c d4 3c
       0.06547516 -0.07474511 0.13013606 0.025945777
0000b0 bc 69 64 3d 65 47 06 be aa 7b 10 3a 37 21 08 3e
       0.0557649 -0.13113172 0.00055115914 0.1329392
0000c0 e4 46 27 be 22 54 f3 3d fb d5 f0 bb e0 8c 86 bd
       -0.16335636 0.118812814 -0.007349727 -0.065698385
0000d0 82 b9 34 be 3f b2 ce 3d 16 5f af bd 39 b0 27 3e
       -0.1764889 0.100925915 -0.08563058 0.16375817
0000e0 af 03 cc bb e6 84 51 3e a2 42 42 be e2 3e db bd
       -0.006226025 0.20460853 -0.18970731 -0.10705353
0000f0 11 90 cc 3d 52 f9 aa bd fb 37 af bd 03 79 8f bd
       0.09988416 -0.08348335 -0.08555599 -0.07005503
000100 0e 2e df 3d c1 f4 df 3d 4d 47 16 be 4b 3c 64 3d
       0.10897456 0.10935355 -0.14675637 0.055721562
000110 c6 92 a3 3d 57 26 e2 3d 66 78 57 3e 7b 9b 0e bd
       0.07986979 0.11042469 0.21042022 -0.034816246
000120 c8 79 14 bd c6 4f 35 3e c0 19 2e 3e b3 82 0a bd
       -0.036248952 0.17706212 0.1700201 -0.03381605
000130 0f 2b 19 3d ae 8f 2b 3d b8 7b 12 3e 26 52 15 bd
       0.03739458 0.04188507 0.14305007 -0.036455296
000140 16 23 0a bd b7 be 81 3d c9 0a e9 bd 19 38 a4 bd
       -0.033724867 0.06335204 -0.1137901 -0.08018512
000150 09 a9 1c 3e 1f ac 33 bd e9 0f cd 3d 2b dc a2 3d
       0.15298857 -0.04386532 0.100128 0.0795215
000160 35 24 65 be ed 12 f1 bd 57 c9 14 3c 8a 27 0c 3e
       -0.22377093 -0.11771188 0.009081206 0.13686958
000170 4c 7e 43 3c b8 28 0f 3e fe 67 51 bd e7 61 b3 3d
       0.011931967 0.13980377 -0.051124565 0.08758908
000180 9d 67 b7 3d b2 3c 00 3e d5 89 2b 3e 85 31 9a bd
       0.089553095 0.12523153 0.16751797 -0.07528976
000190 3e d4 82 be ec 8d 15 3e 19 73 57 3e 1c e0 0a 3e
       -0.25552553 0.1460492 0.2104 0.13562053
0001a0 18 66 09 3d 05 69 9a bd 00 84 35 3d 02 12 ce bd
       0.03354463 -0.07539562 0.044315338 -0.100620285
0001b0 2a bf 2e 3c 88 09 35 3e 88 36 24 be f6 7b 04 be
       0.010665694 0.17679417 -0.16036427 -0.12937912
0001c0 1b 55 ee bb cf 16 84 3d 7e a5 93 be f4 e5 3a 3e
       -0.007273329 0.06449663 -0.28837198 0.18251783
0001d0 b9 d3 69 3a c8 3a 1b 3d 14 1d 9b 3d f7 27 1b 3e
       0.0008919794 0.037897855 0.075739056 0.15151964
0001e0 d9 9b 3d bd fd da 3d be cb 9c 03 3e 94 14 cf 3a
       -0.046291206 -0.18540569 0.1285278 0.001579898
0001f0 b3 a4 6d bd 00 15 c7 3d b2 31 8e bc dd 3a 54 3b
       -0.058018398 0.09720802 -0.017357681 0.0032383718
000200 5a 6e 46 be 7a 97 61 be 0d 17 13 3d 91 6d 08 3d
       -0.19378033 -0.2203044 0.035910655 0.033307616
000210 be b6 27 3d d9 fa 14 3e 56 c0 07 be b3 1b e1 3c
       0.04094576 0.14548816 -0.13256964 0.027479028
000220 0c e0 ff 3d 73 5f 82 bd c8 f1 02 be c5 58 46 be
       0.124939054 -0.06365862 -0.12787545 -0.193698
000230 32 c8 10 bd 23 ec 0f be 7c c9 03 be 12 0f 69 be
       -0.03534717 -0.14054923 -0.12869829 -0.22759655
000240 86 ef 04 3d 25 a7 a3 bd e4 ca 51 3d 3b 5b ac 3d
       0.03245499 -0.07990865 0.051218882 0.08415838
000250 3f f4 86 be eb 35 f2 bd 86 2f 3e 3e b5 36 49 bd
       -0.2635822 -0.1182669 0.18572816 -0.04912444
000260 17 0e 94 3d 01 b7 4e be c8 9e ee 3d 91 86 88 3c
       0.0722925 -0.20186998 0.11651379 0.016665729
000270 bd d9 2d be c4 ad a6 3b 7b 1c 49 3c 54 f4 49 3d
       -0.16977592 0.0050866324 0.012274857 0.049305275
000280 e2 9a 9b bd ac 58 93 bc 45 3b 8c bc 92 6e 1d bd
       -0.07597901 -0.017986618 -0.017118106 -0.038435526
000290 46 4d a8 3d b0 86 b5 3d e6 57 cf 3d f6 eb 90 bd
       0.08217864 0.0886358 0.10124187 -0.07076256
0002a0 b8 82 46 be 66 72 7a 3c 43 c2 05 3e a2 7f 60 3e
       -0.19385803 0.015286064 0.13062386 0.21923688
0002b0 9d 4f 99 3c b3 ea 36 3e 73 b5 de bd 22 b2 98 3c
       0.01871472 0.17862968 -0.108744524 0.018639628
0002c0 57 71 75 3e ed b9 7f 3d 91 e2 88 3d d8 db 87 bd
       0.23969017 0.062433172 0.06683839 -0.06633729
0002d0 19 7e 34 3d bf 1d 8b 3b 99 85 ce 3d e1 b1 5a 3e
       0.04406557 0.0042454894 0.100840755 0.21356918
0002e0 3d cf 91 3c 5b fb 5a 3e fa 7d 05 be a0 86 d4 3d
       0.017799014 0.21384947 -0.13036337 0.1037724
0002f0 69 ad 36 3e b5 78 a5 bc 91 b6 a7 3d d0 e4 cc 3d
       0.17839588 -0.02019916 0.08189119 0.1000458
000300 cb c0 ae be 20 f6 88 bd 82 53 bd bd 17 f7 03 be
       -0.34131464 -0.066875696 -0.092444435 -0.12887226
000310 f1 6c 4a be cc 08 d9 3d 9b d6 2e 3e a4 e4 1f 3e
       -0.1976812 0.10597381 0.17074053 0.15614563
000320 6a 94 ae 3c 8f 87 e6 bd 9a 46 0b be 02 82 54 3e
       0.021311004 -0.112563245 -0.13601151 0.20752719
000330 79 b2 67 3d 87 f7 67 3e 58 46 82 be aa c3 a3 bd
       0.05656669 0.22653018 -0.25444293 -0.07996304
000340 01 d0 a5 3c 70 a4 52 3e ad 59 98 be e6 5e d5 3c
       0.020240786 0.2057054 -0.29755917 0.026046228
000350 06 72 23 be 1f c5 1a 3e c4 60 8f bd cb b7 c4 3a
       -0.15961465 0.15114258 -0.070008785 0.0015008388
000360 51 af 2a 3e d7 2a ed bd 06 31 0c bd a5 41 a5 3d
       0.1666844 -0.11580437 -0.03422644 0.08069161
000370 32 22 8c 3d 45 9b 28 3d 3c 96 8e bd 5a af 56 3e
       0.0684246 0.0411637 -0.06962249 0.20965329
000380 06 18 95 be cc 71 3e bd 29 f3 43 3d e7 15 37 bd
       -0.2911989 -0.046495244 0.047839317 -0.044698622
000390 a0 cf c8 3d 85 6e 20 3e 51 df 4f 3e cc 31 57 3e
       0.09805226 0.1566716 0.20300032 0.2101509
0003a0 59 be db bc 27 7a 1c 3e 10 3b 8f bc 0f 1b 3d 3e
       -0.026824163 0.15280972 -0.017484218 0.18467353
0003b0 07 60 56 3d 84 7f 2f 3e 30 f3 ec 3c 82 b6 0e 3c
       0.052337673 0.17138487 0.028924555 0.008710505
0003c0 db c7 72 3e e7 6f 2a 3e 22 84 34 be 36 fb 8d 3d
       0.23709051 0.1664425 -0.1762853 0.0693268
0003d0 78 75 38 be 13 c3 39 3e 17 ec 48 be 9a 28 6c 3c
       -0.18013561 0.18140821 -0.19621311 0.014413977
0003e0 33 cd 0d 3e 96 f3 c6 3d 95 c2 2d 3e e6 b3 12 be
       0.13847809 0.09714429 0.16968758 -0.14326438
0003f0 5f 42 a6 bd 08 2b da 3c 42 3d 3f 3d 03 49 10 be
       -0.08118128 0.026631847 0.04668928 -0.14090352

cell_los.mu f4 [32, 32]
000000 2d 1d 2b 3f 46 a5 f3 3e 90 ac 3c 3f 29 6a 45 3f
       0.66841394 0.4758703 0.7370081 0.7711511
000010 4e 56 21 3f 58 67 29 3f cb 11 31 3f d6 20 14 3f
       0.63022316 0.66173315 0.69167775 0.57862604
000020 e1 8d 2e 3f 49 b1 30 3f 98 81 27 3f 19 82 e0 3e
       0.6818524 0.69020516 0.6543212 0.43849257
000030 d8 72 4b 3f 77 2e f7 3e de 21 36 3f dd d6 11 3f
       0.7947211 0.48277637 0.7114543 0.5696848
000040 52 78 00 3f a1 ad 49 3f 3f e4 3e 3f 5c 66 2f 3f
       0.50183594 0.7878056 0.74567026 0.68515563
000050 b3 f4 10 3f 20 98 09 3f 45 3a 36 3f cd a1 5a 3f
       0.5662338 0.5374775 0.7118266 0.8540314
000060 fe 53 36 3f 3f 36 68 3f b8 90 18 3f 22 37 8f 3e
       0.7122191 0.9070777 0.59595823 0.2797175
000070 5e bf 83 3f 64 27 db 3e 91 98 cd 3e ce 4d 05 3f
       1.0292776 0.4280349 0.4015546 0.52071846
000080 d2 08 21 3f 5a 3d 63 3f b7 32 08 3f 73 3a 3f 3f
       0.62904084 0.8876549 0.53202385 0.7469856
000090 57 5d 5a 3f a0 7b 42 3f 9f e3 7e 3f ca b8 1f 3f
       0.85298675 0.75969887 0.9956607 0.6239134
0000a0 e0 34 68 3f e1 7d 2f 3f 25 b0 fd 3e 5f 34 42 3f
       0.9070568 0.6855145 0.4954845 0.7586116
0000b0 8d 7a 30 3f 88 a9 4b 3f 74 04 52 3f 77 00 ed 3e
       0.68937 0.7955556 0.82038045 0.46289417
0000c0 37 5f 21 3f 65 15 b9 3e 1d 6c 18 3f b5 fa 4a 3f
       0.6303591 0.36149135 0.5953997 0.792888
0000d0 de 15 63 3f b3 9a 01 3f 94 e7 38 3f 5f 14 17 3f
       0.8870524 0.5062668 0.7222836 0.5901546
0000e0 cd 59 11 3f b7 5a 55 3f a0 55 14 3f 33 eb e2 3e
       0.5677765 0.83341545 0.57943153 0.44320068
0000f0 16 d1 24 3f b2 f5 50 3f 66 a6 57 3f 71 f4 6b 3f
       0.6438154 0.816249 0.8423828 0.92169863
000100 8a 31 32 3f bf 9d ea 3e 19 62 4c 3f 0f 94 0f 3f
       0.6960684 0.45823476 0.79837185 0.56085294
000110 2a 96 23 3f 5e af f9 3e 6e 6c 1d 3f 8a 72 57 3f
       0.6390101 0.48766607 0.61493576 0.8415915
000120 a1 a5 5d 3f 30 4d 2f 3f 10 83 e2 3e 57 17 66 3f
       0.86580855 0.68477154 0.44240618 0.89879364
000130 5f e5 36 3f 82 20 10 3f 3c 7c e0 3e 12 28 39 3f
       0.7144374 0.56299603 0.43844783 0.7232677
000140 d6 16 16 3f da 0b fe 3e 2d 36 f7 3e 81 80 05 3f
       0.58628595 0.49618417 0.4828352 0.52149206
000150 cf 4a e0 3e 91 08 46 3f af 3b 24 3f 98 69 8f 3f
       0.43807074 0.7735682 0.6415357 1.12041
000160 68 d5 b2 3e aa e8 63 3f 52 62 58 3f 3c 76 c8 3e
       0.3492844 0.8902689 0.84525025 0.39152706
000170 67 98 81 3f 85 d9 59 3f 8c 47 0d 3f 27 c7 36 3f
       1.0124635 0.85097533 0.55187297 0.7139763
000180 23 af 4e 3f 18 78 3c 3f b3 b8 06 3f 2c 52 0b 3f
       0.8073599 0.7362075 0.5262558 0.5442226
000190 7c ad eb 3e fb ee 17 3f 72 42 47 3f 0d e0 f1 3e
       0.46030796 0.5934903 0.7783576 0.4724125
0001a0 86 1d 82 3f 8a 88 37 3f f7 b6 4e 3f e5 0d 15 3f
       1.016526 0.7169272 0.8074793 0.58224326
0001b0 ff 04 39 3f fe 98 25 3f 97 46 b1 3e 88 36 42 3f
       0.7227325 0.6468657 0.34624168 0.7586446
0001c0 6c d5 6f 3f bc 25 dd 3e a1 25 17 3f 93 ce b3 3e
       0.9368503 0.43192852 0.5904179 0.3511854
0001d0 11 b0 25 3f b8 7a 24 3f 91 58 e3 3e 5e 3d 65 3f
       0.6472178 0.64249754 0.44403508 0.89546764
0001e0 32 56 65 3f ce 71 28 3f cc ed 30 3f ee 8c 0e 3f
       0.8958465 0.6579865 0.6911285 0.5568379
0001f0 dc 32 78 3f 5d c2 01 3f 9f 09 3c 3f ca 09 0f 3f
       0.96952605 0.506872 0.7345218 0.5587431
000200 da 11 06 3f 12 d0 3f 3f 36 2b 62 3f 58 73 60 3f
       0.5237099 0.74926865 0.88347185 0.87676
000210 f3 46 0b 3f 38 aa 04 3f f7 af 13 3f 79 c6 21 3f
       0.54405135 0.51822233 0.57690376 0.6319347
000220 23 46 2f 3f 8f 80 6f 3f 93 05 65 3f ed 2c 41 3f
       0.68466395 0.9355554 0.8946163 0.75459176
000230 b1 9d 18 3f 4a 30 5f 3f 04 70 be 3e 18 7e 16 3f
       0.5961562 0.8718306 0.37194836 0.58786154
000240 2b a9 2b 3f aa 35 22 3f 9f 59 18 3f ff 2a 0b 3f
       0.67055005 0.63363135 0.5951175 0.5436248
000250 28 bb 2f 3f cc 67 05 3f 91 f0 26 3f 51 e2 71 3f
       0.6864495 0.52111506 0.65210825 0.94485956
000260 cf f4 53 3f bb be 17 3f 60 a2 56 3f 1d f1 ee 3e
       0.82795423 0.59275407 0.83841515 0.4666833
000270 77 3f 02 3f f4 0d 11 3f 38 0c 3e 3f 7f ad fb 3e
       0.5087809 0.56661916 0.74237394 0.49155805
000280 ff 4e 87 3f 91 3c 18 3f 18 ab 4f 3f ef 14 75 3f
       1.0570983 0.59467417 0.81120443 0.9573507
000290 61 61 d5 3e 32 4d 51 3f 79 bf 2a 3f 47 fb 6e 3f
       0.41675857 0.81758416 0.66698414 0.9335217
0002a0 f6 c9 02 3f aa 3c 1a 3f 11 c0 23 3f 76 39 1b 3f
       0.5108942 0.60248816 0.63964945 0.60634553
0002b0 60 49 5c 3f c8 20 31 3f 2e a2 23 3f 42 d9 25 3f
       0.8604946 0.69190645 0.6391934 0.64784634
0002c0 8c 85 49 3f 6b a2 02 3f e2 25 7a 3f ba a3 67 3f
       0.787194 0.5102908 0.97714055 0.904842
0002d0 ea 91 c1 3e ae 48 3e 3f aa 7e 58 3f 02 97 f7 3e
       0.37806636 0.7432965 0.84568274 0.48357397
0002e0 e9 a5 2e 3f 13 08 e8 3e f3 5a d2 3e e4 36 57 3f
       0.6822191 0.4531866 0.41085014 0.8406813
0002f0 1b 31 55 3f 6b 8b 8e 3f 12 ee f7 3e 46 b1 ff 3e
       0.83278054 1.1136297 0.4842382 0.49939936
000300 d6 db 87 3e 87 33 31 3f 19 5e 6e 3f 0f 8a 1f 3f
       0.2653491 0.6921925 0.9311233 0.62320036
000310 87 9c f6 3e ed 1e 63 3f 25 6c 31 3f 0c e2 2d 3f
       0.48166296 0.88719064 0.6930564 0.67923045
000320 9f 2c 84 3f 53 59 6e 3f 9f 52 62 3f 85 cc c3 3e
       1.0326117 0.9310505 0.8840732 0.38241974
000330 6e 5a 3e 3f 3f 09 3c 3f 0d af 48 3f 46 71 ec 3e
       0.74356735 0.7345161 0.78392106 0.4618017
000340 41 24 69 3f f6 8e d6 3e 70 c4 ad 3e 9e 72 24 3f
       0.91070944 0.41905946 0.33938932 0.6423739
000350 57 fd 0a 3f 70 aa 11 3f 70 42 19 3f 37 8a 4e 3f
       0.54292816 0.5690069 0.59867 0.8067965
000360 91 14 34 3f ab 5e 08 3f b5 99 62 3f 07 95 b8 3e
       0.7034388 0.5326945 0.8851579 0.360512
000370 01 fd 63 3f 73 26 27 3f e6 2a 1d 3f b5 e5 1f 3f
       0.8905793 0.65293044 0.6139358 0.6245988
000380 01 7e e6 3e d9 58 02 3f c0 b3 3b 3f 5c 5e 03 3f
       0.45018008 0.5091682 0.7332115 0.51315856
000390 e9 74 fc 3e 5e 08 4c 3f 65 55 32 3f ee c2 07 3f
       0.49307945 0.7970027 0.6966155 0.53031814
0003a0 e8 44 71 3f 9a a7 25 3f 8f 33 70 3f 24 dc 35 3f
       0.9424577 0.64708865 0.9382867 0.7103903
0003b0 8b 6c 3c 3f ce ed e4 3e 87 41 24 3f 29 3f 73 3f
       0.73603123 0.4471268 0.64162487 0.9501825
0003c0 92 d8 10 3f 4d 37 48 3f 4e a1 2a 3f 6f 71 3d 3f
       0.5658046 0.7820938 0.6665238 0.7400121
0003d0 29 35 c5 3e 89 83 2e 3f ca 15 ed 3e 38 cf 71 3f
       0.3851712 0.68169457 0.46305686 0.94456816
0003e0 34 de 04 3f 3d 0a 54 3f f1 67 4d 3f 0c 54 d9 3e
       0.51901555 0.8282812 0.80236727 0.42446935
0003f0 d4 06 35 3f e8 b1 27 3f 1d 99 57 3f a3 e8 01 3f
       0.70713544 0.6550584 0.8421801 0.507456

cell_los.sigma f4 [32, 32]
000000 d1 2f 8c 40 2e cd a0 40 5c 74 c5 40 6c fd bc 40
       4.380837 5.0250463 6.170454 5.9059353
000010 7b 7d 80 40 50 12 f8 40 38 a9 9f 40 98 f0 f1 40
       4.0153174 7.7522354 4.9894066 7.5606194
000020 e3 e7 b0 40 ee d1 d5 40 ef a9 bc 40 ce 12 cf 40
       5.5283065 6.681876 5.895744 6.4710455
000030 dc af 83 40 78 ab d4 40 51 39 83 40 ca 5b d9 40
       4.115217 6.6459312 4.1007466 6.7924547
000040 de d2 91 40 ef dd c7 40 57 eb 4e 40 d0 76 7b 40
       4.5569906 6.2458415 3.233114 3.9291267
000050 a8 7d f7 40 73 bb f3 40 42 8b 55 40 45 f8 8e 40
       7.734089 7.616632 3.3366246 4.4678063
000060 7f f2 50 40 82 e2 bc 40 63 e7 9c 40 ca 21 ad 40
       3.2648008 5.90265 4.9032454 5.4103746
000070 c9 a0 d2 40 1d d3 c9 40 93 fb 9f 40 d2 da c1 40
       6.582127 6.3070207 4.9994597 6.0579615
000080 03 5b 5b 40 0c 12 f1 40 aa 62 5d 40 6f 0b 91 40
       3.42743 7.533453 3.459147 4.5326457
000090 2e 95 98 40 42 07 84 40 ae d1 bc 40 62 93 e0 40
       4.7682104 4.125886 5.9005957 7.017991
0000a0 51 94 98 40 73 d6 9d 40 75 2b 86 40 98 28 d7 40
       4.768105 4.932428 4.192805 6.7237053
0000b0 eb e7 78 40 82 0a ee 40 2b 15 cb 40 59 1b 6a 40
       3.8891551 7.4387827 6.346334 3.6579192
0000c0 ac 26 ab 40 b4 79 c9 40 1b 2c 03 41 e2 9e 99 40
       5.3484707 6.2961063 8.198268 4.800645
0000d0 27 e1 65 40 c6 63 88 40 98 09 c4 40 d0 f2 eb 40
       3.5918672 4.2621794 6.126171 7.37339
0000e0 3d 2f b6 40 19 85 f8 40 9e 0d 6e 40 74 e5 3e 40
       5.6932664 7.7662473 3.7195811 2.9827547
0000f0 df 7e c0 40 56 07 e8 40 b3 a2 fe 40 26 88 ba 40
       6.015487 7.2508955 7.9573607 5.8291197
000100 ae 46 ae 40 5b 64 d9 40 cc 9d e4 40 c5 c6 5b 40
       5.446128 6.7935004 7.1442623 3.434007
000110 af d8 8b 40 ab 7b ee 40 f8 10 9d 40 81 94 70 40
       4.3702006 7.452596 4.9083214 3.759064
000120 d6 98 6e 40 e4 ab 89 40 55 0d aa 40 92 d1 b1 40
       3.7280784 4.3022327 5.3141274 5.5568323
000130 18 ae 66 40 58 cb 00 41 0b b8 b5 40 b3 38 01 41
       3.6043758 8.049644 5.678716 8.076343
000140 ea 7b 99 40 71 5f ec 40 82 5a c9 40 48 53 58 40
       4.796376 7.3866506 6.2922983 3.380083
000150 78 c5 e9 40 ed a8 eb 40 1e f7 6c 40 9b 96 fe 40
       7.305355 7.364371 3.7025828 7.9558845
000160 ba 38 9f 40 d7 35 93 40 47 33 9a 40 2e a6 79 40
       4.9756746 4.6003222 4.8187594 3.9007678
000170 a7 59 fd 40 4e 4c 98 40 b6 4f 87 40 65 72 fe 40
       7.917194 4.7593145 4.2284803 7.951464
000180 1e 7f 4b 40 9f 91 6c 40 39 b5 cb 40 87 bb fb 40
       3.1796336 3.696388 6.365872 7.8666415
000190 0d b9 85 40 29 e8 8b 40 95 82 89 40 64 b8 e7 40
       4.178839 4.37209 4.29719 7.2412586
0001a0 9f c3 b4 40 70 12 75 40 38 97 90 40 8b 5f 64 40
       5.6488795 3.8292503 4.5184593 3.5683315
0001b0 60 5c d6 40 c2 7d 8a 40 21 43 b4 40 15 2f e9 40
       6.6987762 4.3278513 5.6331944 7.2869973
0001c0 43 83 ed 40 a8 64 48 40 f8 0d d5 40 fa d8 f8 40
       7.422273 3.1311436 6.657955 7.7764864
0001d0 a8 b2 f2 40 1e 32 d3 40 56 ad ad 40 e9 fd 88 40
       7.5843086 6.599868 5.427409 4.280995
0001e0 75 57 8d 40 2a 7b 84 40 84 20 9b 40 f9 1e de 40
       4.416926 4.1400347 4.847719 6.941281
0001f0 e6 9b 02 41 1a 04 e3 40 09 32 a3 40 2e 7c bb 40
       8.163061 7.0942507 5.099858 5.8589087
000200 00 9c 93 40 3c a6 95 40 3e d7 a3 40 73 bb b2 40
       4.612793 4.6765423 5.1200247 5.585382
000210 ad b6 b8 40 4d b5 d8 40 00 01 cf 40 8a 7b ec 40
       5.7722993 6.7721314 6.468872 7.3900805
000220 9c e7 bd 40 29 e3 70 40 ea 8f b8 40 61 a7 d1 40
       5.9345226 3.7638648 5.7675676 6.551682
000230 04 04 62 40 ee 3b b7 40 54 32 e2 40 84 52 76 40
       3.531495 5.7260656 7.0686436 3.8487864
000240 2a 6d d8 40 e8 07 83 40 c9 92 d2 40 10 be cf 40
       6.7633257 4.094715 6.580418 6.491951
000250 10 36 d0 40 23 27 7a 40 5f 78 d5 40 7e 95 80 40
       6.5065994 3.9086387 6.6709437 4.0182486
000260 3f 8d 8a 40 38 b1 d1 40 99 63 75 40 1f bd e2 40
       4.329742 6.552883 3.834204 7.085586
000270 a6 67 dc 40 9d 0a 02 41 92 69 89 40 81 8d c8 40
       6.8876524 8.127591 4.294137 6.2672734
000280 61 fc f7 40 00 8d d3 40 39 e9 a2 40 59 38 fb 40
       7.749558 6.610962 5.0909696 7.8506284
000290 7a 79 e4 40 1e 46 cc 40 8a a2 a1 40 70 9f 87 40
       7.1398287 6.383559 5.051091 4.2382126
0002a0 74 8a f6 40 28 82 b8 40 21 19 a6 40 81 89 b1 40
       7.704401 5.765888 5.1905675 5.548035
0002b0 9d fd 8c 40 2e 6f d6 40 32 59 c4 40 77 1b c7 40
       4.4059587 6.7010717 6.135888 6.2221026
0002c0 73 39 a4 40 bf b4 cc 40 a2 57 fa 40 30 1b e0 40
       5.132013 6.3970637 7.8231974 7.003319
0002d0 58 70 fc 40 d8 99 cf 40 7c 95 df 40 d5 fe 9a 40
       7.888714 6.4875298 6.9869976 4.8436074
0002e0 39 67 77 40 19 1b da 40 e3 0e bc 40 86 fa af 40
       3.8656752 6.815808 5.876817 5.4993315
0002f0 a5 cc c0 40 32 49 da 40 61 99 b0 40 1c 71 d5 40
       6.024981 6.821435 5.518723 6.6700573
000300 ed b8 fa 40 06 69 a7 40 ee c8 9e 40 60 97 8c 40
       7.835074 5.2315702 4.9620275 4.3934784
000310 70 bb e1 40 1d 58 a0 40 e0 97 c9 40 05 85 79 40
       7.0541306 5.010756 6.2997894 3.8987439
000320 b2 1a cf 40 9e db 6e 40 68 07 c0 40 3b 87 84 40
       6.4720087 3.7321544 6.000904 4.1415076
000330 a4 95 57 40 28 b4 b4 40 15 22 c9 40 b3 a0 75 40
       3.3685083 5.6469917 6.2854104 3.8379333
000340 43 94 8a 40 15 50 e6 40 9b af a2 40 db ac ea 40
       4.3305984 7.1972756 5.083936 7.3336005
000350 0c 79 89 40 a4 f2 9c 40 d4 0d d8 40 11 ac 67 40
       4.296026 4.904619 6.751688 3.619877
000360 0f d5 c7 40 4b d9 80 40 b3 a0 8c 40 eb 81 be 40
       6.244758 4.026525 4.3946166 5.953359
000370 39 cf e5 40 ba 45 8d 40 74 b5 bb 40 56 7c a5 40
       7.1815457 4.4147615 5.8659 5.1714277
000380 cd f8 6b 40 e2 44 a7 40 f9 3b be 40 6d c4 8d 40
       3.6870606 5.2271585 5.944821 4.4302278
000390 40 cc 8a 40 77 65 f4 40 1a ea 83 40 71 31 aa 40
       4.337433 7.637386 4.122327 5.3185353
0003a0 74 3e f0 40 7a 2f 93 40 cf 0e 72 40 c7 aa 89 40
       7.5076237 4.5995455 3.7821538 4.302097
0003b0 33 ec 6d 40 37 47 e9 40 b7 7f 8f 40 f2 50 d1 40
       3.7175415 7.289943 4.48434 6.541131
0003c0 e8 6c da 40 77 82 9d 40 8d 85 d1 40 52 07 fa 40
       6.825794 4.922176 6.5475526 7.8133936
0003d0 f5 18 a8 40 01 a0 cb 40 eb 93 86 40 fa a0 f6 40
       5.2530465 6.3632817 4.2055564 7.7071505
0003e0 29 b9 4e 40 bd e4 9f 40 df 93 b7 40 71 c3 5f 40
       3.2300513 4.996672 5.7368007 3.4963038
0003f0 c6 89 74 40 c9 db df 40 c7 e9 67 40 1a c8 b2 40
       3.820909 6.9955792 3.6236436 5.5869265

cell_los.sensory_w f4 [1, 32]
000000 a8 7a d3 3e 5f 1e 82 3f c0 fb 88 3f 6f 5e b8 3f
       0.41304517 1.0165519 1.0701828 1.4403819
000010 c9 fa a4 3e 8f 8b a5 3f bf db b8 3f be be 8f 3f
       0.32222584 1.2933215 1.4442061 1.1230085
000020 fb c6 c5 3f 1f 13 b0 3f 75 f7 60 3f af 3c b4 3f
       1.5451349 1.3755835 0.8787759 1.4081019
000030 51 ae 7a 3f 96 3e 80 3f c0 64 d7 3e e1 ab 49 3f
       0.97922236 1.00191 0.42069054 0.7877789
000040 20 0a 18 3f bf 14 2e 3f f1 9c f6 3e d1 d2 4d 3f
       0.5939045 0.68000406 0.48166612 0.80399805
000050 d0 85 91 3f f5 3f 8b 3f de aa 67 3f 0d 44 b4 3f
       1.1368961 1.0878893 0.904951 1.4083267
000060 b0 d5 56 3f ba b2 b0 3f 79 b7 12 3f 36 d7 19 3f
       0.8391981 1.3804543 0.5731121 0.6009401
000070 b7 2d c9 3f ca bf b7 3f 01 6b 50 3f cd 7d 13 3f
       1.5717076 1.4355404 0.81413275 0.5761383

cell_los.sensory_mu f4 [1, 32]
000000 ae b6 50 3f 81 31 96 bd 55 21 82 3d 8d 4f cd bd
       0.8152875 -0.07333661 0.06354014 -0.10024939
000010 6a ff 3f 3f c4 a9 87 bd 0b 06 42 be 5e 86 30 be
       0.74999106 -0.06624177 -0.18947618 -0.17238757
000020 25 2c fa bd 75 b5 7d bd 0f a2 f7 3d 67 2a cf bd
       -0.12215451 -0.06194063 0.12091457 -0.101155095
000030 a7 f8 0a bd 6d cb cb 3d 3b f8 49 3f 0c 61 04 bd
       -0.03392854 0.0995091 0.78894395 -0.032319114
000040 8b f3 8e 3e 42 e0 a9 3b f6 21 4c 3f f9 07 90 bd
       0.27920184 0.0051842043 0.7973932 -0.07032771
000050 bc d8 98 bd 70 3d 8b bd 6e 1a 3f 3f 65 d0 65 be
       -0.07463214 -0.06798828 0.74649704 -0.22442777
000060 85 10 7e 3e e5 35 df bd 0e 66 63 3d 7c 53 5d be
       0.24810989 -0.108989514 0.05551725 -0.21613878
000070 d1 72 1e be da 00 4c bb 1e 2e 2c 3f f3 2a 66 3b
       -0.15473486 -0.0031128437 0.6725787 0.0035120815

cell_los.sensory_sigma f4 [1, 32]
000000 26 dc cd 40 30 fe 96 40 82 a8 3a 40 d2 2e a9 40
       6.4331236 4.7185287 2.916535 5.2869654
000010 2d 6a d6 40 51 12 f1 40 b2 49 92 40 0c e7 8b 40
       6.700461 7.533486 4.571496 4.371954
000020 e6 3b 57 40 06 a6 d3 40 e0 ee 36 40 45 fe eb 40
       3.363031 6.6140165 2.8583298 7.3747888
000030 09 ef c9 40 be a0 d9 40 6f a4 a6 40 08 36 df 40
       6.310429 6.800872 5.2075725 6.9753456
000040 d7 9d 78 40 2b 36 9c 40 1e 1c 02 41 3b d9 85 40
       3.8846338 4.8816123 8.131865 4.1827674
000050 d5 f8 97 40 65 78 b4 40 23 e4 e2 40 74 de ad 40
       4.749125 5.6396966 7.0903487 5.433405
000060 15 ce 43 40 7a 84 9d 40 43 38 c2 40 ea 83 65 40
       3.0594532 4.9224215 6.069368 3.5861764
000070 ab 65 6f 40 a3 bc 8b 40 db fd cd 40 68 e7 86 40
       3.7405803 4.366777 6.437238 4.215748

cell_nlos.gleak f4 [32]
000000 47 f8 27 3f f2 8c d4 3e a7 e9 30 3f f8 ba d6 3e
       0.65613216 0.41513783 0.69106525 0.4193952
000010 27 3b 83 3c 29 e8 a5 3e 8c e1 09 be 4f d5 74 3e
       0.016019417 0.32403687 -0.13464946 0.23909496
000020 b3 5c 3d 3e 24 cb 07 3e 6f 36 1b bd 76 db 08 3e
       0.18492393 0.13261086 -0.03789371 0.13364968
000030 9b 23 02 3f 70 da f8 3d 80 32 35 3f bb f5 54 3d
       0.5083558 0.12151039 0.7078018 0.05199216
000040 92 59 a5 3e 11 6d b3 3c 18 54 56 3f b3 f4 e8 3e
       0.322949 0.021902593 0.83722067 0.4549919
000050 e2 61 a5 3e d0 10 39 3f c0 0b 36 3f 7e af 6d 3e
       0.3230124 0.7229128 0.7111168 0.23211476
000060 4b ff ff 3e dc 19 3b bb 0f f5 27 3f f1 42 4e 3f
       0.4999946 -0.002854935 0.65608305 0.80570894
000070 61 f0 48 3f 58 92 87 3e c4 d3 91 3d 90 74 64 3f
       0.7849179 0.2647884 0.07120469 0.8924036

cell_nlos.vleak f4 [32]
000000 60 cf 38 be 42 e8 23 3d f2 94 99 3b e0 76 3f 3e
       -0.18047857 0.04001642 0.004686945 0.18697691
000010 a5 72 1a be 6c 4d 30 3e ec 7e 4c bd d4 13 0e 3e
       -0.15082796 0.17217034 -0.04992573 0.13874751
000020 4a c7 74 be c9 75 28 be 03 7c ab bd 00 36 82 be
       -0.23904148 -0.16451181 -0.08373263 -0.25431824
000030 d3 8a 9e bd ef 31 47 be 52 c7 7d 3d 69 69 29 3d
       -0.07741322 -0.19452642 0.061957665 0.041360293
000040 35 8c e1 bc b9 8a 49 3e 80 8f 64 3d e4 fb 76 3d
       -0.027532676 0.19681825 0.055800915 0.060298815
000050 96 fa f0 bc a7 bc 69 be 6f 97 7b be 56 68 eb 3c
       -0.029416364 -0.22825871 -0.24569486 0.028736275
000060 00 45 24 be 89 20 95 3d f0 a9 62 3d 1d d7 11 be
       -0.16041946 0.07281596 0.055337846 -0.14242215
000070 99 d1 09 be 86 a9 1f 3c 38 f2 3c bd 70 4c 2e 3e
       -0.13458861 0.009745007 -0.046129435 0.17021346

cell_nlos.cm f4 [32]
000000 ba b2 09 3f c6 1a 16 3f b7 1f 13 3f 88 a4 38 3f
       0.5378834 0.58634603 0.5747027 0.72126055
000010 33 6a eb 3e dc 30 43 3f 62 1a 35 3f 21 b6 34 3f
       0.4597946 0.7624643 0.7074338 0.70590407
000020 f7 f7 27 3f ee db ff 3e b8 93 d7 3e b9 4e 14 3f
       0.6561274 0.4997248 0.42104888 0.5793262
000030 b6 17 0c 3f 12 b6 14 3f b4 39 4a 3f 7f 4c 67 3f
       0.5472368 0.5809032 0.789943 0.903511
000040 c5 0f 2b 3f 92 d4 0b 3f 9d e5 14 3f 8b 50 2b 3f
       0.6682094 0.5462123 0.5816286 0.66919774
000050 5c ad 3b 3f 54 3e 06 3f ff 41 2c 3f 7d 32 04 3f
       0.733114 0.52438855 0.672882 0.5163954
000060 cf ba 01 3f 37 df 50 3f 38 67 46 3f 97 ae ff 3e
       0.5067567 0.815906 0.7750125 0.4993789
000070 ff 38 01 3f 82 42 e6 3e 37 0c 1f 3f 8e 8d fe 3e
       0.50477594 0.44972616 0.62128013 0.49717373

cell_nlos.w f4 [32, 32]
000000 2a b4 bb bc 1d fa fb 3e 54 53 09 3f 16 be 0d 3f
       -0.022913057 0.4921426 0.53642774 0.55368173
000010 fa 49 43 3f ee 00 e1 bd 1a 26 94 3e 9c dc f5 3d
       0.76284754 -0.109865054 0.2893532 0.120049685
000020 85 40 29 3d 1f b7 f1 3d 71 ac 94 3e 1b 66 96 bd
       0.041321296 0.11802506 0.29037812 -0.07343694
000030 8c d6 88 bc f8 a3 3f 3f b8 a6 3f 3f dc 65 af 3e
       -0.016703866 0.7485957 0.7486377 0.342574
000040 85 ff b8 3c 01 81 c0 3e a6 bd f5 3e 33 b0 5c 3e
       0.022582779 0.37598422 0.47996253 0.2155159
000050 8d df 0f 3f 25 1c c5 3e 5f 7a 03 3f 7e 05 4c 3e
       0.56200486 0.38498035 0.513586 0.1992397
000060 f4 67 19 3e 1f a6 0e 3f b6 28 62 3f 95 70 07 3e
       0.14981061 0.5572223 0.8834337 0.1322654
000070 9b 5d 24 3f 5a 90 d5 3e e8 1b 65 3f d5 48 9f bd
       0.6420533 0.41711694 0.89495707 -0.077775635
000080 1b 9d 5a 3f 33 04 18 3f 02 13 54 3f 29 01 02 3f
       0.85395974 0.5938141 0.82841504 0.5078302
000090 e0 d7 47 3f 9b ca ce 3e 6c d3 c8 3e e2 a2 d3 3e
       0.78063774 0.4038895 0.39223802 0.41335207
0000a0 39 03 0c 3f b1 41 6f 3f 46 bc 45 3f 56 7d 18 3e
       0.5469242 0.9345961 0.7724041 0.14891562
0000b0 e2 71 1f 3e e9 82 03 3f a3 56 0d 3e 2f 1c b7 3e
       0.15570787 0.5137163 0.1380258 0.3576369
0000c0 c6 2b 60 3e 73 74 9e 3d af 75 40 3d 9a 0a 5a 3f
       0.21891698 0.07737055 0.04698723 0.85172427
0000d0 16 c7 e9 bc ae a7 e7 bb b5 34 1f 3f 23 ad cd 3e
       -0.028537314 -0.0070695495 0.621898 0.40171155
0000e0 cf d4 2e 3f 8a 60 07 3f 3e 92 01 3f 0f 35 8c 3e
       0.6829347 0.5288168 0.5061377 0.2738423
0000f0 3f 81 02 3f c8 47 0b 3f 67 45 bc 3d a4 b8 3d 3f
       0.50978464 0.54406404 0.09192925 0.74109864
000100 76 1c 96 bc aa 38 ac 3e 4a 29 a0 3e 79 bf 34 3f
       -0.018324118 0.3363698 0.312815 0.70604664
000110 38 8d 79 3e 77 45 e7 3e 1f 76 41 be c2 62 1a 3f
       0.24370277 0.45170185 -0.18892716 0.6030694
000120 96 9d 24 3f 6a 53 32 3d c5 25 7f 3c ba 32 df 3e
       0.6430296 0.04353658 0.01557297 0.4359339
000130 c4 ee 24 3f b8 ed 18 3f 55 e4 25 3f b6 9a 80 bd
       0.6442683 0.5973773 0.6480153 -0.06279509
000140 47 3f 46 3f 7e 62 94 3f dc cf 09 be 9f 66 c1 3e
       0.77440304 1.1592557 -0.13458198 0.37773606
000150 c1 ab 7c 3e ff 1f 49 3f e7 d5 5a 3e bc 33 08 bc
       0.24674894 0.7856445 0.2137066 -0.008313116
000160 33 2c 90 3d 5f 99 30 3f 7d 4e 27 3f 91 94 dd bd
       0.0703968 0.68984026 0.6535414 -0.108193524
000170 00 05 18 be 4a b1 2e 3f a7 d2 86 3d d9 60 62 be
       -0.14845657 0.6823927 0.065831475 -0.22107257
000180 1c a4 a5 3e 6c 8c 74 3e cd f9 3f 3e 65 0f aa bc
       0.32351768 0.23881692 0.18747635 -0.020759294
000190 67 79 28 3f 52 50 15 3f c5 4a 56 3f 27 36 86 3c
       0.65810245 0.58325684 0.8370784 0.016383244
0001a0 25 6c bc 3e bc 2d 91 3e e2 8c 69 3e c8 37 2e 3f
       0.36801258 0.28355205 0.22807649 0.68053865
0001b0 8f b3 96 3e 54 52 af 3e f1 be 4f be 9a 95 8e 3d
       0.29433867 0.342425 -0.20287682 0.06962128
0001c0 e4 c1 bb 3e aa f6 12 be c4 a4 aa 3e 44 3f 48 3e
       0.36671364 -0.14351907 0.3332883 0.19555384
0001d0 af da 14 3f 5c d1 19 3f 77 2b 46 3e f1 e2 8f 3e
       0.58146185 0.6008508 0.19352518 0.2810283
0001e0 d5 1b f8 3e 9f 23 6c bd f3 d0 2b bd 70 1b 36 3f
       0.48458734 -0.05765116 -0.041947316 0.71135616
0001f0 59 d0 df 3e ab fb 1d 3f ea d1 dd 3e 03 eb 00 3f
       0.43713644 0.6171214 0.43324214 0.503586
000200 e6 63 83 bc e1 09 eb 3e 0d d1 43 3f 0e 8d 6e 3f
       -0.016038846 0.45905975 0.7649086 0.9318398
000210 6d e7 44 3f 3c ca 09 3e 7d 26 8a 3e 0b 2a 55 3f
       0.7691563 0.13456053 0.2698249 0.8326728
000220 87 ea 11 3e 75 dc 26 3f e8 67 dd 3e bf 90 43 3f
       0.14249621 0.6518014 0.43243337 0.7639274
000230 b7 2f 36 3e 40 61 b8 3e 24 47 b9 be 6b 44 0c 3e
       0.1779164 0.36011696 -0.36187088 0.13697974
000240 09 57 01 3f b8 be d9 3e ca a6 5a 3f 31 cc 08 bd
       0.5052343 0.4252832 0.8541075 -0.033397857
000250 ed a8 13 3f 02 ea b5 3e 47 fd 7e 3f 59 6b 43 3f
       0.57679635 0.35530096 0.9960522 0.76335675
000260 b5 f6 5b 3f 5d 98 39 bc 5a 24 6c 3f c9 56 19 3a
       0.8592332 -0.01132783 0.9224297 0.0005849419
000270 78 8a 72 3d dd b1 45 3f c8 05 de 3e 92 e3 31 3f
       0.059214085 0.7722452 0.43363786 0.6948787
000280 b7 95 6a 3f d8 c7 7d 3e ac 71 0a 3f 84 1c d9 3e
       0.91634697 0.24783266 0.540797 0.42404568
000290 94 be 42 3f c8 fe 3d 3f 60 c9 ba 3e 64 51 a4 3c
       0.7607205 0.7421689 0.36481762 0.020058341
0002a0 f6 34 ec 3e 5b fe 34 3f 63 d6 09 3f b4 2c 4f 3f
       0.46134156 0.70700616 0.53842753 0.80927587
0002b0 a0 a0 1c 3f 23 c1 dd 3d 1b 88 4e 3e 04 05 a9 3e
       0.61182594 0.108278535 0.20169108 0.3301164
0002c0 8f 7b 81 bd 23 5d 82 3e de 29 88 3e ff c4 17 bd
       -0.06322395 0.25461683 0.26594442 -0.037053104
0002d0 61 52 d4 3e 9b 2d 25 3f 39 1f 1f 3f 32 47 d1 3e
       0.414691 0.64522713 0.62157017 0.4087463
0002e0 db b6 62 3e a0 06 b2 3e aa c2 e0 3d 64 cb c7 3e
       0.22140066 0.3477068 0.10974629 0.39022362
0002f0 de 70 2a 3f a8 e4 06 3f 9e 7e ca 3e 8a 15 50 3f
       0.6657847 0.5269265 0.39549726 0.81282866
000300 48 0f 5c 3f d0 1d 59 3f 2d 1d 31 3f 24 38 50 3f
       0.8596082 0.84811115 0.69185144 0.81335664
000310 b5 3f 92 3e cd 10 ab 3b a2 ff ff 3e d3 c0 4f 3f
       0.2856423 0.0052205087 0.4999972 0.811536
000320 12 56 ae 3e c0 a2 32 3f b2 c8 5f bd cc 0a e9 3e
       0.3405004 0.69779587 -0.054634757 0.4551605
000330 5c 32 65 3f 59 e2 04 bd f0 38 49 3d 36 b6 4d 3f
       0.8952997 -0.032442424 0.049126565 0.80356157
000340 b2 84 3b be 87 91 68 3e 47 62 77 3d fd db 0c 3f
       -0.18312338 0.22711764 0.06039646 0.55023175
000350 9c 04 60 3e 05 92 a8 3e fb e3 4a 3f 45 2b 1f 3f
       0.21876758 0.32923904 0.7925412 0.621754
000360 2d a2 18 3e 51 39 11 3f a7 d2 9c 3e 2b fe 57 3f
       0.14905615 0.5672808 0.30629465 0.84372205
000370 d0 43 3d 3e e3 05 57 3f 48 1d 15 3d dc 0f a5 3e
       0.184829 0.8399336 0.036404878 0.32238662
000380 f1 43 7a 3f ff f6 a5 3e d7 cc eb 3e c5 f9 0e 3e
       0.9775992 0.32415006 0.46054718 0.13962467
000390 bd d1 4d 3f 54 81 9f 3e 74 ef 44 3f cf 34 ac 3c
       0.8039816 0.31153357 0.76927876 0.021021275
0003a0 da 48 87 3e 15 2f 94 3e 60 2d 42 3f 10 4c 40 3f
       0.2642277 0.2894217 0.75850487 0.7511606
0003b0 07 52 01 3f 8f b1 25 3f 0f db 89 bd be 51 ab 3e
       0.5051579 0.6472406 -0.06731235 0.33460802
0003c0 f3 0c 44 3f e2 74 15 3e 53 96 08 3e d1 cb f6 3d
       0.7658226 0.14595369 0.13338594 0.12050594
0003d0 43 cd 4e 3f 10 ce f5 3e 2a d6 27 3f 24 35 a2 3e
       0.80781955 0.48008776 0.65561163 0.31681168
0003e0 9c d1 1c 3f 5c 25 44 3e 73 74 53 3f c8 6e 22 3f
       0.6125734 0.19154876 0.8259956 0.6345029
0003f0 84 0b 8f 3d ef e2 6f 3f 99 dc b3 3d 40 1c 59 3e
       0.06984618 0.9370565 0.0878231 0.21202183

cell_nlos.erev f4 [32, 32]
000000 9b f2 f5 3d 31 4f a9 bd 13 6c 1a be d5 1d d2 3d
       0.12009164 -0.08267058 -0.1508029 0.10259596
000010 94 75 27 be 2d d0 48 3c d7 fb e7 3c 49 cc cb 3d
       -0.16353446 0.012256664 0.028318329 0.09951074
000020 cd 11 f6 3c c3 13 a4 bc dd 99 ad 3c e6 44 07 be
       0.030037785 -0.020028954 0.021191532 -0.13209876
000030 2c ec 4e be 3c 1e 32 3e 8b fb 56 be ac 28 a0 be
       -0.2020728 0.17394346 -0.20994394 -0.3128103
000040 53 7d c7 bc fd b7 91 3e 55 d7 51 bd ed a6 1d 3e
       -0.024351751 0.28460684 -0.051230747 0.15395708
000050 4e 11 99 3d ff 69 1b 3d e1 9c 04 be 8d 21 87 3d
       0.07474004 0.037942883 -0.1295047 0.06598196
000060 6c 18 3e 3d 49 5d 81 3d f0 3d d6 bd b1 09 1e 3e
       0.04641001 0.06316621 -0.104610324 0.15433384
000070 b4 99 23 be 46 00 0c be f2 2c 2b 3e 7c 12 b1 3d
       -0.15976602 -0.1367198 0.16716364 0.08646104
000080 a3 16 af 3d df 04 62 bd e6 aa 2c 3e fc c3 91 bd
       0.085492395 -0.055180427 0.16862068 -0.07117459
000090 44 ce 04 3e 4f 78 da 3d 8c ed 0f be ae 4b ef bd
       0.12969309 0.10667478 -0.1405546 -0.11684357
0000a0 6f e3 38 3e c2 96 b6 3d 17 1f ab 3b f2 61 85 bd
       0.18055509 0.089154735 0.005222212 -0.06512822
0000b0 bc 38 07 3d d9 26 55 bd 16 1f ee bd c6 a1 8f be
       0.03301309 -0.052039 -0.11627023 -0.2805311
0000c0 ff 93 58 3c 7a 19 67 3d 3d 78 be bd 5b 24 43 3e
       0.013218879 0.05642078 -0.093002774 0.19056837
0000d0 1e 48 1d 3e 30 b5 33 be d1 8a a6 bd e1 a3 e4 bd
       0.15359542 -0.17549586 -0.08131946 -0.1116407
0000e0 c1 55 cf 3d 7b 9f 8f be 9d dd ee bd e7 62 ba 3d
       0.10123778 -0.2805136 -0.11663363 0.091008954
0000f0 ed 8c f8 bb d2 4c 36 3d 86 1a 6d bc d4 78 37 3e
       -0.007585159 0.044506855 -0.014471656 0.17917186
000100 67 2b 3e bd b6 25 39 3e 80 e9 15 3d b8 7b 17 3e
       -0.04642811 0.18080792 0.036599636 0.14793289
000110 2d d7 32 be ea d8 e5 3d 25 6b 1c bd a6 71 3c 3d
       -0.17464896 0.11223014 -0.03818812 0.04600682
000120 ba 01 05 be ba c5 b1 3d bb 1f ac bd 55 e9 e2 bd
       -0.1298894 0.086802915 -0.084044896 -0.11079661
000130 c4 a6 61 bd ce d1 24 3e 50 4d b9 bd 9f a9 48 be
       -0.05509068 0.16095659 -0.09047949 -0.19595955
000140 74 84 6c 3e 1a c3 bd 3e ca e8 50 3d 42 73 e8 bc
       0.23097402 0.37062913 0.051003255 -0.028375272
000150 06 d2 87 3d 6f 5d 00 be 4b 47 1a 3e f9 86 77 3d
       0.06631856 -0.12535642 0.15066259 0.060431454
000160 ec b5 32 3e d5 00 8c bc 67 27 9a bd 41 f6 1b be
       0.1745221 -0.01709024 -0.07527047 -0.15230657
000170 a4 f5 7e bd 3a 1b 91 bd 11 ac 9a 3d 7b b4 70 3d
       -0.06224598 -0.07085271 0.0755235 0.05876587
000180 f1 fd 4a 3e c6 c5 d2 3d ba c2 3a 3e bf 27 85 3e
       0.19823433 0.102916285 0.18238345 0.26006886
000190 51 ad 43 be 84 9a ba bc f8 2b d5 bb 5d 26 fd bd
       -0.19109084 -0.022778757 -0.0065054856 -0.12360833
0001a0 7d 32 dd bd b9 9a 38 bd 1c 32 df 3d b7 08 01 3c
       -0.108006455 -0.04506943 0.108982295 0.007875613
0001b0 03 7f 3d 3e a9 2d f1 bd c0 55 5b bd ae 53 87 3d
       0.18505482 -0.11776287 -0.053548574 0.066077575
0001c0 47 ed 8a 3d fc 77 98 3d 31 e5 f4 3d 56 48 3e be
       0.06783538 0.0744476 0.11957777 -0.18582281
0001d0 c7 47 4c be ee 35 d0 3d d2 9c 0f bd ee 47 25 3e
       -0.19949256 0.10166536 -0.035061665 0.1614072
0001e0 7b c8 24 bd 7e 90 06 3e 85 07 50 3e 53 2d 2c 3e
       -0.040230256 0.13141057 0.20315368 0.16814165
0001f0 39 49 39 be 5d e6 58 bd d7 50 a1 3d 20 7b 17 be
       -0.18094338 -0.052954067 0.07876747 -0.14793062
000200 9a c4 06 bd a9 c7 d5 3d 6a d2 eb 3c 9a 9f c6 3d
       -0.032902338 0.10438473 0.028786857 0.0969841
000210 83 39 75 3c ee 1e 52 3d 85 9a 0f bd d5 ee c7 3d
       0.014967325 0.051299028 -0.03505947 0.097623505
000220 0a 33 d7 bd d0 12 4d be 74 a4 dc ba 56 a6 a4 3d
       -0.10507782 -0.20026708 -0.0016833679 0.080395386
000230 e1 ba 20 3e 33 df 74 bd d8 78 10 3d 07 c2 17 be
       0.15696289 -0.05978317 0.035271496 -0.1482011
000240 c5 5d a1 bd c3 eb 6c 3d 21 24 8f bd 6f b8 5e bd
       -0.07879213 0.057842027 -0.06989313 -0.05437511
000250 26 f3 81 3d ef c8 9c 3d 9c a3 35 be 86 09 29 bd
       0.06345205 0.076555125 -0.17738193 -0.041268848
000260 68 29 a5 3d ff e5 54 3b 8c 46 9a 3c 62 b5 ec bd
       0.08064538 0.0032485721 0.018832467 -0.115580335
000270 1e 61 01 be 5a 45 49 be 3e 7c 5a be 42 12 2a be
       -0.12634704 -0.19655362 -0.21336457 -0.16608527
000280 bb 1d 1b be 6b 21 bf bb 51 c6 de 3d 35 f8 29 bd
       -0.1514806 -0.005832841 0.108776696 -0.041496474
000290 81 33 e8 3d bc 4b fe 3d f6 a8 b4 3c 46 9a 54 3d
       0.113379486 0.12416789 0.022053223 0.05190494
0002a0 79 90 b2 bd 2e dd c3 bd 84 4f ed bd ad 9a 7c be
       -0.08718962 -0.09563671 -0.11587432 -0.24668379
0002b0 16 f3 01 be 1f f8 28 be 3e 16 58 be c9 09 54 be
       -0.12690386 -0.165009 -0.21102235 -0.20706858
0002c0 74 53 0e 3e 64 05 af 3c 57 79 c1 3d 8f 7e bc 3d
       0.13899022 0.021364875 0.09446972 0.09203827
0002d0 4c 8b 92 3b 33 d6 77 be da 3c 0c be 9e 9f 37 3c
       0.004472172 -0.24202804 -0.13695088 0.011207489
0002e0 0d 56 92 3b 88 44 42 be 28 d8 7e 3e 1a 2a e0 3d
       0.0044658245 -0.18971455 0.24887145 0.1094553
0002f0 eb 28 9b 3c 4f 57 2c be 00 30 1a 3d a0 46 fd 3d
       0.01894041 -0.1683018 0.037643433 0.12366986
000300 b5 20 bd 3d e3 cc 8a bd c7 63 b0 3d e0 fd 53 be
       0.09234754 -0.0677736 0.08612781 -0.20702314
000310 a5 75 14 be bb ad 04 be 15 85 49 3e 88 2f 5c be
       -0.14498003 -0.12956898 0.19679673 -0.21502507
000320 4e 70 b9 3d 85 8d f3 bc 95 63 4f 3c aa d6 0d 3d
       0.090546235 -0.029730568 0.01265802 0.034628548
000330 69 65 1a be 2e 65 05 3e 19 b1 c0 3d 12 1f c3 be
       -0.15077747 0.13026878 0.09408779 -0.38109642
000340 49 89 ee 3d 2e 1d 00 3e b4 b0 94 3d 53 b5 4b bc
       0.11647279 0.12511131 0.07260266 -0.012433368
000350 5c 65 4a 3d f0 ac c1 3c 6d bc e3 bd f1 0b 4e be
       0.04941307 0.023642033 -0.11119924 -0.20121743
000360 c1 a7 8e 3c 68 d0 aa 3b cf 9a 55 be c1 2a 23 3e
       0.017413976 0.0052128322 -0.20859836 0.15934278
000370 cd 83 14 3d 52 74 92 bd e2 f0 53 3d d3 39 98 3d
       0.036258508 -0.071510926 0.051743396 0.07432904
000380 a1 46 5f be 20 21 55 be ae b2 72 be ca eb 29 3e
       -0.21804287 -0.20813417 -0.23700973 0.16593853
000390 bf dc 84 be 79 af 05 3e dc 4c ac 3d f3 02 e8 3b
       -0.25949666 0.13055219 0.08413097 0.0070804297
0003a0 d1 64 1f 3e e8 64 7c bd e9 f0 47 bd 9c fe 57 3d
       0.15565802 -0.06161967 -0.048813734 0.05273305
0003b0 b0 ef 41 be 34 56 00 3e 76 ca e6 bd db 84 0f be
       -0.1893909 0.12532884 -0.11269085 -0.14015524
0003c0 c0 74 54 3d 11 ba 1c be af a0 e4 3d b9 ee 52 bd
       0.051869154 -0.15305354 0.111634605 -0.051497195
0003d0 7a 77 b6 3d f9 f0 e0 bd aa bd 34 be 9f c2 bb bd
       0.08909507 -0.10983462 -0.17650476 -0.091679804
0003e0 a4 bb 56 bd cc ac 11 3e ef 88 a8 3d fb 82 05 be
       -0.05242504 0.14226073 0.08229243 -0.13038246
0003f0 2f 01 47 be 6f 6f 75 be 6d 9c 20 3e 25 59 1c 3d
       -0.19434045 -0.2396829 0.15684672 0.038170952
