bert/stage1_bert_fp_best.pt (torch, 309359 bytes, 35 tensors)

cls_token f4 [1, 1, 64]
000000 97 d0 91 3b 1e 36 5e bc 4a 4d 11 3d 6e 26 d2 bc
       0.0044499147 -0.013562707 0.0354741 -0.02565309
000010 59 0c d1 3c c0 d6 c3 bb 32 95 81 bd 5b d1 d3 3c
       0.025518583 -0.005976528 -0.06327285 0.025856664
000020 ea 96 8d bd fd 56 66 bd 6c d5 92 3d 16 9f b1 39
       -0.0691355 -0.056235302 0.07169613 0.000338786
000030 45 ce 20 bc 00 5e c3 3c c0 0b a8 3c 67 99 24 3d
       -0.0098148035 0.023848534 0.020513415 0.04018536
000040 fb 0c a6 bc c9 27 ff 3b ef 9b 45 3d d1 fb b1 bc
       -0.020269861 0.007786725 0.048244413 -0.02172652
000050 2a 47 bf bc cf d8 b6 ba 97 01 ff 3c a0 ea 58 3d
       -0.023349363 -0.0013950112 0.031128688 0.05295813
000060 27 d7 dd bc f9 35 67 bd 35 79 fb 3b bb e1 3a 3d
       -0.027080132 -0.056447957 0.007674361 0.04562543
000070 e0 14 09 bd 81 aa e7 3b f2 5a a9 3c 63 f1 b6 3b
       -0.033467174 0.007069886 0.020673249 0.0055829748
000080 d6 ea c9 3c 28 4e 57 3c 2d b9 92 3d a1 23 f8 bc
       0.024648111 0.0131411925 0.07164226 -0.030290427
000090 42 4b 14 3d 40 d8 06 bd 53 ae 61 3d d5 08 d9 3c
       0.036204584 -0.032921076 0.05509789 0.02649347
0000a0 aa 46 d5 bb 8a f4 94 bc 6a 8a 19 3d 93 d8 d3 bc
       -0.006508668 -0.018183012 0.037485518 -0.025860107
0000b0 11 18 3f bd d4 23 0c 3d bb ee e3 3c 5b fb 19 bd
       -0.04665381 0.034213856 0.027823796 -0.037593227
0000c0 c9 9a eb bc 4e 1e 46 3b 6a b5 5d 3d c8 c2 58 bd
       -0.02876033 0.0030230465 0.054128088 -0.052920133
0000d0 4e a0 d5 3c 42 8a 56 3d 80 a4 12 3c d0 3d 09 3d
       0.026077416 0.052377947 0.008950353 0.033506215
0000e0 a7 11 34 bd 88 51 9c bc ab ad c1 3c 6f 73 e6 3b
       -0.043962147 -0.019081846 0.023642382 0.0070328037
0000f0 1d 2f a7 bb 47 1b 43 3c 94 b9 1c 3d 33 29 3e bd
       -0.005102052 0.011908359 0.03826292 -0.04642601

pos_embed f4 [1, 61, 64]
000000 c2 64 e6 3c 1c 42 15 3c 60 a8 08 3c 02 8e ab 3c
       0.028124217 0.00911 0.008340925 0.020941738
000010 c3 c1 10 3b fd 8d fd 3c 96 73 d7 bd 4e e9 ac bb
       0.0022088147 0.030951494 -0.10520093 -0.0052768355
000020 f3 7c 89 bd 2f 78 54 bd 38 a7 a1 3c db b9 1f 3b
       -0.06713285 -0.05187243 0.019733056 0.0024372253
000030 88 2f df 3c 5d f8 fa bc cd ca a6 3c db fe df bb
       0.027244344 -0.030636007 0.020360375 -0.006835801
000040 fa 2a a5 3c 56 49 47 3d 44 7b fc b9 03 a8 cc bc
       0.020162094 0.048653923 -0.00048157026 -0.024982458
000050 d8 f3 da bb bb eb f8 bb a0 f7 bc bb e7 1c 45 3d
       -0.0066819005 -0.0075964606 -0.005766824 0.048123267
000060 e8 ad f4 bc bd 8e a2 bd c9 9f 84 ba 8b 42 33 3d
       -0.029868081 -0.079373814 -0.001011842 0.043764632
000070 73 f7 5e 3c 97 c9 20 3d 0a b3 e8 3c 9b 09 c8 3a
       0.013608801 0.03925475 0.028405685 0.0015261652
000080 c0 2a 42 3d 4f c9 f9 3c bc ad ad 3d 8f e0 48 bd
       0.04740405 0.0304915 0.08480403 -0.04904228
000090 ee c1 80 3d 5e 1d fc bc 95 4f 1f 3d c5 ed 0e 3d
       0.06286989 -0.030775722 0.038894255 0.034894723
0000a0 74 e2 66 3c eb 4d 17 bd db 43 ee 3c bc 86 16 bd
       0.014092077 -0.036939543 0.02908509 -0.036749586
0000b0 1c 70 8a 3c ef fc 87 3d ee c1 48 3d 43 9f 51 bd
       0.016899161 0.0664004 0.04901307 -0.051177274
0000c0 a4 3e eb 3b 46 48 d8 bc e6 e4 1b bc 9d c0 4d bc
       0.007179098 -0.02640165 -0.009515023 -0.01255813
0000d0 d6 e3 1c bd 18 25 2b 3d 62 60 79 bb 8c 42 42 bc
       -0.03830322 0.041783422 -0.0038051833 -0.011856686
0000e0 d4 09 98 bd 92 3e 38 bc d9 94 0f 3d a8 41 2d 3c
       -0.074237496 -0.011245387 0.03505406 0.010574736
0000f0 48 20 a5 3a 4b be fa bc da cc b8 3c 5b cd 90 bb
       0.0012598122 -0.030608317 0.022558618 -0.0044190115
000100 5a 36 7d bc 57 cc 45 bd 6d c5 8f 3c a0 57 86 3d
       -0.015454853 -0.048290577 0.017550195 0.06559682
000110 8c fe 16 3d d9 43 9f bd 0c 46 5b 3b 75 81 94 bd
       0.03686385 -0.07776613 0.00334585 -0.072512545
000120 99 da 9c 3c 46 d5 8c 3c e5 11 71 3c e2 01 e4 bb
       0.019147204 0.01719154 0.014713739 -0.0069582323
000130 24 8c 6c bd 46 6b 3d 3c fa b5 d6 bc 28 10 68 bd
       -0.057750836 0.0115612205 -0.02620982 -0.056656033
000140 6e 54 0d 3d e3 93 97 bc eb ed 91 3d 7d 52 fb bc
       0.034504347 -0.018503135 0.071254574 -0.030678982
000150 38 dc df 3c 02 80 ab bc 55 4d 53 3c 4a 7d d8 3d
       0.027326688 -0.020935062 0.012896855 0.10570772
000160 7e b6 4e 3d d1 d1 2b bd ec 0a a2 3c db c3 1b 3d
       0.050467007 -0.041948143 0.019780599 0.03802858
000170 65 04 92 bd 1f fd c8 bc 69 ec c9 bc db 24 3f 3c
       -0.071297444 -0.02453476 -0.024648862 0.011666502
000180 29 bd 8b 3c 8b 17 53 3d fa 68 e6 ba 58 9c 78 3c
       0.017057972 0.051536124 -0.0017578893 0.015173994
000190 e6 73 c3 3c bb 03 ba ba 41 48 6c bc 8d 14 14 bb
       0.023858976 -0.0014191786 -0.014421524 -0.0022595257
0001a0 57 e5 c7 bd 90 04 cc bc 45 fd ba 3c 26 5e 1a bd
       -0.0976054 -0.02490452 0.022825846 -0.037687443
0001b0 73 b9 2d 3d c7 5b dd 3c b7 06 e5 3c 71 d2 46 bd
       0.042413186 0.027021302 0.027957303 -0.048540536
0001c0 b5 a8 85 b8 c5 9d 16 3d 3c 9f 8a 3c 35 24 85 3b
       -6.373358e-05 0.036771554 0.016921632 0.004063154
0001d0 36 ec ac bd ce 5e fe 3c da f1 8a bd bb 7d 45 3b
       -0.08443491 0.031051066 -0.06784411 0.0030134756
0001e0 fc f4 4f bd 71 00 42 bd c2 b3 83 3b d0 0e 10 bd
       -0.050770745 -0.047363702 0.0040192315 -0.035170376
0001f0 89 10 03 bc ba 0a 1f 3c 73 df f7 bd f9 ea b2 3b
       -0.007999548 0.009707147 -0.121031664 0.00546014
000200 a7 99 a1 bc 72 b6 15 bd 69 15 90 3c 87 1d fe 3c
       -0.019726587 -0.036550947 0.017588334 0.03101994
000210 fa 52 10 3d 59 de 94 bd 90 31 b9 3c 4d 52 7f bd
       0.035235383 -0.07268972 0.022606641 -0.062334348
000220 2b e1 11 bc 23 34 d8 ba 3c 89 08 bc 5e 8f 08 bd
       -0.008903782 -0.001649503 -0.0083335005 -0.03333985
000230 ef 9f ba bc ac 0e 7b 3d 2d 85 27 bd c1 65 39 bd
       -0.02278134 0.06129329 -0.04089849 -0.045263056
000240 d2 d2 b6 3d 0e b2 3d 3b 53 60 95 3d ab f9 2a bd
       0.089269295 0.002894524 0.07293763 -0.04174201
000250 5a 75 03 3d 9d 71 20 bd 50 b6 be bb 49 39 b1 3d
       0.032094337 -0.03917085 -0.005820073 0.086535044
000260 33 cf b3 3d 50 ac b9 3a 25 8f a9 3c e5 e7 49 3d
       0.087797545 0.0014165733 0.02069814 0.049293417
000270 e7 b3 7d bd 71 dd 53 bd a5 bc 27 bc 25 15 14 bc
       -0.061939146 -0.051724855 -0.010237847 -0.009038244
000280 40 e0 17 3d 14 c3 f8 3c 61 d8 e8 3c 33 44 2a 3c
       0.037079096 0.030366458 0.02842349 0.0103922365
000290 e9 f1 fc 3c a1 bb 79 3b ce ee d1 bc 57 94 96 3c
       0.03087707 0.003810622 -0.025626566 0.01838128
0002a0 3d 2b e1 bd 30 0a 98 ba 04 ad 9e 3d 6a 0f 27 bd
       -0.10994575 -0.0011599716 0.07747844 -0.040786184
0002b0 ab 18 9a 3c 4d 4e 8c 3d 55 65 35 bc 73 ae 82 bd
       0.01881059 0.06850872 -0.011071523 -0.0638093
0002c0 10 19 11 3d 59 e5 a7 3d a4 22 6f 3c e6 50 36 bd
       0.035424292 0.081980415 0.014595661 -0.044510745
0002d0 03 4c 63 bd d1 64 a1 3c d0 95 b8 bc dc ab 1c 3d
       -0.055492412 0.019701393 -0.022532374 0.038249835
0002e0 89 6e 2d bd 18 9b 76 bd 0c 98 4c 3c 6d b8 75 bd
       -0.042341743 -0.060206503 0.012487423 -0.059990335
0002f0 09 b3 86 bd 19 87 a5 3c 0c e3 f4 bd 2e fb 1b 3c
       -0.06577117 0.020206021 -0.11957368 0.009520335
000300 a6 6d 01 bd c5 9a 97 bd 65 7c 31 3d fe f5 b5 3d
       -0.03159871 -0.07402567 0.043331522 0.0888481
000310 f0 0d 53 3d 9b f2 c2 bd 16 4b 30 3d f8 d9 ef bd
       0.051526964 -0.095189296 0.043040358 -0.11711496
000320 9c df d7 bc 07 01 83 bd 65 1e 87 3c 88 77 63 bd
       -0.026351742 -0.0639668 0.016493985 -0.055533916
000330 3a 2a 99 bd 06 f8 dc 3c 4a 46 0d bc 47 bf 49 bd
       -0.07478757 0.026973736 -0.008622715 -0.049254682
000340 37 d2 c1 3d e2 d3 2f bd 44 49 4d 3d 70 6f cf bc
       0.094639234 -0.042926677 0.0501187 -0.025321692
000350 5d ab 88 3d 65 b7 2e bd 84 d2 00 bd a2 7b 02 3e
       0.0667331 -0.042655367 -0.031450763 0.12742475
000360 9d 8f b9 3d cb 0c 00 bd e0 28 ac 3c b2 5e b0 b8
       0.09060595 -0.0312622 0.021015584 -8.409972e-05
000370 5a d5 f3 bd 23 e0 71 bd 53 02 29 bd f5 cf a0 bd
       -0.11905928 -0.059051644 -0.041261982 -0.07852165
000380 20 1b f3 3c 9d 33 74 3d 6b 94 74 3d 95 27 94 3d
       0.02967602 0.059619535 0.059711855 0.07234112
000390 60 b9 86 3d 28 bb 51 bd 90 e1 5e bd 2f 45 64 3d
       0.06578326 -0.051203877 -0.054414332 0.05573004
0003a0 bc 9a 00 be 5c 52 be bc 72 01 86 3d 3f 19 6d bd
       -0.12559026 -0.023232631 0.065432444 -0.057885405
0003b0 73 3a 11 3c 03 b1 72 3d 24 82 65 bd b1 fa d2 bc
       0.008864033 0.059250843 -0.056032315 -0.025754305
0003c0 a3 a0 22 3c bb e6 86 3d 40 2f 45 3d aa 33 b6 bc
       0.009925994 0.06586977 0.048140764 -0.022241432
0003d0 a6 f4 c6 bd fe 3e 62 3d ee 4b 02 bd 6b b8 37 3d
       -0.09714632 0.055235855 -0.031810693 0.04485361
0003e0 4c 63 b9 bc bf 9a 03 bd 1c f9 3a 3c ea d1 c4 ba
       -0.022630356 -0.03213 0.011411931 -0.0015016173
0003f0 81 b4 30 bd e3 37 8f 3d fd 4d 04 be 60 cf 5f 3c
       -0.043140892 0.069930814 -0.12920375 0.013660282

input_proj.weight f4 [64, 1]
000000 27 74 fd 3d a9 fe 69 3e c6 69 07 bf f8 b9 47 bf
       0.1237567 0.22851051 -0.5289577 -0.7801814
000010 b9 62 06 be 13 aa 39 3f 35 60 19 bf dd fa 15 3f
       -0.13123597 0.7252514 -0.59912425 0.5858591
000020 cd 8a ba be ea f2 59 3f 74 fd 29 bf 58 fa 3e 3f
       -0.36434022 0.8513628 -0.66402364 0.74600744
000030 0b 41 9d be 29 67 1b bf 14 01 59 3e 77 97 dd 3e
       -0.30713686 -0.60704285 0.21191818 0.4327962
000040 df f1 26 be d3 29 52 3f 9b f7 85 bf d1 f2 65 3f
       -0.16303204 0.8209507 -1.0466188 0.89823633
000050 c1 ce 71 bf c9 8b c6 3e 65 21 98 3e 0f 10 3b 3e
       -0.94456106 0.38778523 0.29712978 0.18267845
000060 c0 1f 4a bf a3 c8 4c 3f 87 4e 16 bf be 8f 5e bf
       -0.78954697 0.7999365 -0.58713573 -0.86938083
000070 cc 69 1a 3e df 32 6f 3f b3 28 07 3f 5c fb 18 3f
       0.15079421 0.93437 0.5279648 0.59758544
000080 f5 ed e7 be 55 55 33 3f 12 b4 56 bf f1 9d 84 be
       -0.45298734 0.7005208 -0.83868515 -0.2590175
000090 42 04 8d be f2 23 13 3f 6e f4 3e 3e d8 62 38 bf
       -0.2754231 0.57476723 0.1864793 -0.72025824
0000a0 6d 94 a0 3e f5 9b 56 3f a6 32 e0 be 42 bf 55 3f
       0.3136324 0.8383172 -0.43788642 0.8349496
0000b0 e6 bb a2 3e ca 1b 55 bf 03 c4 72 3f 58 f0 93 3e
       0.3178398 -0.8324553 0.9483034 0.28894305
0000c0 63 f9 56 bf df e6 0d bf 24 e2 31 bf be 77 5e 3f
       -0.83974284 -0.55430406 -0.6948569 0.8690146
0000d0 d0 6d 1c 3e db 60 63 bf 84 57 53 bd 04 ca 4a bf
       0.15276265 -0.88819665 -0.051597133 -0.792145
0000e0 ac 17 d5 3e 94 a0 34 3f c3 c1 25 be 04 b9 46 bf
       0.41619623 0.7055752 -0.16187195 -0.7762606
0000f0 85 8e 5a 3f ee 03 f6 be ea bc 0b 3e 72 83 05 bf
       0.8537372 -0.48049873 0.13646284 -0.52153695

input_proj.bias f4 [64]
000000 37 c2 33 bf 7f 81 4b 3f f5 00 2b 3f 56 a0 16 3f
       -0.70218223 0.7949447 0.66798335 0.58838403
000010 fa 58 41 3f 4b 5d 58 3f b7 d1 43 3e 78 58 ab 3d
       0.7552639 0.84517354 0.19122969 0.083664834
000020 7d 8f 27 bf 82 a5 cd be 7f d8 08 3f 5f 06 51 be
       -0.6545332 -0.40165335 0.53455347 -0.20412587
000030 64 90 50 3f 7e 56 ae 3e 3b ba 25 3f f5 0a 0f 3e
       0.8147032 0.34050363 0.6473729 0.13969024
000040 0c c6 16 bf 5b 74 75 be 26 11 4a 3f cf 3a fb 3d
       -0.58895946 -0.23970167 0.78932416 0.12267076
000050 b9 55 bf be 8a 70 f9 3e a5 68 00 bf 9a 3a 23 be
       -0.3737009 0.48718673 -0.50159675 -0.15940323
000060 c4 e6 7b bf d0 af a6 3e be 49 a8 3e 75 4c 60 3e
       -0.98398995 0.3255601 0.3286876 0.21904166
000070 47 3b 00 3f d7 6b 54 3f 7f 94 1a 3f e4 d9 46 3e
       0.5009045 0.8297705 0.6038284 0.19419056
000080 05 9f 89 3e 71 38 50 bf 24 06 67 bf 82 dd 0d 3f
       0.26879135 -0.8133612 -0.90243745 0.5541612
000090 7e a2 79 3d 82 80 49 bf 84 80 9d bd a3 f4 2f 3f
       0.06094598 -0.7871171 -0.07690528 0.6873266
0000a0 cf 1f 59 3f 6d 8d 05 3e 28 f7 5a 3e 7e c1 5d bf
       0.8481416 0.13042231 0.21383345 -0.8662337
0000b0 0d f6 ed be 47 dd c0 3d 35 dd 2c be e5 b9 9b 3e
       -0.46476784 0.09417205 -0.16881259 0.30415264
0000c0 7a bd 71 3f b0 2e b4 3e 16 47 97 3e eb e9 e9 3c
       0.94429743 0.3519187 0.29546422 0.028553924
0000d0 24 0e 6a 3f 7c 2d 2c bf e9 e2 41 3f ca 80 50 3f
       0.91427827 -0.67256904 0.7573686 0.81446517
0000e0 5f 8e fc 3d 7e f0 4c bf 21 da 8e be 0d 6b 72 3f
       0.12331843 -0.8005446 -0.27900794 0.94694597
0000f0 ed 51 b4 3e 14 09 5d 3f d8 31 59 3f e3 87 d0 3e
       0.35218754 0.8634198 0.8484168 0.40728673

transformer.layers.0.self_attn.in_proj_weight f4 [192, 64]
000000 87 49 56 bd 2e 42 52 3d c6 db 51 bd 58 7c 38 3c
       -0.052316215 0.051332645 -0.051234983 0.011260115
000010 c8 8c be 3d 57 6d 41 3b 7f 14 c6 3d af 11 95 3d
       0.09304196 0.0029514635 0.09671878 0.072787635
000020 e8 5a 30 3e b0 64 3e 3e d2 a8 5b bd 29 0b cf bd
       0.17222178 0.18593097 -0.053627796 -0.101095505
000030 0c af d4 3b 88 49 0b be e4 55 0f be 9e d2 01 be
       0.006490594 -0.13602269 -0.13997608 -0.12678
000040 a5 70 ba 3d 0a 65 03 be 60 37 b1 bb 04 de d8 3d
       0.091035165 -0.12831512 -0.0054082125 0.10589221
000050 86 ed e7 bc d5 98 ea bd 3b 8e 9e bd 4a 2c 50 be
       -0.028311502 -0.11454932 -0.07741972 -0.20329395
000060 83 4e a7 3d 1f 89 2f 3e 12 75 d6 3d 9b 37 28 3d
       0.08169272 0.17142151 0.10471548 0.041068655
000070 62 71 e5 bd 61 7d 26 be 5c 59 b0 3d 08 69 8a bc
       -0.11203267 -0.16258766 0.08610794 -0.016895786
000080 dd b2 fd bd 7a 74 a9 bd 9d 3a 97 3b ec fe 8d bd
       -0.12387631 -0.08274169 0.0046151415 -0.06933388
000090 b7 4d 28 be f2 1c f0 3d 3d d4 de bd 8e a9 19 be
       -0.16435896 0.11724271 -0.10880325 -0.15006086
0000a0 09 da 16 bd a4 c6 63 3e 6b a2 0b 3d 11 0f ad 3c
       -0.03682903 0.22243744 0.03409044 0.021125348
0000b0 a3 5e 19 3e 41 e0 34 bd 5d 23 e9 bc 46 01 63 3e
       0.14977507 -0.044159178 -0.028459245 0.22168455
0000c0 0c fc 11 be c0 29 47 bd 7e da e3 bd 48 e9 96 3d
       -0.14256305 -0.0486238 -0.111256585 0.073687136
0000d0 e0 4e 94 bd 5e 82 15 3d d2 63 ba bd aa 2a 2d be
       -0.07241607 0.03650128 -0.091010705 -0.16910806
0000e0 5d a7 b0 bc 64 03 58 3e a9 53 5b be 0e 43 88 ba
       -0.02156418 0.21095043 -0.21418633 -0.001039596
0000f0 e7 91 17 3d a4 8c 33 bd 8f 83 ba 3d 58 1c 69 3d
       0.037004378 -0.043835297 0.09107124 0.056911796
000100 dd e9 05 3e bc 9c 03 be 59 46 05 3e a5 43 24 3e
       0.13077493 -0.12852758 0.13015117 0.1604143
000110 ea 80 8e 3d 21 fe 0e 3e db dc d9 bd 0a 8f 0d bd
       0.06958182 0.1396413 -0.10637828 -0.03456024
000120 78 1e f2 3d 5c 5a 44 3d 66 a2 f0 bd 74 cf aa 3c
       0.11822218 0.047937736 -0.11749725 0.020850874
000130 9b ee 80 3d aa 87 b8 3d fc 07 b5 bb 57 f0 60 bd
       0.062955104 0.09010251 -0.0055246335 -0.054916706
000140 99 38 e5 3d 51 dd 33 3e 8b e7 5b bd fc e6 f2 bd
       0.11192436 0.17564894 -0.053687613 -0.11860463
000150 6b 14 c9 3d c0 c6 d9 bd a6 ec 9a 3d a0 70 1c 3e
       0.098183475 -0.10633612 0.07564668 0.15277338
000160 14 37 de bc 69 1d 00 be 0b 37 83 3d 5c 54 a0 3d
       -0.027125873 -0.12511219 0.06406983 0.0782859
000170 ef 20 c6 3d f9 0c 26 3e 91 ec f8 3d 1c 96 c9 3d
       0.0967425 0.16215886 0.121544965 0.09843084
000180 c9 6f c3 bd b6 0a a1 3d 94 92 3e 3e 2d 7a 3e be
       -0.09542806 0.07863371 0.18610603 -0.18601294
000190 10 0e 33 3e ec 4f 04 be df d4 1f bd fd 52 b8 3d
       0.17485833 -0.12921113 -0.03902137 0.09000204
0001a0 88 71 f8 3d 8c 3f 08 be c0 ca d2 3d c9 74 21 be
       0.12131029 -0.13305491 0.10292578 -0.15767206
0001b0 e1 40 3d bd 16 f5 03 bd 62 cc d6 3d 86 82 94 3d
       -0.04620445 -0.032216154 0.10488202 0.07251458
0001c0 a7 ff cb bd 5d a5 3d 3d 86 fc ed bd 1c c0 0c be
       -0.09960871 0.04630028 -0.11620431 -0.13745159
0001d0 51 cb e4 bd 75 b3 e2 3d 26 73 dd bd 11 93 0f 3e
       -0.11171592 0.11069385 -0.108129784 0.14020945
0001e0 da 9d 19 be 64 2b 59 3c c0 e2 aa bd ba 03 05 3e
       -0.15001622 0.013254974 -0.083440304 0.12989703
0001f0 90 2e df 3d 49 55 f8 bd 7c e6 57 3d ca 70 22 be
       0.10897553 -0.12125642 0.05271004 -0.15863338
000200 5a fa fe 3d 13 64 9b 3c 37 b3 84 bd e6 0e 31 bd
       0.124500945 0.018968618 -0.06479495 -0.0432271
000210 df 19 d1 3c 82 15 08 bd 27 f1 ad 3c f1 6c 10 be
       0.025525032 -0.033223636 0.021233154 -0.14104058
000220 2c 81 5c 3e cd b8 84 bd 91 0e 89 bd a2 d0 db 3d
       0.2153365 -0.064805605 -0.066922314 0.10733153
000230 b0 bf 37 be 0c 84 3b 3b 8a df e4 bb 25 a3 5b 3d
       -0.17944217 0.0028612642 -0.0069846557 0.053622384
000240 ee 2d de bd 89 06 e8 bd c9 ba 38 be a3 78 71 3e
       -0.10848604 -0.113293715 -0.18040003 0.23581176
000250 55 ce 29 3d 63 7f 49 bd af 42 1c bc 1e 42 c8 bd
       0.04145654 -0.04919375 -0.009537383 -0.09778236
000260 1b fc 0c 3b a6 61 5f 3e e7 5f 54 3d 04 95 a4 bc
       0.0021512571 0.21814594 0.051849272 -0.020090587
000270 a8 e2 ed bd d9 7a e5 3c b9 49 82 3c 66 dd 2d 3e
       -0.11615497 0.02801268 0.015904294 0.16978988
000280 2f 58 72 3d ff 4f f5 bd 12 a7 df bd cd 03 22 3c
       0.05916613 -0.11978149 -0.10920538 0.0098886015
000290 e8 03 61 be 69 65 56 bd c4 b1 0d 3b df 41 a1 3d
       -0.21974146 -0.052342806 0.002162085 0.07873892
0002a0 9f 14 36 bd 56 1f 22 bd 7f 83 23 be f4 84 3c bd
       -0.04445326 -0.039580666 -0.1596813 -0.04602523
0002b0 12 50 9b bc 1b 77 8b 3c 59 ad 83 bd ae 83 08 3e
       -0.018959079 0.017024567 -0.06429548 0.13331482
0002c0 92 d3 76 bd 6c 43 02 3d 0f d2 44 be d5 06 74 3e
       -0.060260363 0.03180258 -0.19220756 0.23830731
0002d0 8c 61 27 3d a4 36 c6 3c ad a1 f4 3d a0 c7 08 3d
       0.040864512 0.024195977 0.119449 0.033393502
0002e0 80 19 12 3e 31 4f 2a 3d 71 f0 ad bd a4 96 28 be
       0.1426754 0.04157943 -0.08493126 -0.16463715
0002f0 4f ee 15 3d 08 5d 89 3d 7e 6a 52 be b3 66 15 bd
       0.036604222 0.067071974 -0.20548436 -0.036474895
000300 7b 55 75 3d 2e 02 c4 bd 50 e8 91 3d 2d db bf bc
       0.059895974 -0.09570728 0.07124388 -0.02341994
000310 4a ff bc bd 40 0a 01 be 8a 69 4a bc 2c 39 7f 3c
       -0.0922838 -0.12601566 -0.012354264 0.015577596
000320 90 9e c1 bd fe 38 6c 3d b8 4d 35 3d b4 f0 b2 bd
       -0.094540715 0.05767154 0.04426357 -0.08737317
000330 cf c2 f8 bd 1e 21 21 be 6a 30 a7 bd 2b 40 20 be
       -0.12146532 -0.1573529 -0.08163531 -0.15649478
000340 35 4e d5 3b 57 b6 70 3c db 09 95 3d c3 a6 ca 3d
       0.006509567 0.014691911 0.072772704 0.098950885
000350 16 c5 bb bd 36 7a fd 3b 11 89 ed bd d8 c9 95 3d
       -0.091684505 0.007735516 -0.11598409 0.07313889
000360 81 ed 2b 3e eb d4 d3 3d df 3d b8 bd 7b 15 2b 3c
       0.1678982 0.10343345 -0.08996176 0.010442133
000370 0e a8 85 bd c6 20 85 3c b9 e3 fb bd cf 6f 5e bb
       -0.065261945 0.01625098 -0.12299294 -0.0033941155
000380 7c 70 d9 bd 97 f7 83 bd 77 86 7e 3d 64 d1 65 3d
       -0.10617158 -0.064437084 0.062139954 0.056107894
000390 c0 d4 7d bd 1e 38 29 3e 63 ff a7 bd 65 0b 46 be
       -0.061970472 0.16525313 -0.08203008 -0.19340284
0003a0 ac 16 f3 3d 46 69 6d bc 39 f7 72 bd f8 e6 14 3e
       0.11869559 -0.014490431 -0.0593178 0.14541233
0003b0 bb 47 cb 3d e3 02 2e be 1c 05 41 be be 00 cc 3d
       0.09925791 -0.16993289 -0.18849605 0.09961079
0003c0 80 7f 21 3d a4 83 e9 3d 20 14 e9 bc d6 10 55 3e
       0.039428234 0.114020616 -0.02845198 0.20807204
0003d0 0c 6c d9 3d cd db 58 be b5 f2 fe 3d 2a 87 44 be
       0.106163114 -0.21177597 0.124486364 -0.19192186
0003e0 c6 92 10 bc 12 48 99 bd 8f d2 64 be a3 e3 7a bd
       -0.008824056 -0.074844494 -0.22345947 -0.061252248
0003f0 55 cd 1d 3d f9 e0 ae bd 78 d5 47 bc 43 d2 73 3c
       0.038525898 -0.08539004 -0.012196891 0.014881673

transformer.layers.0.self_attn.in_proj_bias f4 [192]
000000 81 73 85 bd 55 98 cd 3c 3f b1 96 bd 93 b4 7c bd
       -0.06516171 0.025097052 -0.07358026 -0.061695646
000010 f1 89 86 3d 76 9c 7e bd 3f e3 8c 3d f8 d8 6c bd
       0.06569279 -0.06216093 0.06879281 -0.057824105
000020 78 42 91 3d 17 b6 79 bd f3 36 86 3d 84 bd 87 bd
       0.07092756 -0.06096467 0.065534495 -0.06627944
000030 93 74 5e 3d 8d e7 95 bc dd 3e 85 bd 7a de 84 bd
       0.054310393 -0.018298889 -0.06506131 -0.064877465
000040 45 a3 7f bd 82 a3 75 bd 7f 71 07 bd be bc 8a bd
       -0.062411565 -0.059970386 -0.033067223 -0.06774281
000050 fb f1 46 3d 0e e2 6b bd 2c b3 8f 3d 98 fb 75 bd
       0.048570614 -0.05758863 0.07016596 -0.06005439
000060 bb df 76 bd b0 1e 40 bd 1a 17 5a 3d 88 72 53 3d
       -0.06027196 -0.046904266 0.053244688 0.051622897
000070 8b 38 31 3d f3 97 95 bd b4 ed 77 3d 62 52 c9 bc
       0.043266814 -0.07304373 0.060529426 -0.024575416
000080 4b 6e 85 bd 33 77 80 bd c3 e5 82 3d 04 a6 82 3d
       -0.06515177 -0.062727354 0.0639148 0.06379321
000090 3e 4e 7f bd f5 e7 89 bd 4f 0b 8e 3d 6d 3f 82 3d
       -0.062330477 -0.067336954 0.06935751 0.06359754
0000a0 3d 82 87 3d f2 15 8d bd 90 82 88 3d 52 6a 8c 3d
       0.06616638 -0.06888951 0.06665528 0.068562165
0000b0 73 69 65 3d 03 e2 8b bd 57 94 89 bd d9 a8 87 bd
       0.056008767 -0.06830218 -0.06717747 -0.06624002
0000c0 34 d2 72 bd 58 8e 81 bd 05 93 84 3d 8d 02 7c 3d
       -0.059282497 -0.06325978 0.06473354 0.06152587
0000d0 2a 90 80 bd 1d 57 50 3d ea df 58 bd ee c2 7e bd
       -0.06277497 0.050864328 -0.052947916 -0.06219762
0000e0 a7 0b 79 bd dc f0 71 3d 5c c6 7f bd 2a 09 6c 3d
       -0.06080213 0.059067592 -0.06244503 0.057625927
0000f0 08 d6 7c bd ee 0e 81 3d ff ee 84 3d a5 d5 74 bd
       -0.061727554 0.06301676 0.064908974 -0.05977406
000100 58 d0 57 3a ac b9 1b b9 6f 4d 06 3a 54 5a e1 39
       0.0008232645 -0.0001485112 0.0005123233 0.00042982644
000110 38 6c 13 ba f8 d0 1f 3a 56 32 76 b9 ea cc 27 3a
       -0.0005623731 0.00060965074 -0.0002347914 0.0006401079
000120 ca 03 0d ba 1c 5f 5d 3a 5c 4c 30 ba 51 e4 45 3a
       -0.0005379288 0.00084446534 -0.00067252456 0.00075489754
000130 b7 84 35 ba b6 ee 58 39 05 ae 11 3a b4 28 53 3a
       -0.0006924378 0.00020688292 0.0005557242 0.00080550765
000140 e4 b4 03 3a ce 55 55 3a 5f ba 5f 3a 21 4f 79 3a
       0.0005024208 0.0008138091 0.00085345464 0.00095103873
000150 02 d2 2b ba 6d 3c 91 3a 1f bc 39 ba d7 80 81 3a
       -0.0006554426 0.001108063 -0.0007085222 0.0009880316
000160 1d ec 1f 3a c9 48 26 3a 89 a4 65 ba c4 04 f9 b9
       0.0006100552 0.00063432433 -0.00087601744 -0.00047496532
000170 c6 0b 39 ba c7 9d 5a 3a 48 9a 4c ba 8d ff ca b9
       -0.00070589443 0.00083395507 -0.0007804972 -0.00038718843
000180 f7 d4 f9 39 e7 a1 7b 39 56 f1 d7 b9 b3 78 a4 b9
       0.00047651652 0.00023997539 -0.00041187805 -0.00031370446
000190 e2 80 f1 39 98 61 ec 38 e3 ab 77 b9 84 15 f3 b9
       0.00046063127 0.00011271535 -0.00023619788 -0.00046364602
0001a0 79 de 9f b9 57 95 0a 39 e4 33 a9 b9 f4 4e 6c b9
       -0.00030492598 0.00013216339 -0.00032272853 -0.00022536126
0001b0 d4 3c fc b8 b1 9d 4b 39 2c f3 1a 3a ee b4 f9 38
       -0.000120276265 0.00019418333 0.0005910869 0.00011906946
0001c0 49 0c e0 39 60 24 0b 3a 73 10 2f ba 40 52 22 ba
       0.00042733763 0.00053078495 -0.00066781713 -0.0006192066
0001d0 2d 4f 9f 39 7f 61 61 b9 91 08 f6 38 8d 8b 18 3a
       0.00030385834 -0.00021493992 0.0001173179 0.00058191345
0001e0 5b 69 a7 39 9c 69 d6 b9 3f e9 0e 3a 6a 60 69 b9
       0.00031931218 -0.00040895946 0.00054516265 -0.00022256529
0001f0 3c 9b c1 39 e5 bb eb b9 b1 cd 24 b9 b6 65 e7 39
       0.00036927487 -0.00044962685 -0.00015716885 0.00044135534
000200 f1 6a 7b 3b 52 69 c1 3a 86 07 8a 3a 41 1f 17 bb
       0.0038363303 0.0014756119 0.0010530807 -0.00230594
000210 a8 7e 5e bb 6e 7c b6 bb 57 da 5a bb 72 08 d9 b9
       -0.0033950005 -0.0055690324 -0.00333943 -0.00041395758
000220 84 36 cc bb 6f 96 44 ba c3 5b 31 bb d2 60 59 3b
       -0.0062320847 -0.0007499223 -0.002706275 0.0033169282
000230 c4 8a 0b 3c a7 9f b0 3c b2 03 83 3b 8f ac cc bb
       0.008516971 0.021560503 0.0039982432 -0.0062461565
000240 64 f8 e7 bb 61 8e 49 3c 38 ea dc 3c a2 cc cd 3b
       -0.007079171 0.012302012 0.026967153 0.0062804976
000250 25 29 cc b9 c1 0f 16 3c 2f fa 14 3c 61 71 05 bc
       -0.00038940567 0.009159029 0.009092852 -0.008144707
000260 17 36 40 bc cc 5a 08 bc ac 08 80 3b 50 bd 58 bb
       -0.011731646 -0.008322429 0.003907284 -0.0033071823
000270 75 36 d0 39 aa 96 97 ba 34 34 99 bb 52 ca 42 bc
       0.00039713425 -0.0011565287 -0.0046754126 -0.011889057
000280 dc eb 80 3b 53 3e a1 3b 69 ce f2 bb d9 73 cc 3b
       0.0039343666 0.0049207597 -0.00740986 0.006239396
000290 9e 5d f6 bb d8 df 3f bc 08 b4 c2 3a 6c 85 04 3c
       -0.0075184843 -0.011711083 0.0014854679 0.008088451
0002a0 21 98 05 bb 53 5d 18 3b ad 22 da 3a 75 8a 6f 3b
       -0.0020384865 0.0023248985 0.0016642414 0.0036551033
0002b0 04 2e 0b 3b 67 0a 99 3b 9a 04 b5 3a d9 a5 bc bb
       0.0021237144 0.0046704295 0.0013810575 -0.0057570753
0002c0 0c 32 03 3b e0 89 15 3c e9 22 c0 bb 63 8c f3 3b
       0.0020018844 0.00912711 -0.0058635366 0.007432507
0002d0 cc e8 e4 39 e9 8e c4 ba 2e 7d 62 3b 54 b5 c4 3c
       0.00043660996 -0.0014996204 0.0034559476 0.024012245
0002e0 b4 c3 a5 3a f3 d4 6e 3b 5e 8b 98 bb d2 43 f5 b9
       0.0012646825 0.0036442846 -0.0046552857 -0.00046780572
0002f0 99 d4 9f 3b 6f 92 0e bb 5d f4 56 3c ba 7e e0 3b
       0.0048776385 -0.0021754762 0.013119784 0.0068510445

transformer.layers.0.self_attn.out_proj.weight f4 [64, 64]
000000 7b f8 a1 bd 08 9d 9c bc 14 21 01 3e 85 ae e6 bd
       -0.07908722 -0.019117847 0.12610275 -0.11263756
000010 9e 2d 30 bd 67 52 a8 3d 5c c5 94 bd 56 c4 b6 3d
       -0.043012254 0.08218842 -0.07264206 0.08924167
000020 e0 bf 4a bc 47 c3 5f 3b 45 8a c9 bd 41 3b 0d be
       -0.012374848 0.0034143494 -0.09840826 -0.13792135
000030 ea 55 5b bb 70 b9 75 bd 79 cf cc bd 9c 39 4a bd
       -0.0033467957 -0.0599913 -0.1000051 -0.049371347
000040 63 8b ab 3d 78 83 4e 3d 36 05 89 bd ce 8a 9b bd
       0.08376195 0.050418347 -0.06690447 -0.07594834
000050 d5 69 03 be 1c e2 f6 bc 01 91 b1 3d 19 a7 9d 3c
       -0.1283334 -0.030137114 0.086702354 0.019244717
000060 50 d7 b3 3d 8e dd 18 bd 7c 8b 97 3d cf 51 c5 bc
       0.08781302 -0.037320666 0.073996514 -0.024086861
000070 d3 76 ed bd f2 e3 4a bd 45 9b e1 bd a8 6f 92 3d
       -0.115949295 -0.04953379 -0.110159434 0.07150203
000080 49 d6 9b bb e1 e3 f2 3d 3c 66 c4 bd bf 7c c5 bd
       -0.0047557694 0.11859871 -0.09589812 -0.09642934
000090 63 d0 b7 3c e9 2a eb 3c a2 94 d8 3d e1 05 47 bd
       0.022438234 0.028706985 0.105752245 -0.04858959
0000a0 49 e0 47 3b 51 06 a4 3d 43 ea 04 be 2a 2d b4 bc
       0.0030498675 0.08009017 -0.12979989 -0.021994192
0000b0 06 26 00 be 6c 82 e0 bd 95 7c cb bd d0 79 4f bd
       -0.12514505 -0.10962376 -0.099358715 -0.05065328
0000c0 5f f1 f6 bd 7a 97 f3 3d 00 7f b2 bd 2d e1 de 3d
       -0.12057757 0.11894126 -0.087156296 0.108827926
0000d0 f8 77 a7 3d 64 23 20 3d ff 88 b8 bd f0 51 cf 3d
       0.08177179 0.03909625 -0.09010505 0.1012305
0000e0 23 55 0b bd 74 b2 10 3d ee 68 a0 3d 2c 7e de 3d
       -0.03401674 0.035326436 0.07832514 0.10863909
0000f0 b8 50 db bd c9 2b e8 3c 9e a4 a4 3d 14 1b 8d 3d
       -0.10708755 0.02834119 0.08039211 0.0688993
000100 1e f4 8e bb ff 3a 44 3d 1e ee 63 3c fc 5a 6f bd
       -0.004362597 0.047907826 0.013911752 -0.05843638
000110 c0 3e ef 3d bb c7 1d bd 3e ad 1c ba f5 1e fa bd
       0.116818905 -0.038520556 -0.0005976743 -0.12212936
000120 f4 13 ec bd aa 8b 92 3d 47 9b 35 bd ba 7f 99 3d
       -0.11527243 0.07155545 -0.044337537 0.07495065
000130 eb 29 e5 bc 01 aa d8 3d 9c 77 ae 3d e3 c3 f4 bd
       -0.02797409 0.10579301 0.085189074 -0.11951425
000140 98 67 c3 3c cb f6 a0 bd a3 f0 c3 3d d1 71 33 bd
       0.023853108 -0.07859572 0.09567382 -0.043809716
000150 26 5c 61 3d 23 0b 77 bd 55 b4 08 bd 73 17 48 3d
       0.05501952 -0.060313355 -0.033375103 0.048850488
000160 d1 0c 05 be ea e4 01 3e 9e aa 1f bd d2 97 45 bd
       -0.1299317 0.1268498 -0.038981073 -0.04824049
000170 18 33 ae 3d 6a 2f db 3d b0 fb 49 bd 0d 43 24 3d
       0.08505839 0.10702403 -0.049312294 0.040103007
000180 2a 52 71 3c e9 94 a6 3d a2 17 02 bd f2 1f c3 bd
       0.014729062 0.08133871 -0.03176082 -0.095275775
000190 10 2a 57 bd 98 e4 ba bd 3c b3 86 3d 2b 8e 57 bc
       -0.05253035 -0.09125632 0.06577155 -0.013156454
0001a0 47 3d 88 bc 6e a0 87 3b d7 74 d9 3d c5 99 d6 bd
       -0.016630782 0.0041389978 0.106179886 -0.10478548
0001b0 cc 94 f4 bd 25 78 98 bd 2b 36 1a be f2 53 03 3e
       -0.11942443 -0.07444791 -0.15059726 0.12824991
0001c0 3a f0 62 bc 29 b8 9d 3d ce fd b8 3d 03 32 c2 bd
       -0.01385122 0.077011414 0.090327844 -0.09482195
0001d0 49 e8 af bd 95 9a eb 3c 08 ac cc bd 83 bd a8 3d
       -0.08589227 0.028760234 -0.0999375 0.082392715
0001e0 43 ca af 3d e7 c0 5a 3d 80 1d 25 3d 9d a9 e9 3d
       0.085835 0.053406622 0.040311337 0.11409304
0001f0 22 67 1c 3d 86 73 3b 3d 7d 4c 6a 3d df 8c f1 bd
       0.038184293 0.04576447 0.05720185 -0.11794447
000200 3e 99 c3 bd 75 08 c1 bd 12 4f 06 be 7b 62 a2 3d
       -0.09550713 -0.09425441 -0.131161 0.0792894
000210 40 00 00 bd a3 7f 86 3c 48 69 02 be 80 4a 50 3d
       -0.03125024 0.016418284 -0.12735474 0.0508523
000220 f0 a3 8c 3d 68 48 65 bd d6 95 e8 3d 27 4e 28 bd
       0.06867206 -0.055977255 0.11356704 -0.041090157
000230 aa bc ba bd 16 37 84 bc 47 85 9e bc 94 07 96 3d
       -0.09118016 -0.016139548 -0.019350661 0.07325664
000240 80 2e 07 3e c7 6a 7e 3d 79 ea e7 bb 6d d0 b6 bd
       0.13201332 0.06211355 -0.007077512 -0.08926473
000250 69 ab 99 3d 04 9a 9a bc bd d2 fb 3d a0 cc e6 bd
       0.07503397 -0.018872268 0.122960545 -0.11269498
000260 f2 a6 d7 bd 41 62 b1 3d 21 81 9d 3d 43 46 a3 bd
       -0.10529889 0.086613186 0.07690645 -0.07972386
000270 ad 0b ac 3d 7c 95 89 bc d8 c9 d5 3d 9f 45 66 bc
       0.084006645 -0.016794913 0.10438889 -0.014054685
000280 39 ac 9b bd 84 80 91 bd 5f 2e 50 3b 75 a7 14 bd
       -0.07601208 -0.071045905 0.003176592 -0.036292512
000290 2b 97 c4 3d 0b 78 81 bb 0c 26 e1 3c ff fa 1a bc
       0.095991455 -0.003951078 0.027483962 -0.009459256
0002a0 65 90 4e 3c 85 21 86 bd f5 5f 02 bd ad 37 10 bd
       0.0126076685 -0.06549362 -0.031829793 -0.035209347
0002b0 3a 27 f8 3d 7b 73 98 3d 04 19 80 bc ec 20 c5 3c
       0.12116857 0.07443901 -0.015636928 0.02406355
0002c0 e7 3a 07 bd f8 68 14 3d 93 b1 c0 bd e2 3b 9a 3d
       -0.033015158 0.03623292 -0.094088696 0.07530953
0002d0 6e 06 0e bd e7 a3 a7 3d ab cd 2c bd ff 62 67 bd
       -0.0346741 0.08185559 -0.042188328 -0.056490894
0002e0 1c 1b b4 bc dd 00 50 3d 91 ad 92 3b 5c 55 c4 3c
       -0.021985583 0.050782073 0.004476257 0.023966484
0002f0 f2 1f b5 bc 5b d7 50 3d 15 a5 ad 3c 10 e5 e1 bd
       -0.02210996 0.05098663 0.021196881 -0.11030018
000300 db 77 07 3e d0 9c 7a bc 8c 0a 6f bd 6f e0 83 bd
       0.13229315 -0.015296176 -0.058359668 -0.06439292
000310 27 65 e6 3d 2f 95 80 3d 3c 41 cb bd e3 7e cd 3d
       0.11249762 0.062784545 -0.09924552 0.10033967
000320 e5 2c c8 bd 14 97 40 bc 52 ce bf 3c ec 54 f8 3d
       -0.09774188 -0.01175477 0.02341381 0.121255726
000330 f2 69 a5 bd e8 62 a8 3d ea 4a df bc e5 52 25 3d
       -0.08076848 0.0822199 -0.027257401 0.040362258
000340 4e c2 d1 bb 5e eb 2f 3d 00 a9 9b 3d f7 ee 07 bd
       -0.0064013368 0.042949073 0.076005936 -0.03318688
000350 51 ee 55 bd be a8 3a bd 59 96 cb 3d 9c 91 34 3d
       -0.05222923 -0.04557108 0.09940786 0.044084176
000360 a8 47 f0 bd 54 6d ba 3d 5c 97 93 3d 52 53 c2 bd
       -0.11732417 0.09102884 0.07206604 -0.09488548
000370 cd be 84 bb 7f 2d e4 3c a1 5a e8 3d 80 05 ad 3d
       -0.0040510655 0.027853725 0.11345411 0.08448315
000380 2d 61 7e 3c d7 6f 4d bd 59 d9 d9 3d 4a 6c 0d 3e
       0.015526098 -0.050155487 0.10637159 0.1381084
000390 5f 49 bd 3d 74 ba 83 3d e8 70 a6 3c 9c e3 3d 3d
       0.0924251 0.064320475 0.02031751 0.046359643
0003a0 59 2b 6c 3d 12 f8 63 bd 7b d6 e4 3d 93 fd b3 3d
       0.057658527 -0.0556565 0.111737214 0.087886
0003b0 9c 11 b2 3d 7b da 5a bd de 59 33 bd 60 4b 83 3d
       0.08694765 -0.053431015 -0.043786876 0.06410861
0003c0 9e c9 6f 3d 90 37 d7 3d 95 63 ca bd e5 17 ea 3d
       0.058541887 0.105086446 -0.09882275 0.11430339
0003d0 f4 6e e2 3d e2 a8 79 3b 89 bd ce 3d 13 6f ad bd
       0.11056319 0.0038095047 0.10094745 -0.08468451
0003e0 80 45 d1 3d 44 15 52 bd 37 20 31 bc 6e bf 9f bd
       0.10218334 -0.05128981 -0.010810903 -0.07800184
0003f0 14 04 a0 bd 82 7a 2b bc 3e 49 bd 3d 6b d9 f7 bc
       -0.07813278 -0.01046622 0.092424855 -0.03025504

transformer.layers.0.self_attn.out_proj.bias f4 [64]
000000 97 c9 ea 3b 9d b6 3c bc d4 2e 33 ba e0 60 2c bc
       0.0071651447 -0.011518148 -0.0006835286 -0.010521144
000010 e5 a2 ec ba e8 1e 54 bb 48 11 02 bc 90 c2 6a 3a
       -0.0018053917 -0.0032367054 -0.0079386905 0.00089553837
000020 3f 48 88 ba 0a 23 37 bc 7b 27 16 3c 8e b9 25 3b
       -0.0010397508 -0.011177788 0.009164686 0.0025287601
000030 35 f5 78 3b ef 68 af bb 27 51 81 3c 20 8b 8a 3c
       0.0037987952 -0.005353085 0.015785767 0.016912043
000040 d9 5c 58 3b 50 8f 00 3c 92 77 18 bc 04 9a d9 3b
       0.0033014326 0.007846668 -0.0093058515 0.0066406745
000050 c0 60 05 bb d8 4d 98 bc f5 8f ae 39 da 24 2c ba
       -0.0020351857 -0.018591806 0.00033295123 -0.00065667706
000060 a5 20 a1 3b ec d0 3d 3b 09 bb e9 bb c2 1c 09 3c
       0.0049172216 0.0028963638 -0.007132892 0.008368673
000070 a3 b0 f1 bb 3f 8e 73 3b e7 80 bc bb 9d 7b 40 3c
       -0.007375793 0.0037163643 -0.005752671 0.011748222
000080 b2 eb 45 ba f0 32 86 3a 85 31 55 3c 51 9b b4 bc
       -0.0007550075 0.0010238569 0.013012295 -0.022046717
000090 27 21 44 3c cc 56 4a 3c 30 d9 f4 39 cb e6 7b bc
       0.011970795 0.012349796 0.00046701124 -0.01537485
0000a0 ee b4 08 bb 36 c4 81 3b 91 d5 0b bc 05 c8 2b 3b
       -0.0020859796 0.0039601577 -0.008534805 0.002621175
0000b0 3e ed 88 bb 27 e1 10 3c 64 6b 50 3c e4 c8 e8 bb
       -0.004178672 0.008842743 0.012720916 -0.007104026
0000c0 23 88 83 bb fe 4a 82 bb 3d 67 b7 bb a2 f2 2e bb
       -0.0040140315 -0.003976225 -0.0055970238 -0.0026694913
0000d0 56 0d 20 39 38 d0 40 3b 9f 20 42 3b 6b 8a a1 bc
       0.00015263757 0.0029420983 0.0029621494 -0.019719323
0000e0 a5 c0 7f 3b 27 da 7d 3b 9d da dc 3b 53 7c 12 bc
       0.0039024737 0.0038734765 0.006739928 -0.008940774
0000f0 ac db fa 3b 0e 8a 23 bc d9 5d 47 bc d0 ef b5 3b
       0.0076555815 -0.009981645 -0.012168371 0.0055522695

transformer.layers.0.linear1.weight f4 [128, 64]
000000 2a af bc 3b be 84 21 bd 79 50 d2 3d ee a2 07 be
       0.005758186 -0.039433233 0.10269255 -0.13245746
000010 b7 a6 f7 bd 5f 1d 80 bc 62 81 a8 3d 03 f8 20 3d
       -0.12092345 -0.015639005 0.08227803 0.039299022
000020 72 06 56 bd 04 72 d3 bd 51 cd 07 3b 5a f5 cb 3d
       -0.05225224 -0.10324481 0.0020721743 0.099589065
000030 33 ae d1 3d ab 95 59 bd d2 0e f2 3d 48 fa 46 3c
       0.10238304 -0.05312125 0.11819233 0.012144633
000040 d5 6a 10 bd f9 85 bf bd 3f 47 1a be 4b 42 90 bc
       -0.035258133 -0.09351725 -0.1506624 -0.017609736
000050 20 3a 89 bd 38 d6 de bd a0 63 7c bc 2a 3d 30 3c
       -0.067005396 -0.10880703 -0.015404612 0.01075677
000060 95 1c de bd 50 cf 92 3c 0e 96 81 bd 9c 0e 4b 3d
       -0.10845295 0.01792112 -0.06327449 0.04957448
000070 25 d0 d4 bc 5e 34 b1 bd dd 47 3d bd 62 60 a5 3d
       -0.025978157 -0.086525664 -0.046211112 0.08075024
000080 cf fa ac 3d 6e b9 87 bd 43 ec fe 3c ad e3 97 bc
       0.084462754 -0.06627165 0.031118518 -0.018541181
000090 3d ed 03 bd e1 8c b2 bd c9 58 b6 bd 4c 0f db bc
       -0.03220867 -0.08718277 -0.08903653 -0.026740693
0000a0 cc a3 0d bd e5 e3 14 3e 1e 0d 43 bd 91 78 1e 3b
       -0.034580037 0.1454006 -0.04761993 0.002418075
0000b0 aa ef 29 bc da 62 97 3d 9a 0b 48 3d 8c 5e f0 3d
       -0.010372082 0.07391901 0.04883919 0.117367834
0000c0 6d c1 9a 3d 3a 14 6f bd cc 26 35 3d 46 77 11 3d
       0.07556424 -0.0583689 0.044226453 0.03551414
0000d0 b5 de 8f bd a6 4f ca bd ad 2e d8 3d fd d6 50 3d
       -0.070249 -0.09878473 0.10555778 0.05098628
0000e0 bc 55 0b 3e 2f 3e ba bd 59 57 51 3d 23 b8 f9 bc
       0.13606924 -0.09093892 0.05110869 -0.030483311
0000f0 1d 56 93 bc 5a 7a e4 bd 9f 6d 9e 3d fe 02 f5 3b
       -0.017985398 -0.11156149 0.07735752 0.0074771633
000100 b7 64 b5 bd e4 aa 90 bc 9b bc 5a bd de 56 a0 bd
       -0.088571005 -0.017659612 -0.053402524 -0.078290686
000110 f9 bc 00 3e be f1 80 3d 0f 59 a6 3d 9a 6b 72 3d
       0.12572087 0.06296109 0.08122455 0.059184648
000120 60 f0 f9 bb c3 e9 6a 3d d6 30 0e 3d e2 e5 a6 3d
       -0.007627532 0.05735184 0.034714542 0.081493154
000130 a4 68 96 bd 74 5c d1 bd 50 98 00 3d 9a 4e 91 bd
       -0.07344177 -0.10222712 0.031395257 -0.0709507
000140 ea a5 77 bd e6 cb 8c 3d c5 fa 99 3c 28 b4 b8 bd
       -0.060460962 0.06874828 0.018796334 -0.09018737
000150 1d 9b c4 bd 75 dc df 3d 94 ee dd 3d e0 43 02 be
       -0.09599898 0.10930721 0.10836521 -0.12721205
000160 77 1b 81 3d e2 35 02 3d 62 4f 6c bd 6a 01 a0 3c
       0.06304067 0.031789668 -0.057692893 0.019531924
000170 2e d0 b1 3d 02 e1 0d 3e 98 8b 02 3d c8 da 98 bd
       0.08682285 0.13855365 0.03187141 -0.07463604
000180 77 e7 e4 3d 13 b7 88 3d 26 f8 6b 3a 60 07 09 3d
       0.11176961 0.06675544 0.00090015156 0.0334543
000190 d2 8d 80 bd 72 dd a5 bd 69 cb bf bd b3 ae 53 3b
       -0.0627705 -0.08098878 -0.09364969 0.0032300174
0001a0 96 6a 94 3d d7 02 b6 3d 0f 34 e8 bd ce 22 27 3c
       0.07246892 0.088872604 -0.113380544 0.010201169
0001b0 62 9f 15 be 3a 80 a2 bd 89 b9 86 3d 6b 22 b6 bd
       -0.14611581 -0.079346135 0.06578357 -0.088932835
0001c0 64 aa d9 3c 29 b1 b1 3d da 05 ab 3d 96 61 89 bd
       0.026570506 0.08676369 0.083507255 -0.06708066
0001d0 b2 db cf 3d 02 61 98 bd 4c e4 85 bd 79 6c b4 bd
       0.101493254 -0.07440378 -0.06537685 -0.08809752
0001e0 83 5c 29 3d 5e b3 c8 3d 1e 08 20 3d d4 21 ed bd
       0.04134799 0.097998366 0.03907024 -0.11578718
0001f0 90 bb 9d 3c a3 65 c8 bd ad 2a fc 3c b3 e0 c5 bd
       0.019254476 -0.09785011 0.030782068 -0.096619986
000200 0d c9 16 3c 3e c9 f0 3c 6a d7 05 be 60 5b 9f bd
       0.009203208 0.029392835 -0.13070455 -0.077811
000210 d7 47 f2 bd 31 40 46 3d 89 d5 12 bd 5b 71 d9 3b
       -0.118301086 0.04840106 -0.035848174 0.0066358275
000220 07 3c ab 3c 0b 5d a2 3d d3 58 8a 3d 17 5c 91 bd
       0.020902647 0.07927903 0.06755223 -0.07097643
000230 ed 1f eb bc c0 57 d8 3d 76 69 74 3d 28 5e 9a 3d
       -0.028701747 0.10563612 0.059670888 0.0753749
000240 ed 10 03 3e 39 03 3d 3d 47 84 5c 3d bd 8b ec 3d
       0.12799425 0.04614565 0.053837087 0.115500905
000250 84 c8 a9 3c a4 8d 55 bd dd f9 cb bd b0 d0 59 bc
       0.020725496 -0.052137032 -0.09959767 -0.013294384
000260 7e cc ee bd 5d 56 c0 bd 85 51 c3 3d dc 9f c9 3d
       -0.116600975 -0.093914725 0.09537033 0.09844944
000270 2d f2 86 3d 18 ac cd 3d 69 5b bb 3d f3 f6 ea 3d
       0.0658916 0.1004259 0.091482945 0.11472883
000280 c6 5d d7 3a cc 45 bf 3d f7 a3 e2 3d 6e 3a 51 bc
       0.0016431145 0.093394846 0.1106643 -0.012770278
000290 8f df 55 bc 91 3d 06 bd 00 12 29 bd 37 9e f5 bc
       -0.013053789 -0.032773558 -0.04127693 -0.02998267
0002a0 7f 8e d3 bd 3c e8 e8 bc 53 d6 2d bd 16 9a e1 3d
       -0.10329913 -0.02843105 -0.042440724 0.11015718
0002b0 5b 84 b2 bc 4f b2 97 3d 67 6e cd bd f6 b4 3e 3c
       -0.021791628 0.074070565 -0.10030823 0.011639824
0002c0 75 20 9c 3d 24 62 c2 3b 73 79 38 bc 3b 72 f2 3d
       0.07623378 0.0059321094 -0.0112594245 0.11838194
0002d0 7c ff 2c bc 5d 85 eb bd 30 fc de 3d 98 75 b8 bd
       -0.010558959 -0.115000464 0.10887945 -0.09006804
0002e0 53 57 db bd 32 4b dd bc cc 8d 91 bd 1e 1b 2d bb
       -0.10710015 -0.027013395 -0.07107124 -0.0026413868
0002f0 5c c9 23 3d 46 ca bb bc 6e 95 e3 3b 81 f5 e0 bd
       0.039986953 -0.0229236 0.0069453036 -0.10984326
000300 b0 57 b5 bc 16 6f 8a bc 80 61 56 3d 23 d8 4b bb
       -0.02213654 -0.016898673 0.052339077 -0.003110417
000310 4d 2e f1 bd 68 f1 fb 3d a1 2f d2 bd f7 c1 f3 3d
       -0.11776409 0.12301904 -0.10262991 0.1190223
000320 ef 95 f8 bd c0 fe bb bd dc 7d 95 bd a2 4e 32 3d
       -0.121379726 -0.09179449 -0.072993964 0.04353202
000330 dd 82 ca bd f7 bc fc bb ea 7f 48 bc f3 b0 ba bd
       -0.098882414 -0.007712956 -0.012237528 -0.09115782
000340 9b f8 28 3d b4 28 98 bd ce c5 4b bc 78 9c 78 3d
       0.041252714 -0.074296385 -0.012437297 0.060696095
000350 d6 a9 ed bd c3 bc 2e 3c 4b 46 9c bd 09 a9 89 3c
       -0.11604659 0.0106651215 -0.07630595 0.016804235
000360 aa 80 e4 3d db 3c aa ba 50 33 b7 bc 04 cf e3 bd
       0.11157353 -0.0012988107 -0.022363335 -0.111234695
000370 df e8 81 bd b2 ed ad bc f0 c7 10 3d ce ea 9f bd
       -0.06343245 -0.021231506 0.035346925 -0.07808457
000380 86 dc 45 3d df 53 cc 3d 14 f0 93 bd d8 17 b3 3d
       0.04830601 0.09976935 -0.07223526 0.08744782
000390 56 23 91 bd 3f a8 f1 3d 36 50 cd 3d 98 bc 91 3d
       -0.07086818 0.117996685 0.10025065 0.071160495
0003a0 82 10 fc 3d 89 66 1b 3d 36 88 be bd 2c 2c a3 3c
       0.12307836 0.037939582 -0.09303324 0.019918524
0003b0 52 ca f9 3d 0a fb e0 3d 03 eb a0 3d d2 5b f2 bd
       0.12196793 0.10985382 0.07857325 -0.118339196
0003c0 eb 9d 7f bb b1 5d 96 3c 4b 88 bc 3d 70 59 76 bd
       -0.0039004039 0.018355222 0.09205683 -0.060143888
0003d0 5a 22 ef bd 95 0b 39 bd 04 a9 91 bd 53 74 5a bb
       -0.11676474 -0.04517706 -0.07112315 -0.0033333495
0003e0 c3 ab 8c 3b 8c 37 94 bc bf 64 ae 3d 21 18 d1 bc
       0.0042929365 -0.018092893 0.085153095 -0.0255242
0003f0 e0 09 8c 3d 0e 93 48 3c 80 16 ed bd fa fe 7e 3d
       0.06837821 0.012242092 -0.11576557 0.062254883

transformer.layers.0.linear1.bias f4 [128]
000000 47 4a 00 3d 9d 09 5b bd d1 bc 18 3a a2 a0 0a 3d
       0.031320836 -0.053475965 0.00058264757 0.033844598
000010 0c d0 b3 bd b0 19 53 bd 45 57 bb 3d 4e 65 b5 bd
       -0.08779916 -0.05153817 0.09147505 -0.08857213
000020 bd 18 cb 3b 43 e0 b1 3d cd c2 2c bd 4b 39 87 3d
       0.0061980174 0.08685353 -0.042177964 0.06602725
000030 eb 24 7e 3d f8 15 88 bd c1 fe d5 3d 2a 54 d0 3d
       0.062046926 -0.06644815 0.10448981 0.10172303
000040 47 ed cf 3d 78 f3 08 3d 34 8c a8 3d e6 03 38 bd
       0.10152679 0.033435315 0.082298666 -0.044925593
000050 9c 56 75 bb 8d d4 cc 3d 2d c4 ee bd d6 05 46 bb
       -0.0037435656 0.10001478 -0.11658511 -0.003021588
000060 f3 15 f9 3d f4 8d bc bb ed 2c 3b bd 32 d2 8e bd
       0.121623896 -0.005754227 -0.04569714 -0.06973685
000070 53 ff 8e bd 32 2b fe bc 93 8f 18 3b 29 cd 28 3d
       -0.06982293 -0.031026457 0.0023278936 0.04121128
000080 0f ca a5 bd c4 b6 be bd ae 23 8e bc 7f c6 0f bd
       -0.0809518 -0.093122035 -0.017350998 -0.03510141
000090 05 71 4f bd 2a f6 a8 bd 11 25 f9 3b 25 00 b9 bb
       -0.050644893 -0.08250077 0.0076032956 -0.005645769
0000a0 2a e4 2a 3c f5 c3 19 3b c2 d8 86 bd 12 b7 72 bd
       0.010430375 0.0023462747 -0.06584312 -0.05925662
0000b0 47 08 70 3c 3e db 47 bd 99 b2 cb bc d2 f4 05 bd
       0.014650411 -0.04879307 -0.024865435 -0.032704182
0000c0 c6 be a3 bc a2 40 e8 3d 0f f3 8b 3c 99 30 cc 3d
       -0.019988429 0.11340453 0.017083673 0.09970207
0000d0 6b 74 84 3d 8a ac b3 3d c0 34 49 bb d4 1c cf bd
       0.064675175 0.087731436 -0.0030701607 -0.101129204
0000e0 71 fb 9f bd 73 b1 b5 bb 93 f6 72 3d c9 ee f7 bc
       -0.078116305 -0.0055448352 0.059317183 -0.030265229
0000f0 9f d8 f2 bd 58 51 86 bd be a2 bb 3d 04 1d 8d bd
       -0.118577234 -0.06558484 0.091619 -0.068903
000100 bf 18 af bd b5 de 9e 3d bc a5 63 bd 96 22 54 bb
       -0.08549642 0.07757322 -0.05557798 -0.0032369248
000110 0a 30 c5 3d 29 f1 ef 3d 51 f1 e1 3d 2e b3 b5 bd
       0.09628303 0.117159195 0.110323556 -0.088720664
000120 e1 b4 18 3c ff 12 97 bc 6c d0 60 bc 75 b8 f2 3d
       0.009320469 -0.018441675 -0.013721567 0.11851589
000130 fc df 87 3d 24 35 dd bd 84 cc e2 3d 29 a9 ed 3d
       0.066345185 -0.108011514 0.110741645 0.1160453
000140 99 a3 b5 bd 0e 18 c7 bd f7 a7 b2 3d 0b f5 3f bd
       -0.088690944 -0.09721385 0.08723443 -0.04686455
000150 ea 62 d0 bd d4 01 2c 3d c2 6c a0 bb cb c0 89 3d
       -0.10175116 0.04199393 -0.0048957774 0.067262255
000160 8d 6a ae bd 9b bf f9 3d ee 39 3f bd e0 82 c1 bd
       -0.08516417 0.12194749 -0.046686105 -0.094487906
000170 ea 51 1a 3d c8 c7 9a bd 3f a6 f9 bd 77 82 b9 bc
       0.037675776 -0.075576365 -0.12189912 -0.022645218
000180 db 35 96 3c 50 11 62 bd f4 6d 0f bd 60 78 ec bd
       0.018336227 -0.05519229 -0.03501697 -0.11546397
000190 cc 12 bf 3d 56 d1 e8 3a d0 a3 b1 3c 0d ba 9e 3d
       0.09329757 0.0017762582 0.021684557 0.0775033
0001a0 71 4c 91 3d f6 ff db 3d 61 58 59 3d 62 ed c5 3c
       0.07094658 0.1074218 0.0530628 0.024161045
0001b0 7c cd aa bd 5f 5d a8 3d 84 a8 a1 bc 57 4b 99 3d
       -0.08339974 0.08220934 -0.019733675 0.07485073
0001c0 b0 44 09 3e 33 a5 a4 bd 86 3f 94 bc 04 5f e3 bd
       0.13405108 -0.08039322 -0.018096697 -0.11102107
0001d0 ec 27 79 bc 0f 70 cc bc 4e 12 cb bd ed 6b 3a bd
       -0.015207272 -0.024955777 -0.09915601 -0.045513082
0001e0 80 e3 4b 3d 92 e2 b4 bd 60 bf a5 bb aa 6c a3 3d
       0.049777508 -0.08832277 -0.005058214 0.079797104
0001f0 0c 06 db 3d c4 b4 0d be 7d 98 ab 3d 9e 6b 7e 3c
       0.10694513 -0.13838488 0.08378694 0.015528588
