bert/stage1_bert_best.pt (torch, 306277 bytes, 33 tensors)

cls_token f4 [1, 1, 64]
00000000: f7bd bbba 5123 353d 2dd3 42bd 8740 6abc
00000010: fbdf 48bc 00c7 303d 1321 a93c 0363 f63c
00000020: 9f39 4fbd 0cdb 83bd 3762 1bbd 35a0 a0bd
00000030: 89be 023d eb0e 79bc 5249 6fbd 87e3 d43c
00000040: 6814 7e3c d80d abbb 07c3 ab3c 327d d13c
00000050: 4e47 1dbd e5e0 583b 0c67 f0bc d5e4 8dbd
00000060: 480d a1bd 94be 59ba 199c 2a3d 4e53 88bb
00000070: 9077 3bbd 116d 8f3d c25f 18bd b849 d33c
00000080: 6609 bdbc 846b a8bd e642 06bd 05e0 8d3b
00000090: 91e1 e0bc 99f6 e4bc 5f90 773d 344d 76bb
000000a0: 34bd d9bc 552b a0bb bc6e 2b3d 580a 043c
000000b0: 78e9 2bbd 85ed a9bc 4502 df3c 1f51 8e3d
000000c0: e31e f63c db3e 23bd 046f 41bb 40c6 0f3d
000000d0: 7fae 813d 9988 633d f09a f8bb 31d3 0abd
000000e0: eb86 e93a f4ce 35bd dbde 6a3d b991 133d
000000f0: 6016 65bb 4f26 b53c 4fb8 bb3c 4ed8 61bc
-0.0014323582 0.044223133 -0.047564674 -0.014297611 -0.012260432 0.04315853 0.020645654 0.03007651
-0.05059206 -0.06438264 -0.03793546 -0.07843057 0.03191999 -0.015201311 -0.058419533 0.0259874
0.015507795 -0.005220156 0.02096702 0.025572393 -0.03839808 0.0033093032 -0.029346012 -0.06928412
-0.07863861 -0.00083062914 0.041652773 -0.0041603213 -0.04576832 0.07003225 -0.037200697 0.025791988
-0.02307577 -0.08223632 -0.032778643 0.0043296837 -0.027451308 -0.027949618 0.060440417 -0.0037582638
-0.026579477 -0.004887978 0.04185365 0.008059107 -0.0419707 -0.020743141 0.027222762 0.06949066
0.030044025 -0.039854866 -0.0029515633 0.035101175 0.063321106 0.05555019 -0.0075868294 -0.033892814
0.0017816698 -0.04438682 0.057341438 0.036027644 -0.0034955963 0.022112994 0.022915034 -0.013784481

pos_embed f4 [1, 61, 64]
00000000: 7060 923c 81b2 9b3d 4746 cb3b 8bae 7dbd
00000010: cfc9 4b3c ff97 e93c d91d e53b 1ff9 aa3c
00000020: cd1d dcbc c4f2 90bc 528e fbbc 2927 6dbd
00000030: 9544 61bd faf0 26bc 9e9f 673a cd17 393d
00000040: 9007 d23b 330e fcbb cb9b 8e3c ede7 26bb
00000050: df4a 34bc 310f 48bd 0ab8 30bb 48ad 7dbd
00000060: f5c8 89bc 96ea 023d af21 d43c 8a40 8e3c
00000070: 7cca 12bc dee9 a23c 644c fdbc f802 953c
00000080: 3d3f 67bd 9362 cebc f01f c2bc 7f9e d2bc
00000090: 539f 22bd 6010 0d3d 48ed a63d 9442 6cba
000000a0: e4a4 08bd 873c 07bd cf62 423d e674 b8bc
000000b0: 4308 1bbd 5319 14bd f35c 123d e8a2 913d
000000c0: ce7d 983d 095b 06bd dc4c 6a3c fa0c a93c
000000d0: fba3 ea3c b174 4b3d a253 153d 9463 b2bc
000000e0: 9d44 ac3c 4944 31bd bd62 073d d3e5 ed3c
000000f0: b385 cabc 9d65 573c 8c58 82b9 4493 93bd
00000100: 63dd 223c 355c 8dbc e1f1 8e3c c990 523d
00000110: 8b14 b03c 636e 82bc 50f2 f0bc 9f96 48bd
00000120: 9585 3cbd 61cc ce3b 1208 78bd 91f1 83bd
00000130: 0de3 b5bc a97e 583d 1549 083d 49eb 60bc
00000140: c9ef 593c 4194 4dbc ceb5 e0bc f8e8 353d
00000150: a3f4 a43d 8261 efbc 814e 0f3c 1d7e 523d
00000160: 3aa6 d4bc cdff 8b3c af8e 843c 00cb 273c
00000170: 41f2 4fbb 9f7c 2dbd 374a 2e3d a12c ffbb
00000180: 64be 67bd 14ca 053d aee1 673d 299b 3f3a
00000190: 7306 2b3d 3308 0abd 3085 4cbd 05d0 253d
000001a0: 7491 81bb 7421 1b3c a86a 943c 6df3 fbbb
000001b0: a796 b7bc af98 d9bb 5993 bb3c b10b 1e3d
000001c0: 4ed0 563c 0ff1 c83c b047 423b 5bf7 20bd
000001d0: d1cf 2ebd 80eb a6bc 7543 723c 0081 1c3d
000001e0: 0a9f 4ebd f491 9bbb 4f70 a7bc 21cc 74bd
000001f0: 0f24 94bd 5b97 153d 8793 cfbc 7722 073c
00000200: 2ca0 b63d 5e1b 85bc 6397 0d3d a50c ba3d
00000210: 2c22 823d b5d5 923c ba5e c8bd 4c00 91bd
00000220: 332e 58bd d5b2 5c3d cc4b 42bd 27bd d9bd
00000230: 4035 95bd e4b4 bc3d 126c 933d d2d1 b1bd
00000240: 78aa bf3d b331 763c 3bb6 daba 4569 d43c
00000250: 3460 a03d 03db fcbc 44d3 0abd 3c2b 7c3c
00000260: afe5 fabb 4b60 143d fe41 54bd 2ff3 993c
00000270: 20d0 96bd a462 49bd d034 683d 4487 6d3d
00000280: 054d aebd 35b0 bebc 1694 09bd 95a7 053d
00000290: febe 803d 9ce8 9ebd 3fbd 9abc 1582 273d
000002a0: 671d 23bd 3440 21bd ae09 9f3d 7951 95bd
000002b0: d091 01bd 2590 c13a 8f16 7b3d 1f2e 3d3c
000002c0: 1137 cf3c ff75 13bd 6d52 9c3c 078b d7bd
000002d0: bd41 b0bd f13d aabd 5eb0 423d fbe5 0d3c
000002e0: 8202 5cbd 8d54 93bc 5c3c 8f3b f6ff 88bd
000002f0: 328d 2abd 9827 703c 414d b63b 003c 27bd
00000300: 4f76 de3d d36c 40bd 86c8 9e3d 93a6 d53d
00000310: 782a a93d 6548 d93d 635b e3bd 26b5 8cbd
00000320: 2a4d b9bd fa4c 573d e0d0 99bd a73a f9bd
00000330: 3871 65bd 5bb7 043e c3ee b33d ef3c d9bd
00000340: f4e3 d93d 3dc4 143d 04df 533d 15e4 7e3d
00000350: 635f cd3d 08fb 87bd f194 15bd 5a55 12bd
00000360: 6d27 07bd d620 573d d331 8dbd 6ca7 bd3d
00000370: d978 acbd dbd7 80bd cfec 003e 1449 163c
00000380: e315 9abd 14d8 6ebd b021 9abc 79c8 8c3c
00000390: 8e10 5a3d 7dec b7bd 9b9a a8bd 67ae 9e3d
000003a0: e944 57bd 3814 8fbd 7f0a b03d 1458 ddbd
000003b0: 1098 e2bd 9a70 913d f793 873d f8ec 69bd
000003c0: 3667 543d 28c4 41bd cf06 5e3d e70b bbbd
000003d0: d519 86bd e204 b2bd 96e0 893d ba79 6bbd
000003e0: 362b afbd b6fb 2fbc e5e3 793d 7ed6 06be
000003f0: 216a a8bd db3c b53d b1b0 42bd 44c9 c7bd
0.01786825 0.07602406 0.006203446 -0.061934035 0.012438252 0.02851486 0.0069920835 0.020870743
-0.026869679 -0.017693885 -0.030707512 -0.057898674 -0.054997046 -0.010189289 0.00088357355 0.045188714
0.006409593 -0.0076921224 0.017408272 -0.0025467828 -0.011004179 -0.048842613 -0.0026965165 -0.061932832
-0.016819457 0.031962 0.025894968 0.017364759 -0.008959409 0.019886907 -0.030920215 0.018189892
-0.056456793 -0.025193488 -0.02369687 -0.025710342 -0.039702725 0.034439445 0.081507266 -0.00090126065
-0.033360377 -0.033016708 0.047457512 -0.022516679 -0.037849676 -0.036156964 0.035733175 0.0711115
0.0744587 -0.03280166 0.014300551 0.02063607 0.028642645 0.049671832 0.03645671 -0.021775998
0.021028811 -0.043278012 0.03305315 0.029040253 -0.024721956 0.013146785 -0.00024861505 -0.07205823
0.009940478 -0.017255882 0.017449321 0.05140761 0.02149417 -0.015921777 -0.029412419 -0.04897177
-0.04602583 0.006310985 -0.06055457 -0.064425595 -0.022202993 0.052855168 0.03327282 -0.013727971
0.013301798 -0.0125475535 -0.027430441 0.04441163 0.08054473 -0.0292213 0.008746744 0.051389802
-0.02595817 0.017089749 0.016181318 0.01024127 -0.0031730088 -0.042355176 0.042551246 -0.0077873026
-0.056578055 0.03266342 0.05661171 0.00073091924 0.041754197 -0.033699226 -0.049931705 0.040481586
-0.003954107 0.009468425 0.018117264 -0.0076889307 -0.022410704 -0.0066405158 0.02289741 0.03858537
0.013111187 0.024529008 0.002964478 -0.039298397 -0.042678658 -0.020375967 0.014786591 0.03820896
-0.05044464 -0.0047476236 -0.020439295 -0.059764985 -0.0723344 0.036521297 -0.025338901 0.008247963
0.08917269 -0.016248401 0.0345682 0.09084443 0.06354174 0.01792417 -0.09783693 -0.07080135
-0.052778434 0.053881485 -0.047435567 -0.10631781 -0.07285547 0.0921419 0.07198347 -0.08682598
0.09358686 0.015026498 -0.0016686389 0.025929103 0.07830849 -0.030866152 -0.033892885 0.015391167
-0.007656775 0.036224645 -0.051820748 0.018792717 -0.073639154 -0.049166337 0.05669099 0.057990327
-0.08510784 -0.023277381 -0.03358849 0.03263052 0.06286429 -0.077592105 -0.018889068 0.04089554
-0.039822962 -0.03936787 0.07765518 -0.0729093 -0.0316332 0.001476769 0.06130081 0.011546641
0.025294812 -0.0360012 0.019082272 -0.10524564 -0.086062886 -0.08312596 0.047531478 0.008660789
-0.05371333 -0.017984653 0.004371209 -0.06689446 -0.04163856 0.014657877 0.0055634086 -0.040828705
0.10862409 -0.046978783 0.077530906 0.10432162 0.082600534 0.10609511 -0.11101415 -0.06870489
-0.09047921 0.052563645 -0.07510543 -0.1216939 -0.056016177 0.1296057 0.087857746 -0.10607325
0.10639182 0.03631996 0.051726356 0.062229235 0.10027959 -0.06639677 -0.036518995 -0.03572593
-0.032996584 0.05252155 -0.06894269 0.09260449 -0.08421487 -0.06291171 0.12590335 0.009172697
-0.07523706 -0.058311537 -0.018814892 0.017185437 0.053238444 -0.089806534 -0.08232614 0.07748108
-0.052555952 -0.06986278 0.08595752 -0.10807815 -0.1106416 0.07101555 0.06620019 -0.057110757
0.051856242 -0.04730621 0.054205712 -0.091331296 -0.06547896 -0.086923376 0.067322895 -0.057489134
-0.08553164 -0.010741165 0.061008353 -0.1316776 -0.082233675 0.08849498 -0.047531787 -0.09755185

input_proj.weight f4 [64, 1]
00000000: 6e28 53bf 7789 7b3f aa87 0dbf f2f0 89bf
00000010: d6d8 5abf 7a91 a1be 585e 2a3f 826c 1c3d
00000020: 4d52 8c3f 08f4 a9be 9bc7 833f e065 463f
00000030: b853 923e f930 0cbf 945b 2abf 51ad b43e
00000040: ba00 84be 448c 3bbf 374c e5be ce9d 69bf
00000050: a220 72bf ea91 923e 071a 833f b45f af3e
00000060: e6a0 1e3f a840 7ebf c9ce d43e 749f 91be
00000070: 10ea 423f 5aa5 cd3e b2c4 b0bd f2e3 07bf
00000080: a417 3d3f fc82 813f 3e60 2d3f 0efc 3abf
00000090: ae07 36bf 2397 163f 1e32 863e 1eff c0be
000000a0: 7878 963e fcc7 723f 0725 83bf 806a 3a3f
000000b0: 06d6 743f 2e62 43bf 93ec 76bf c5c1 873d
000000c0: a1de 52bf 24ff 303d c00e 1ebd d188 563f
000000d0: c855 013e 1d5a 203f 5cbb 40bf 2095 d63d
000000e0: f66a 8b3e d128 933e 0630 babd ff25 103f
000000f0: 781a b1bd 82d3 37be 492e 5f3e 9fc4 123b
-0.82483566 0.9825663 -0.5528513 -1.0776656 -0.85487115 -0.31556302 0.6655021 0.03818942
1.0962616 -0.33193994 1.029529 0.774992 0.28579497 -0.54762226 -0.6654599 0.3528848
-0.25781804 -0.73260903 -0.4478471 -0.91256416 -0.94581044 0.2862695 1.0242318 0.34252703
0.6196426 -0.9931741 0.41564015 -0.28441966 0.761384 0.40165216 -0.08631267 -0.5308219
0.738642 1.0118098 0.6772498 -0.73040855 -0.7110547 0.58824366 0.2621011 -0.3769464
0.29388785 0.948364 -1.0245675 0.72818756 0.95639074 -0.76321685 -0.96454734 0.066287555
-0.82370955 0.04321207 -0.038588285 0.83802515 0.12630379 0.626375 -0.7528589 0.10477662
0.27230042 0.28742078 -0.09091191 0.5630798 -0.08647627 -0.17951778 0.21795 0.0022395027

input_proj.bias f4 [64]
00000000: 28ee 31bf e9a0 24be a571 f4bd c793 57bf
00000010: b256 6ebe 0a06 f9bc dcbf b83d 9525 5c3f
00000020: 6d10 713e dea5 47bf f076 053f 8a05 543f
00000030: 3b25 5fbf 21a9 d8be 01f9 7cbf c6b7 3c3f
00000040: c96a 1abf 2d97 593f 9de1 3f3f 1a9a 223e
00000050: 62af e6be 291f 3ebb c31e 02bf 95bd 56bf
00000060: 0832 30bf b89c 9abe b7f9 0e3e 7df9 323f
00000070: 1cd7 65bd b9ba aabd d4a1 c6be 93c0 3c3f
00000080: 2936 6a3d 2348 4ebf 5102 54bf 7a24 683f
00000090: 1355 4b3e 4032 6c3f fabd 1fbd 40f7 923e
000000a0: 4f2a 6fbf edc9 30bf 7933 703f a812 1bbf
000000b0: ac34 04bf 3fc5 163d 818b 68bd b1e3 63bf
000000c0: 23e5 233f cacc 78bf 4955 e9be 2e89 603f
000000d0: d73b 1e3f c9e0 843e 2c6a 2c3f 4c7f 28bf
000000e0: b43e 6f3f a693 943d fb43 903e 263e fc3e
000000f0: 6073 4b3f 076b 44bf e72c 593f 9fde d9be
-0.6950402 -0.16077007 -0.119357385 -0.84209865 -0.23275259 -0.030398387 0.09020969 0.85994846
0.23541422 -0.7798747 0.5213461 0.8282095 -0.87166184 -0.42316535 -0.9881745 0.73717916
-0.6031919 0.849963 0.74953634 0.15879098 -0.4505568 -0.0029010272 -0.5082819 -0.8388303
-0.6882634 -0.30197692 0.13962446 0.6991194 -0.056113347 -0.08336396 -0.3879534 0.73731345
0.057180557 -0.8057882 -0.82816035 0.9068066 0.19856672 0.92264175 -0.038999535 0.28704262
-0.9342393 -0.69058114 0.9382854 -0.6057534 -0.5164287 0.036809202 -0.056773666 -0.89019305
0.6402151 -0.97187483 -0.4557288 0.8770932 0.6181006 0.25952747 0.67349505 -0.6581924
0.9345505 0.07254724 0.28176865 0.49266165 0.79472923 -0.7672581 0.8483414 -0.4255266

transformer.layers.0.self_attn.in_proj_weight f4 [192, 64]
00000000: c6e9 f63d 68ad 19bb 9990 023c ae87 07be
00000010: 1d97 18be 7a55 cb3d 6541 093e e248 ed39
00000020: 1215 a3be b4b2 08be 7614 68be 4276 7fbe
00000030: 5515 17be 0a63 253e 52e1 29be f392 0c3e
00000040: 2c4e 7bbd 1ace 763d c7b3 643d 0861 dbbc
00000050: 2675 5abd 8e38 4ebe 0241 6b3d 52f7 41be
00000060: 94ec 69bd 0055 abbd 812a 243e 0f44 a6bd
00000070: 4b96 89bd 15e6 383d d925 09be 6d71 ffbb
00000080: 7542 8fbe 25ce 5abe a1f6 31bd a5a2 9b3c
00000090: b4c2 2abe 8c4d 99bd fa38 773e 81a1 ebbd
000000a0: 1c1e 803c 53b7 4a3d 3a08 233e d122 fe3d
000000b0: d330 cfbd f224 35be 0ea8 8c3e f7e4 5c3c
000000c0: f53f 6a3d 1974 2fbe bb8d c23d c6a8 ca3b
000000d0: d6b1 403e ee35 fd3c 1506 183e 5a5f d83d
000000e0: 3e43 e4bd a4ab 063d 2c97 ba3d 0cdb febc
000000f0: 39fe 9bba 3d0b c13d f182 283e 339b 9abd
00000100: e0dd 23bd 983a 823d f643 abbc 0a6f e53d
00000110: 0d91 9f3c d890 ddbc d173 733c d3dc 4cbc
00000120: bd8c d93c 5136 6dbd 5e19 3d3e d3aa 27bd
00000130: dfbe 89bb bb00 c93d cbb2 0e3d 1fc5 a13d
00000140: 2307 1bbe 749c 35bc 1c23 8dbd bf79 25be
00000150: 4940 b53d 094f 4b3e ec88 f33d ee12 c33c
00000160: 15b4 303e 45b5 f43b d5fc 063b f1c3 09be
00000170: c482 363e df88 3f3d 04ee b13b 9ce0 c43b
00000180: 3a6c 9eba 9a09 853c 968b 973d 4acc c8bd
00000190: 320e 0cbc e16c 21bd 67d1 bebd e7b7 503c
000001a0: c7a9 cb3d d233 e73d 76d9 63be d92a ea3d
000001b0: bcc7 573e 928c 8cbd ec90 0ebe 9312 b03c
000001c0: 45e7 23bd 6d0b 2f3e 0404 3cbc 2d31 e4bd
000001d0: 39b4 52be d87d 16be b31a 1e3c 325f 38bd
000001e0: cefe 083d 671f 493e 7316 6cbe f5e1 a4bd
000001f0: 743a 19be f23a b2bd e9fe 22be f82f 523d
00000200: e58e 6c3d c89a 97bc e810 86bb 26bb 2f3e
00000210: 193f f53d fcbf 73be 829f e7bd ac7d 473c
00000220: 552e 9a3e 6e9a 4bbd ea55 1c3c 63f0 d03d
00000230: 7385 333e 6970 74bd 6005 a1bd ba6b 123d
00000240: 2e86 0ebe c957 a03d 3222 e2bd e56b c2bd
00000250: 7310 a13d f18b 343c 90f2 d93d 3579 423e
00000260: fe54 f43d b68b c9bd 29a6 cbbd fbc8 e3bd
00000270: 5fa4 b23c 75d7 1bbe ba73 48bd 3e54 4b3d
00000280: 8336 a43d 7351 283e c735 783c 24bd b0bd
00000290: 6e33 8b3d cc3c 50bd f132 42be 446f 2a3d
000002a0: 6a21 de3d b5ff 033e 7a2c 3e3c 3e91 b9b9
000002b0: 40bc a73d e104 11bd cce6 4cbe fcc0 533d
000002c0: 1615 013d 2716 2e3e 2e89 b73d d56d b8bd
000002d0: 0e20 1abd 5aff 17be daed c2bc 46bf 8ebc
000002e0: 1c13 843c 7df7 cc3d 21df 43be 38fe 95bd
000002f0: d7f2 58bd d8a7 f53b c63f b83c 53d1 433d
00000300: 3775 663b 5506 8f3d 97f7 e13c 060b 2fbe
00000310: 8be2 dabc b068 cc3a e5e2 f4bd cd25 0c3d
00000320: 241b 9bbd bff9 7abd 049d 65be ab31 85be
00000330: 3798 833d aae2 883d 63d5 8abc b102 2b3e
00000340: e80e 72bd 8b48 85ba f34e 8c3c 178e 023e
00000350: 68b5 b2bb fddc adbd 1948 21be 19cd 62be
00000360: 7dc5 063d bf90 963d bfe1 4abd b7d9 963d
00000370: 62db a9bc e654 013e facc edbd e500 03be
00000380: ace2 4fbe 2a51 493d 7038 45be cb3a 1c3e
00000390: 952d 6cbe 2186 373d db13 773d 3d70 9fbd
000003a0: 05f2 9fbd 5af5 3cbd 7d5d c23d 1fd8 af3d
000003b0: c93d b3bc f900 08bd e530 8f3d 839d ec3d
000003c0: 9bb3 c8bc e9f3 9fbc 2bc3 22ba 15b5 523d
000003d0: 4aff 98bd b7e1 e9bc d1ed 64bd a7e5 efbd
000003e0: 9ead 8dbc dc4f 1dbe 8bf3 cf3d 81da b0bd
000003f0: eaba ec3d 7f35 c3bd b5bd 32bb d249 5c3d
0.120563075 -0.0023449305 0.007969045 -0.13235351 -0.14901395 0.09928413 0.13403852 0.00045258465
-0.31852013 -0.1334942 -0.22664055 -0.24947456 -0.14754231 0.16151062 -0.16589859 0.13727932
-0.061353847 0.060255148 0.05583551 -0.026779667 -0.053334378 -0.20138761 0.057435043 -0.18942001
-0.057110384 -0.08365822 0.16031839 -0.0811845 -0.06718119 0.0451413 -0.13393344 -0.007795504
-0.2798039 -0.213677 -0.043448094 0.018998453 -0.16675836 -0.07485494 0.24142829 -0.11505414
0.015639357 0.049491238 0.15921107 0.124089845 -0.10116734 -0.17689875 0.27471966 0.013482324
0.0571899 -0.17134131 0.09499689 0.00618467 0.18817839 0.030909505 0.1484607 0.10565062
-0.11145638 0.032878533 0.09110865 -0.031110309 -0.0011901326 0.09425972 0.164562 -0.07549133
-0.04000652 0.06358832 -0.02090643 0.1120282 0.019478345 -0.027046606 0.014859156 -0.0125038205
0.026556367 -0.05791313 0.18466708 -0.040934395 -0.004203662 0.098145925 0.03483848 0.07898926
-0.15139441 -0.011084665 -0.06891462 -0.16159724 0.08850152 0.19854368 0.1189135 0.023812737
0.17256196 0.007467898 0.0020597477 -0.13453652 0.1782332 0.04676139 0.005429985 0.006008221
-0.0012086697 0.01623993 0.07399671 -0.0980459 -0.008548306 -0.039410476 -0.09317284 0.012739158
0.09944492 0.11289181 -0.22250924 0.11433954 0.21072286 -0.06862749 -0.13922471 0.021493232
-0.040015478 0.17094202 -0.011475567 -0.11142192 -0.20576562 -0.14696443 0.00964992 -0.04501266
0.033446126 0.19640885 -0.23055439 -0.080509104 -0.14963704 -0.08702649 -0.15917553 0.051315278
0.057753462 -0.018506423 -0.004091371 0.17161235 0.119749255 -0.23803705 -0.113097206 0.012175959
0.30113474 -0.049707823 0.009541968 0.102021 0.17531376 -0.059677515 -0.07862353 0.035747267
-0.13918373 0.07829244 -0.110416785 -0.094932355 0.078644656 0.011019693 0.10641968 0.1899155
0.119302735 -0.09841101 -0.09943802 -0.11122318 0.021806894 -0.15218909 -0.04893849 0.049640886
0.0801821 0.1643732 0.01514954 -0.08629826 0.06796919 -0.05083923 -0.18964745 0.041610017
0.10846217 0.12890513 0.011607284 -0.00035394164 0.08190203 -0.035405044 -0.20009917 0.051697716
0.03151425 0.17000638 0.08961712 -0.09005324 -0.037628226 -0.14843503 -0.023795057 -0.01742519
0.016122393 0.10008142 -0.19128086 -0.07323879 -0.052965965 0.007496815 0.022491347 0.04780705
0.003516508 0.069836296 0.02758388 -0.17094049 -0.026719352 0.0015595164 -0.11957339 0.034215737
-0.07573536 -0.061273333 -0.22423178 -0.26014456 0.06425517 0.06683858 -0.016947454 0.16700245
-0.059096247 -0.0010168714 0.01712749 0.12749515 -0.005453754 -0.08489416 -0.1575016 -0.22148551
0.032903183 0.07351827 -0.049531695 0.073657446 -0.020734493 0.12630042 -0.11611362 -0.1279331
-0.20301312 0.04914967 -0.1925981 0.15256803 -0.23064263 0.04480565 0.06032167 -0.0778508
-0.078098334 -0.046132423 0.09490488 0.08586144 -0.021880047 -0.033204053 0.06991748 0.115534805
-0.024499705 -0.019525485 -0.0006208892 0.051442225 -0.074705675 -0.028550012 -0.055890862 -0.117137246
-0.017294701 -0.15362495 0.10153874 -0.08635426 0.115590885 -0.09531688 -0.0027273719 0.053781338

transformer.layers.0.self_attn.in_proj_bias f4 [192]
00000000: 228e a93d d050 b1bd 9c84 aabd 2f95 b63d
00000010: 6061 abbd 3dee a73d 9629 3cbd 2fa8 4abd
00000020: 010d b1bd 32b0 983d 98fe 893d a9f6 a73d
00000030: bf62 ae3d cbd7 a53d 4f2f ab3d cdb3 b13d
00000040: 9061 b3bd 98d6 b83d 8d9a b13d 2ba2 b83d
00000050: a660 64bd 1232 be3d b9a7 a93d e6c4 b43d
00000060: 5b0a b63d 191c b9bd f495 9f3d 3c6d 95bd
00000070: 38af b1bd d960 b2bd 9730 b3bd 2a75 c8bd
00000080: c8be aa3d 9676 a5bd ea40 f23b 4fc5 9b3d
00000090: 7884 aabd a335 b33d 0587 9cbd cd63 9abd
000000a0: 7f62 a4bd 7a22 a1bd 0758 ba3d 28fd a83d
000000b0: b3b7 96bd bded 94bd 28f3 abbd fd09 a73d
000000c0: 0cbe 9cbd aa0a a53d 80ea 9dbd 2c42 b43d
000000d0: dfc2 97bd 2621 9cbd 1329 a7bd 3e6f a0bd
000000e0: 10ac a43d 823d a0bd 6c9d 9fbd 8a3d 96bd
000000f0: 5587 a33d 82e2 aa3d 176c 9f3d cfe9 9d3d
00000100: 3293 3a3a 0856 ef38 3025 5fb9 2b9d 493a
00000110: cb29 31ba 3ff9 913a 8f68 08ba b45d d1ba
00000120: f995 85ba 4f34 903a 5d2b 973a 542d 0b3a
00000130: c8ef f3b6 1050 8b39 3cda 3f39 e0a5 543a
00000140: 4f9f cb39 33de 8d39 ef37 94b9 e6b0 fb39
00000150: 5b63 0db8 fa34 113a 1a64 2db9 e18f 8739
00000160: 6352 aa38 56d3 ae38 f512 e239 9813 b8b9
00000170: a803 29b9 97a9 9a37 c024 9ab9 463e 0bba
00000180: 7b6a 4e39 cd29 cb39 b5f3 ab39 8270 dab9
00000190: aa32 feb5 992f 85b9 7b43 3cb9 df66 c1b8
000001a0: fd30 83ba 97d1 12bb ea11 bf39 1026 4dba
000001b0: d7a1 15b9 8e34 893a 3834 393b b669 083a
000001c0: e665 3e39 06dc a838 ece9 8bb9 a104 44ba
000001d0: 343e 9f39 f43f 613a f82d 8838 0f46 e839
000001e0: 2c59 90b8 d75c 05ba c6b3 d3b9 33cb a039
000001f0: 4f93 bbb9 9ed4 75b9 7408 a3b9 5b38 44b9
00000200: 600e b6b9 787e bcbb cff3 26bc 139f 703b
00000210: 00b5 2dbc d9fc abbb 94fb 7c3c c55c 8f3a
00000220: ac3a 2cbb 8449 973b d057 8bbc 4ca8 223c
00000230: 6bb1 153c c0aa e83a fc62 e63b 94b4 c83b
00000240: d4ea e93b 472d e0bb 02da 2c3c 4cae bf3b
00000250: b647 a33b 6b10 24bc 321c b13b 5a6f 13bb
00000260: 636b 8f3c b597 0539 854d 943a dd0a 273a
00000270: 96e8 4a3b 8882 a43b 9372 1b3c 355d 21bb
00000280: 930f a0bc 0ad7 3fbb 1bd0 3c3c 0d00 e03b
00000290: 261c 813c a473 52bb a017 af3b c229 883c
000002a0: 17a8 2f3c 120f b33b 0191 a33b 3d25 24bc
000002b0: f2a0 2e3c 6376 9a3b 825b 0bb9 a2cb 603c
000002c0: 84a8 d8bb d8a9 3abb e890 16bc c535 213c
000002d0: 6ab8 1c3c 8f94 e43b f63e 20bb 1907 0dbc
000002e0: d249 a9bb 1cff 4838 3c39 9abb 27a6 5b3c
000002f0: 7f2a 9f3b 5e7d a93c 4cad 91bc 8104 b6bc
0.08279063 -0.08657992 -0.083260745 0.08915173 -0.08368182 0.08199737 -0.045938097 -0.0494768
-0.086450584 0.074554816 0.06738013 0.082013436 0.08514928 0.080978 0.08358633 0.086768724
-0.08758843 0.090253055 0.08672056 0.09015306 -0.055756234 0.09286894 0.08283944 0.08826618
0.08888694 -0.09038562 0.07792273 -0.072962254 -0.086759984 -0.087098785 -0.08749502 -0.09787972
0.0833717 -0.08079259 0.0073929923 0.07605993 -0.08326048 0.08750465 -0.076429404 -0.07538567
-0.08026599 -0.07867904 0.09098821 0.08251411 -0.073592566 -0.072719075 -0.08395988 0.08156202
-0.07653436 0.08058675 -0.07710743 0.08801684 -0.074102156 -0.0762351 -0.08162131 -0.07833718
0.08040631 -0.07824232 -0.07793698 -0.073359564 0.07984797 0.08343984 0.077842884 0.07710611
0.0007117271 0.00011412433 -0.0002128079 0.00076909614 -0.0006758242 0.0011136903 -0.0005203569 -0.001597336
-0.001019179 0.0011001917 0.0011533309 0.00053091836 -7.2698786e-06 0.00026571797 0.00018296478 0.00081118755
0.0003883787 0.00027059167 -0.00028270434 0.0004800625 -3.370955e-05 0.0005539205 -0.00016535856 0.00025856405
8.1215774e-05 8.336331e-05 0.00043120203 -0.00035109813 -0.00016118458 1.8437202e-05 -0.0002940055 -0.00053117087
0.00019685358 0.0003875032 0.00032797238 -0.00041664025 -1.893922e-06 -0.000254032 -0.00017954216 -9.2221184e-05
-0.0010009106 -0.0022402757 0.00036443706 -0.0007825801 -0.00014270037 0.0010467933 0.0028259885 0.00052037404
0.00018157772 8.051847e-05 -0.0002668643 -0.00074774964 0.00030373188 0.00085925986 6.493548e-05 0.00044302686
-6.8830646e-05 -0.00050873816 -0.00040378998 0.00030668973 -0.00035777173 -0.00023444227 -0.0003109608 -0.0001871301
-0.00034724455 -0.005752381 -0.010189964 0.003671591 -0.010602236 -0.0052486476 0.01544084 0.0010937682
-0.0026280088 0.004616918 -0.017009646 0.00992782 0.009136538 0.0017751083 0.007030843 0.006125042
0.0071385894 -0.006841335 0.010550024 0.005849635 0.004982914 -0.01001368 0.0054049725 -0.002249679
0.01750726 0.00012740384 0.0011314607 0.0006372163 0.0030961386 0.0050204434 0.009487766 -0.0024622206
-0.019538676 -0.002927246 0.011524226 0.0068359436 0.015760493 -0.0032112384 0.0053433925 0.016621474
0.010721228 0.005464443 0.004991651 -0.010018644 0.01065849 0.00471382 -0.00013290162 0.013720425
-0.0066118855 -0.0028482582 -0.009189822 0.00983948 0.009565452 0.0069757174 -0.002445159 -0.008607649
-0.005166271 4.7921305e-05 -0.00470653 0.013406313 0.004857361 0.020689663 -0.01778283 -0.022218945

transformer.layers.0.self_attn.out_proj.weight f4 [64, 64]
00000000: 47e2 97bd 4d2e 613c bf91 033e b2c5 2cbe
00000010: ff18 1c3d 664a 05bd 1e15 29bd 5d73 673a
00000020: f92b 1b3d 9a42 d4bd f4db dcbd 6103 85bd
00000030: acae a0bd 109f 1dbc 1463 ba3b 2506 93bd
00000040: 189d 51bd 026c 913d 86fd dfbd 7675 fb3d
00000050: db69 b3bb 2007 c0bd 92fb 473d 51fc df3d
00000060: dfae 7f3d ec6e b8bd 932c a7bd 2554 903c
00000070: 90d3 d6bd b81a 4dbd d4d7 9abd 46dc 353d
00000080: 6303 bebc 9556 fa3d bd1b 3ebe 78ae eebd
00000090: 579f 883d a67e 2fbd f496 363c 4cf5 c1bd
000000a0: 35e3 483d 33bc 493c d2ff 583c be1e bd3d
000000b0: 8edd 0d3d 3601 8e3c a193 3d3d 1c5c 7f3d
000000c0: 400e b9bd 0411 09be 2b82 dbbb 326b 18be
000000d0: 9db4 76bc 46ef 8f3c 2545 193e c9ac b93d
000000e0: ba08 0cbe f53f f43d 9fdb cebc 8fbe cebd
000000f0: acc6 06bd e6c6 423c 9045 33bd 51f6 aabc
00000100: ff09 673d 03dc e0bd ce53 81bd 0a74 0b3e
00000110: 340e 833d e973 84bd 9bcf 383d 21bb 923d
00000120: 60c1 50bd 7c39 8fbb c7b0 c33d 308b a0bc
00000130: a952 c93d d648 3d3e 567f aabd 98f6 40bd
00000140: ac1f e3bd 6d30 1e3d 8f62 bd3d c39c 273d
00000150: 39b1 22bd fb01 ee3c 6355 c33d 92c0 cfbd
00000160: 0336 123d 0ebb 063d 1f5a 4d3d f8ae 6ebd
00000170: 3eb9 a93d 4a06 f93d cc87 a9bc cf89 c0bc
00000180: 35d3 dfbd 085f 17be 97c2 a93c e7b9 51bd
00000190: 1312 2abc c88a c83d 8c68 bf3d e65a 8bbd
000001a0: 5d22 f5bc 4309 64bd fe61 fc3b 1dcb dabd
000001b0: 6a13 d03d f5c5 a7bd 684d 9fbd 9477 3ab9
000001c0: 2a6d 9a3c ae0d be3d 12f7 fa3c ff4e e63d
000001d0: dc67 96bd 6481 6d3d 0f73 36be c9bf b9bc
000001e0: 01bd b0bd a2e1 5abb 7d6a 2c3d 97d1 02be
000001f0: 9649 85bd df01 ca3d c56e babd 4fe3 b0bd
00000200: e541 6abd 2be9 ed3d 0502 8c3d 518c e1bc
00000210: d050 cdbd 89d1 61bc 28a3 c23d a18c ec3d
00000220: 2c46 693d c998 c0bd 5ed5 6b3d 7070 a9bd
00000230: 2d09 abbd 6956 d6bc b4fd 7b3d 06de b13d
00000240: 2f0d f43d 8313 69bd 01cc 80bd 091a c13d
00000250: db3b bb3d 60be d13d 0ef9 09be 1ad6 113e
00000260: 7a19 553d 55f1 2f3d 1cc4 8f3d f201 2cbd
00000270: 09da bf3d 59d7 dbbd e19f 47bd 7ebb 063e
00000280: 5d4e 523d d20f 113e 7f5b aabc 49e5 a03c
00000290: 9808 cc3d 5594 d43d 6884 58bc 8305 47bc
000002a0: e339 f8bc 66a7 463d ca66 49be feb5 93bc
000002b0: 7c6c a73d cd02 2cbd 15ae ee3c a6ae 8cbd
000002c0: 1c8b bc3d 4959 cfbd b1f6 da3c ac8b d0bd
000002d0: b094 ffbd 6d01 82bd 8576 78bd 585d c43d
000002e0: a89e 573d de33 203d 07a0 16bb c243 8abd
000002f0: 4b66 883c 89de 15bd 743b b1bd 611c 303c
00000300: e976 a4bd 0e05 173c 31e2 b4bd 7a84 b43c
00000310: 0a23 92bd 53b1 083e 5ef5 b1bc c205 563c
00000320: ef22 babd 41be 21bd 4f6d 833d 74cb 05bd
00000330: 694c eabd 840f bbbd 32df e2bd e2b1 9bbb
00000340: 3d3f 7abd d7ea fe3b 4785 9bbd d165 1bbd
00000350: 7173 0f3d bb5e 12bd a6c8 db3c fa25 81bd
00000360: 180d 95bc dd60 c13d 0cec 93bd 5e67 b8bd
00000370: 789c 99bd 7248 a4bd a4e8 f8bc 4143 e13d
00000380: 0e18 cebc 018a f23d a9b2 523d 92e5 913c
00000390: 6434 5a3d a8e1 193d e469 e8bd 3ce6 8f3d
000003a0: c80c 47bd c585 ecbd 4983 893d e9dc a6bd
000003b0: 8504 aebc 3542 dfbd d1ee debd 1b22 363d
000003c0: 4241 db3c 8659 8e3d 6183 86bd 54c8 afbd
000003d0: 3ec4 88bd eb15 dd3d 30fe d63d 7fae ebbd
000003e0: 36ea b5bc 91bb 90bd 0e49 583d 7c83 1cbd
000003f0: 7803 e7bd 325e c1bd 8bcb 5ebd 7a68 f3bd
-0.07416206 0.013743949 0.12848566 -0.1687229 0.038109776 -0.032541655 -0.041279905 0.0008829141
0.037883732 -0.10364266 -0.1078414 -0.06494785 -0.07845816 -0.009620443 0.0056880806 -0.07178906
-0.051175207 0.07100679 -0.10937028 0.12278263 -0.0054752654 -0.09376359 0.0488239 0.109367974
0.06242263 -0.09005532 -0.08162799 0.017618248 -0.10489571 -0.05007431 -0.07560697 0.044399522
-0.023194974 0.122235455 -0.18565269 -0.11654371 0.06671017 -0.04284539 0.0111443885 -0.09470615
0.049044807 0.012312937 0.013244586 0.09234379 0.03463512 0.017334562 0.046283368 0.0623437
-0.09035921 -0.13385397 -0.006698867 -0.14884642 -0.01505771 0.01757015 0.14967783 0.09066159
-0.13675204 0.11926261 -0.025251208 -0.1009494 -0.032904312 0.011888241 -0.04376751 -0.020869406
0.056406017 -0.10979464 -0.063148126 0.13618484 0.063991934 -0.064674206 0.045119863 0.07164598
-0.050965667 -0.0043708663 0.09555202 -0.01959762 0.09830219 0.18484816 -0.08325069 -0.04711017
-0.11090025 0.0386204 0.09247314 0.040920984 -0.039719794 0.029053679 0.095377706 -0.10144152
0.03569604 0.032893233 0.050134774 -0.058272332 0.08287285 0.12159403 -0.020694636 -0.023503212
-0.109289564 -0.14782345 0.02072267 -0.05120268 -0.010380286 0.097920954 0.093461126 -0.06804447
-0.029923612 -0.055672895 0.0077021113 -0.10683272 0.10159953 -0.08192054 -0.07778436 -0.00017782889
0.018850882 0.09279953 0.03063539 0.11245536 -0.07344028 0.057984725 -0.17817329 -0.022674458
-0.086298 -0.0033398648 0.042093743 -0.12775265 -0.06508176 0.09863638 -0.09103159 -0.08637106
-0.05719175 0.11616739 0.06836323 -0.027532728 -0.100251794 -0.013782867 0.09503776 0.1155026
0.056951687 -0.094041415 0.05757653 -0.08273399 -0.083513595 -0.02616425 0.061521247 0.08684926
0.11916577 -0.056903373 -0.06288911 0.09428794 0.09142276 0.10241389 -0.13473913 0.1424183
0.05202625 0.04295476 0.07019827 -0.041994043 0.09367759 -0.10734434 -0.048736457 0.1315746
0.051344264 0.14166191 -0.020795582 0.019640582 0.09962577 0.103798546 -0.013215162 -0.01214731
-0.03030104 0.048499487 -0.19668117 -0.018031117 0.081749886 -0.04199486 0.029135743 -0.06869249
0.092062205 -0.10124452 0.02672896 -0.1018289 -0.12479532 -0.06347928 -0.060659904 0.095881164
0.05264154 0.039111964 -0.0022983567 -0.06751205 0.01665034 -0.03658918 -0.08653918 0.010748954
-0.08030493 0.009217514 -0.08832205 0.022035826 -0.071355894 0.13348894 -0.021723446 0.013062896
-0.09088694 -0.03948808 0.06417333 -0.03266473 -0.11440355 -0.09133819 -0.110777274 -0.00475143
-0.061095465 0.00777946 -0.0759378 -0.037938897 0.035022203 -0.035734873 0.026829075 -0.063060716
-0.01819472 0.09442303 -0.07222757 -0.09004091 -0.07500547 -0.0802163 -0.03038437 0.10999156
-0.025157955 0.118427284 0.051439915 0.017809663 0.05327262 0.03756872 -0.11348322 0.070263356
-0.048596174 -0.11548952 0.06714494 -0.08147604 -0.02124239 -0.109013 -0.10885394 0.04446612
0.026764516 0.06950669 -0.06568027 -0.085831314 -0.06678055 0.10795196 0.10497701 -0.11507892
-0.022206407 -0.070670255 0.052804045 -0.03821133 -0.112799585 -0.094417945 -0.054393332 -0.11885162

transformer.layers.0.self_attn.out_proj.bias f4 [64]
00000000: b354 cdba c0ed ce3b 7127 5abb 553c 7d3b
00000010: dac9 583b 9188 a5bb 2cc6 8abc 61a4 953b
00000020: 80aa 133c 4083 d7bb 2e51 abbb 9eae 0fba
00000030: 9665 b73a f19d be3b 7bd9 bb3b 5cbe 0ebc
00000040: 6f63 313b 1984 90bc 3480 323a b088 88bb
00000050: 22cd b6ba 564c 50bb 8415 5d3c fdce 8ebb
00000060: 135c b2ba 87d0 2f3c e321 903b dd91 60bc
00000070: 882e 483c a9bf ab3b 3a8f 2dbb 44fb bfbb
00000080: 4d23 b23b 6dcc 0c3b f21e a6bb 342b 3cbb
00000090: 4197 753b 662f 93bc 960a 973b ba04 053b
000000a0: c606 eebb ef52 963c 53c3 a33b 5997 133c
000000b0: fd76 483c 73fd a1bb 2655 a7bb 712f f83c
000000c0: 7fb7 a73b fa58 07bc f255 ee3b e4c3 043c
000000d0: f749 173b 7052 a0ba 8bb7 c1bc 0db7 8e3b
000000e0: 4fac 933a f821 c7bb b953 01bc 9df0 bbbb
000000f0: bb43 60bb d05e c43b 598c ea39 203d a23a
-0.0015665501 0.006314963 -0.003328767 0.0038640697 0.0033079297 -0.0050516804 -0.016940199 0.0045667146
0.009012818 -0.0065769255 -0.005228183 -0.0005481037 0.0013992067 0.005817168 0.005732713 -0.008712377
0.0027067324 -0.017641114 0.0006809265 -0.004166685 -0.0013946632 -0.003178378 0.013493899 -0.004358171
-0.0013607763 0.010730869 0.004398571 -0.0137066515 0.012218125 0.0052413535 -0.0026483075 -0.0058588106
0.005436337 0.0021484152 -0.005069607 -0.0028712275 0.0037474188 -0.017966937 0.0046094162 0.0020297007
-0.007263991 0.018350093 0.0049976497 0.009008252 0.0122354 -0.0049435436 -0.005106586 0.03029606
0.00511831 -0.00826096 0.007273429 0.008103345 0.0023084858 -0.00122316 -0.02364709 0.0043553174
0.0011266562 -0.0060770474 -0.007893496 -0.0057354704 -0.0034220058 0.005992748 0.00044736525 0.0012377836

transformer.layers.0.linear1.weight f4 [128, 64]
00000000: 1608 9e3d d9e5 51bd 013a b3bd dd26 bd3d
00000010: 4197 3abe 352f 1ebc baba d53d 62de 90bd
00000020: 7e5f fbbb 0d70 c4bc 3ac3 a1bd 5d8a 0f3e
00000030: 8065 cd3b d840 e3bd 3d4f 30bd 0a70 58bd
00000040: 6035 d03d 937a be3d cd0f 1b3d 73c7 78bd
00000050: 743d a53d 10b9 223e 4ce5 803d 46d9 ecbd
00000060: 845b 0abd a6b8 ffbd 5d45 673d f04d 943d
00000070: ac3f e63d 2c65 0fbc 8743 84bd 8761 653d
00000080: d78b 7d3d ce0e 0e3e adb4 6cbd 6b1b dd3d
00000090: f6e7 05bd 536a 1f3d 4564 a8bd 994e 14be
000000a0: 3bb8 c43d 5b5f 643c 368a ec3c b39f 5bbd
000000b0: 1b42 bebb ecd0 9bbd 538e 8dbd 3690 c33d
000000c0: 6edb aabd cf9a d0bb b52a 62bd 657c f4bd
000000d0: bfea b03d e28b d83d 8142 14bd 9eb0 f8bd
000000e0: e4a2 0e3d 86cf 6bbd e580 febc 345c 91bd
000000f0: 5e04 91bb 7268 913b 9d80 8cbd 7eb9 0fbe
00000100: 67dd bfbc e78d ae3d 1ad7 5ebc d938 9dbb
00000110: ca89 87ba e6e7 a8bd 8bb5 85bd 35ef f2bd
00000120: 76e4 f7bd 5423 0a3e 2af0 b4bd 9657 1bbd
00000130: 7453 023d 4f1a e7bc 017e b33d bfab d03d
00000140: 10ab 563c bdf3 f13d 5d1d 2dbd a08b a03c
00000150: 1b6c bdbc e50f d63c 7aeb 97bd 9d0f 013e
00000160: d7e1 d83c 2a2e dcbd 242c e33d b965 67bd
00000170: 344d 2e3d 0319 0fbc d3ff 52bc 5610 82bd
00000180: b499 e5bd 32bb ef3c 7e32 a43c a5d2 f73d
00000190: 8857 093d 669e b0bd 7aca 40bb 3fdc d33d
000001a0: c5c9 a53d 18da c53d 0392 76bd 4a7d e33d
000001b0: dcdf 083d f670 093d 0221 8cbd b299 5dbd
000001c0: e86c edbb d623 d7bd ad3c 8a3d 8345 c5bd
000001d0: 9db6 45bd acc6 a4bd 7002 a93d f246 0c3c
000001e0: ec3b 833d 9f6c 583d abf5 fbbb 20a2 fcbc
000001f0: 6a6f b83d 4459 29bd f57c 9f3d 41b2 033e
00000200: 0a4c 393c 456a 9ebd 1338 023e 364a 0cbd
00000210: 26d1 863d 46bf a7bc 894d 8abd 0eca b1bc
00000220: 8625 9c3d 0447 67bd 1308 10be 63d3 c4bd
00000230: 13c2 bcbd e749 d8bd 61c8 683d 7ec9 773d
00000240: 39d3 08be 96d1 a53d 9ab8 b73d ade1 b7bb
00000250: 02ad 9cbc 0bdf a83d ccd8 a33d 645a 87bd
00000260: 6e01 80bd eb8d 023e 8817 3dbd 5af0 5dbd
00000270: 625c 6cbd 84d6 993d cca9 8cbc 8f1f bf3d
00000280: 18c4 803c 4e15 a4ba fd34 6cbc 91d7 c43c
00000290: 959b 8b3d 31d1 0f3c 52cd 583c 9f65 85bd
000002a0: 4831 a9bd b5bc 5fbd c495 b03d 3211 1c3e
000002b0: 0e25 3d3d fc51 013e 0ce9 88bd 2f28 38bd
000002c0: 2bdc a7bc 2673 84bd d6b5 f23d 350d 6abd
000002d0: 49a7 ddbd 155b fd3d 36ba 1dbd f478 88bd
000002e0: 2923 293d 2102 5cbd 8fab cfbd bfaa 84bd
000002f0: ec58 d63c 5acb 81bd 70ce 403d 09e3 5f3d
00000300: fd87 a5bd 9be0 f1bb 5406 92bd f435 003e
00000310: f42b 81bd 5aa2 8cbd fcd6 e33d f14a 86bd
00000320: aec0 e0bd 7f2d 763d 3961 9b3d 02a4 ef3b
00000330: 4704 e6bd b9b4 d43d 388a 97bd d187 b0bb
00000340: e281 61bd f517 063d ca70 7f3d bffb 193e
00000350: e05e abbd 911b 313c c728 c2bd 62eb 13bc
00000360: e3b2 023b 0d75 1c3e 8b7d fabd 3428 423d
00000370: 9fd5 13be 8dcd b93d 7e24 263d 0142 8fbc
00000380: 0a7a 93bd e6fd 9cbb 9049 7f3d 677e f73d
00000390: 1ed1 af3b bb77 e5bd c5c0 b6bd 45a6 0c3d
000003a0: 7213 b33c 7cb6 72bd 436c 943d 4ad5 23bd
000003b0: f8de 7e3d d730 80bd 0d71 c33d 5ec2 b03d
000003c0: 5b8d 20bc 3354 6e3c 8af3 7d3c 5009 633a
000003d0: e153 f0bd b0eb 1dbd a3d8 51bb dea6 afbd
000003e0: 5aa8 1dbd e116 18be e032 b23d b962 be3d
000003f0: b794 1a3d f72f cb3d 749f c0bd 4080 5c3d
0.07716386 -0.05124459 -0.08751298 0.09235928 -0.18221761 -0.00965481 0.10436006 -0.07073666
-0.0076712957 -0.023979211 -0.07898565 0.14017625 0.0062682033 -0.11096352 -0.043044318 -0.052841224
0.101664305 0.09300723 0.037856866 -0.060737085 0.08068362 0.15890908 0.06293735 -0.11564879
-0.033778682 -0.12486391 0.056462634 0.07241428 0.11242613 -0.008752149 -0.06458192 0.056001212
0.06190094 0.13872835 -0.057789493 0.10796245 -0.03269192 0.038919758 -0.0822225 -0.14483108
0.09605452 0.01393875 0.028874498 -0.053619098 -0.00580622 -0.07608208 -0.06911912 0.095489904
-0.08342634 -0.006366111 -0.05521651 -0.11937789 0.08638524 0.105735555 -0.036196236 -0.12143062
0.034823313 -0.057570957 -0.031067321 -0.070976645 -0.0044255694 0.0044374997 -0.068604685 -0.14035603
-0.023421003 0.085231595 -0.013601089 -0.0047980365 -0.0010340747 -0.08247356 -0.06528767 -0.11862031
-0.12104122 0.13490039 -0.0883487 -0.037925325 0.03181787 -0.028210787 0.08764268 0.10189008
0.013102308 0.118140675 -0.04226433 0.019597828 -0.023122838 0.026130626 -0.074179605 0.12603612
0.026474876 -0.107509926 0.110924035 -0.056493495 0.042554095 -0.008733991 -0.012878376 -0.06350772
-0.11210957 0.029264066 0.020043608 0.12100724 0.033530742 -0.08623962 -0.002941756 0.10344743
0.08095125 0.09660739 -0.06019784 0.11107881 0.033416614 0.033554994 -0.06842233 -0.054101653
-0.0072456487 -0.10504882 0.06749854 -0.09632399 -0.048269857 -0.08045706 0.08252418 0.008561837
0.064079136 0.052837964 -0.007689198 -0.030839026 0.090056255 -0.041344896 0.077875055 0.12860967
0.011309633 -0.07735113 0.12716703 -0.03425046 0.06582861 -0.020476948 -0.0675307 -0.021702792
0.076243445 -0.05646421 -0.1406558 -0.09610631 -0.09216704 -0.10560971 0.05683172 0.060494892
-0.13361825 0.08096616 0.08970757 -0.0056116194 -0.019125465 0.08245667 0.08000335 -0.066090375
-0.06250273 0.1274945 -0.04616502 -0.054184295 -0.05770529 0.07511619 -0.01717081 0.09332191
0.015718505 -0.0012518556 -0.01441693 0.024028571 0.06816784 0.008777902 0.013232546 -0.06513523
-0.08261353 -0.054623324 0.086223155 0.15240934 0.046177916 0.12628931 -0.06685075 -0.044960197
-0.020490726 -0.06467275 0.11851089 -0.0571415 -0.10822923 0.12370888 -0.038507663 -0.06663695
0.041293297 -0.053712968 -0.10140144 -0.0647788 0.026165448 -0.06337614 0.047071874 0.054659877
-0.08082578 -0.0073815114 -0.07130113 0.12520581 -0.063072115 -0.068669036 0.111249894 -0.06557263
-0.10974251 0.060101982 0.07586903 0.0073132524 -0.112312846 0.103860326 -0.0739941 -0.0053872843
-0.055055507 0.03273769 0.062363423 0.1503744 -0.08367705 0.010809795 -0.09480434 -0.009028288
0.001994305 0.15279026 -0.12230977 0.047401622 -0.14436959 0.09072409 0.040562145 -0.017487528
-0.072010115 -0.0047910092 0.062326014 0.12084656 0.005365505 -0.112044774 -0.089234866 0.034338254
0.021859858 -0.059256062 0.07247212 -0.03999833 0.06222436 -0.062593155 0.09543047 0.086308226
-0.009799327 0.014546442 0.015499959 0.00086607505 -0.11734749 -0.038554847 -0.0032019995 -0.08576749
-0.03849063 -0.14852478 0.0870111 0.092961736 0.03773948 0.09921258 -0.09405413 0.053833246

transformer.layers.0.linear1.bias f4 [128]
00000000: 6c30 523d d001 283d 7ac9 1e3c ed2d aebd
00000010: ae96 da3d 5040 2cbc 7139 8e3d af52 f53c
00000020: 590c 50ba 97a6 02bd d57c d0bd 36a7 c63c
00000030: 5be0 ba3d 6327 f13c 6d37 c4bd 3502 9fbc
00000040: 20e4 89bc cbf4 ca3d e40d ddbb 341a 29bd
00000050: f099 f1bd c3fc 0c3d 8fa9 cbbd a741 92bd
00000060: db52 cd3c 8bf7 a7bd 4232 d5bc 1865 943d
00000070: b105 c13d 48e9 ac3d 2e29 9bbc 18fe b4ba
00000080: 22b2 b13d c1f6 2cbd 17d1 f83d e318 f03a
00000090: 4b7a df3d 3469 92bd 5056 c73c 5287 55bd
000000a0: 4c32 d9bd f067 89bd 87fa 4e3b 952f f5bc
000000b0: d612 79bd 3a89 d93d 57be 7abd 0fe8 723c
000000c0: 66d2 5f3d 22c5 903d 49b3 c8bd cd16 853d
000000d0: 2236 293d cfed e3bd f2c9 92bd fff8 0a3d
000000e0: d25c 7b3d 7c30 ddbd d0e6 95bd 9471 403d
000000f0: 35ee 7bba c7d1 0d3d 5d36 313d 94c1 8abc
00000100: e764 63bd 1f25 ec3d 0c4a d43d 96ee b9bd
00000110: f95d 8ebc bc2e c23d f5b0 aebd 3baf 593d
00000120: 5c89 6ebc fb77 c6bd 0a46 a13c c801 853d
00000130: ba19 0d3d eb6f e8bd af5f a33d 9cc6 cebd
00000140: 47cb bfbd 3c41 d1bc 62c4 54bb 8cb3 033d
00000150: 103e 8c3d c1d5 fbbd 1775 343d e40f 533d
00000160: f197 d0bd c615 fdbd d74a a63d 5545 8e3c
00000170: b74d d7bd 2442 b1bd d66e 223d e12f 2fbc
00000180: 6a9f d3bc 2c21 763b 96cd 7bbd da08 ab3d
00000190: 068c ffbc 593c bebd b83f 883d 1fd4 1a3d
000001a0: 46b0 d9bd e27c febd d624 4c3d a519 d6bd
000001b0: cb4f 81bd 0a77 c13d 171f e53d 4ae5 63bd
000001c0: f70a 3ebc 756b 3a3d d146 a83d 6071 5f3c
000001d0: 33c9 023e ff60 60bd 1346 5abc b2c6 e63d
000001e0: aed2 6abd 57b6 efbd e6bd 593d e52a afbd
000001f0: 7f0a 96bd fa21 c63d b076 d63d 5a7c 8e3d
0.05131571 0.041017354 0.00969159 -0.085048534 0.10673271 -0.01051338 0.0694455 0.029946653
-0.000793641 -0.031897154 -0.1018006 0.024249654 0.09124824 0.029437726 -0.09580884 -0.019410232
-0.016832411 0.09909972 -0.0067460407 -0.041284755 -0.117969394 0.03442074 -0.0994445 -0.071414284
0.025063923 -0.08201512 -0.026024941 0.072458446 0.09424914 0.08442932 -0.018940534 -0.0013808636
0.08676554 -0.04222751 0.12149256 0.0018317964 0.109119974 -0.07148972 0.02433315 -0.052131005
-0.106052965 -0.06709278 0.0031582431 -0.029929915 -0.06080898 0.10621877 -0.06121668 0.014825835
0.05464401 0.0706885 -0.09799821 0.064984895 0.04131139 -0.11129343 -0.07167424 0.033928867
0.061367817 -0.10800263 -0.073194146 0.046983317 -0.0009610386 0.034623887 0.043264735 -0.016938008
-0.05551615 0.11530518 0.10365686 -0.0907871 -0.017378794 0.0948157 -0.085298456 0.05314563
-0.014559116 -0.09690853 0.019686718 0.0649448 0.034448363 -0.11349472 0.079772346 -0.100964755
-0.09364944 -0.025543801 -0.0032465686 0.03215365 0.06847775 -0.1229663 0.044056978 0.051528826
-0.101852305 -0.123576686 0.08119743 0.017367044 -0.1051287 -0.086551934 0.039656483 -0.010692568
-0.02583285 0.0037556393 -0.06147536 0.08351298 -0.031194698 -0.09288854 0.066527784 0.03779995
-0.106293246 -0.12426163 0.049839817 -0.1045411 -0.063140474 0.09446533 0.111875705 -0.05563859
-0.011599294 0.045512635 0.08216632 0.013637871 0.12772064 -0.054780003 -0.013322371 0.11268367
-0.057329826 -0.117047004 0.053159617 -0.08553103 -0.07326221 0.09674449 0.104718566 0.06957312

transformer.layers.0.linear2.weight f4 [64, 128]
00000000: 04f2 7f3d 2cb8 b6bd f646 0b3d 5807 fc3c
00000010: 5053 b53d 896f bdbd 2b40 02bd 0503 3fbd
00000020: 8568 f6bb 8154 61bd a634 9dbd 0ffc ac3c
00000030: c3c4 4c3d 6f70 62bd 6e74 863d de37 973d
00000040: 3e30 fbbc 2340 0fbd 19be 33bd 73ec e83d
00000050: adce df3c 5330 65bd 45a6 d23c 0cc4 27bd
00000060: 657f 86bd 91e6 543d ca41 09bd 93b2 b13d
00000070: 27e3 393c 2ab4 6ebd 3e05 b93b 20a5 843b
00000080: 65a0 6b3d 3a52 1ebd 52b0 4abc 9463 6b3d
00000090: 4e3c e43d 943f 793d 3e8b 69bd 2c93 51bc
000000a0: eeaa 32bd ec71 35bd a156 063d 40ae 01bd
000000b0: 74c4 1a3c a6bd ac3d c20f 6ab9 6180 94ba
000000c0: cdd5 623d 8e87 5e3c 61f8 a6bc 0257 793d
000000d0: 98c5 9bbc 77ed 51bd a0fc 033d 0032 01bd
000000e0: 845f 97bd b668 cebd ab03 a43d 160c a0bd
000000f0: 9ad8 8bbc 98a0 3bbc 21c3 a9bd 684e 423d
00000100: e065 b73d 20d8 843d 70bb 08bd e765 d2bd
00000110: c79a 99bd 8a3c 9abc a3db f7bc 0510 b5bc
00000120: bf2d 42bd a448 14bc 5c4f a03d fe55 663d
00000130: 034a 6f3d 9597 873c 1f78 a3bd 37cc 72bd
00000140: 05da fc3d a515 5d3d 759d 9c3b b5b7 4cbc
00000150: e0bf 5c3d 8d27 48bd fff1 3cbd 5b00 59bd
00000160: f116 85bd da1e 62bb a6eb 1fbd 9acf 7fbd
00000170: 179b 8fbc c1f2 9fbd 8b4c d03d 3bce bc3b
00000180: e604 b53c 7d4b b3bc 70c8 acbd 082c 98bd
00000190: 1625 623d 10d8 213d 7884 3b3d b83c 21bd
000001a0: f610 8a3d 5cad 8f3d ea6a ebbc db5d 0dbd
000001b0: 2e72 aebd 5566 a7bc 1770 2dbd 7685 ab3d
000001c0: d331 52bd 70f9 26bc 9420 b43d bf9e 9c3d
000001d0: a2f8 b13d 6006 823d 288b afbc 0f61 1a3d
000001e0: d03a fdbc 1fb0 3bbc 52c7 21bd bbd1 68bc
000001f0: 239c 693d d8e8 3ebd 4811 873d cbe2 b53c
00000200: 4ac1 173d 13a8 5bbd 5ae1 223d f74c e1bc
00000210: 061a 073c 7aaf 313d 1853 a33d 3be7 9dbd
00000220: 65a5 05be d505 833d d785 b43d 99b0 823c
00000230: 3795 313b a8cf 9c3c a4a9 7ebd 4c85 8dbd
00000240: 498f 9c3c 99b4 063d 737f 28bd c96f b13c
00000250: f818 a43d 2f47 8ebc 2c28 00bd 49d4 aa3b
00000260: 30f2 0a3d 60b7 743d 4b70 ed3d bf1c b13b
00000270: 0e3d 473d fabc 723c d9c0 dc3c a3e4 6ebd
00000280: d923 663d e732 3abd 8d20 abbd 676f 9bbc
00000290: ba72 3bbd c699 15bd c2d3 17bd b6fa 643d
000002a0: a444 a1bd e390 3f3d ca13 5ebc 1191 203c
000002b0: be4b 553d 2f37 b63c 0441 223d e28c c9bc
000002c0: 9a77 583d e6bf d7bc 6dec 893d 0116 05bd
000002d0: 02a3 a1bd 7ca1 69bd e0b8 d4bc 43e0 313d
000002e0: f3d7 d33c ff5a 5d3d bcaf dbbc 9e93 493d
000002f0: 0104 bebd b442 933c dd6f 01bd 26ea 373d
00000300: 6898 21bd 4cc5 1abe 00fa 5c3b 1c28 cd3d
00000310: 3423 c73c 1bb3 a73d 7374 0f3e b9f2 003d
00000320: e718 b33d 1c23 b9bc 11c8 833d 5db3 63bd
00000330: 6483 87bd 2505 adbd bdda 653d 8a8d a6bd
00000340: 9a8c c1bd bdea f6bc e7da 813d 34b4 aabc
00000350: c2c8 5ebd 9c6a 993c 0140 1fbd ddf5 5cbd
00000360: ac11 89bb a723 adbc 3595 7f3c ca27 39bd
00000370: d41f 953d 3cf9 693d 28a7 1fbd ed6c 5fbd
00000380: d740 913c dc9a fbbc 2cc4 9fbd fba4 74bd
00000390: 1c62 4ebc 7cb7 f8ba f8ed 33bd a852 d63c
000003a0: a4b4 70bd eb98 39bd dbcb 62bd 4f09 a5bb
000003b0: 869e edbc 6ef0 9f3d 5453 633c 984b 15bd
000003c0: d510 aabc 9f57 9d3d 6678 c8bd a080 06bd
000003d0: ad72 633d 9cba c0bc c5b8 8ebc 0104 243d
000003e0: 44b1 3e3d 14bc 04bd 74fb 7b3d e0ad 973c
000003f0: eb23 db3c 11dd d0ba 81d7 2b3c a3ce bebc
0.062486663 -0.08921847 0.03400322 0.03076522 0.08853781 -0.09249789 -0.031799477 -0.04663374
-0.007519784 -0.05501223 -0.076760575 0.021116285 0.049992334 -0.055283006 0.06565176 0.07383703
-0.030662652 -0.034973275 -0.043882463 0.11373224 0.02732023 -0.05595429 0.02571405 -0.04095845
-0.06567267 0.051977698 -0.033510007 0.086766385 0.011345661 -0.058277287 0.005646377 0.0040480047
0.05752601 -0.038652636 -0.01237114 0.057468012 0.11144315 0.06085165 -0.057017557 -0.012791436
-0.043620043 -0.044298097 0.03279746 -0.03166032 0.009446252 0.0843461 -0.00022321849 -0.0011329764
0.055379678 0.013582123 -0.020382108 0.060873993 -0.019015118 -0.051251855 0.032223344 -0.031541824
-0.07391265 -0.10078566 0.08008512 -0.07814805 -0.017071057 -0.011451863 -0.08289171 0.047438055
0.08954978 0.06486535 -0.03338188 -0.102733426 -0.075002246 -0.018827695 -0.030256098 -0.022102365
-0.047406908 -0.009050522 0.078276366 0.056234352 0.058420192 0.016551772 -0.07981896 -0.059276786
0.123462714 0.05397572 0.0047795125 -0.012494971 0.053893924 -0.048865844 -0.046129223 -0.052978855
-0.06498516 -0.0034503252 -0.03904309 -0.062453844 -0.017530007 -0.078099735 0.101708494 0.0057618893
0.022097062 -0.021886582 -0.08436668 -0.07430273 0.05521115 0.039512694 0.04578063 -0.039364547
0.06741516 0.070154876 -0.028737504 -0.034513336 -0.08517872 -0.020434538 -0.042343225 0.08375065
-0.051317047 -0.0101913065 0.08795276 0.07647466 0.08690001 0.06348872 -0.02142866 0.03769022
-0.030911833 -0.011455565 -0.039496727 -0.01421016 0.05703367 -0.046608776 0.06595093 0.02220287
0.03704957 -0.053627085 0.039765693 -0.02750252 0.008245951 0.043380238 0.07974833 -0.07710119
-0.13051374 0.06397597 0.088145904 0.015953349 0.0027096996 0.019141987 -0.0621735 -0.0691019
0.019111292 0.032887075 -0.04113717 0.021659749 0.08012575 -0.017367927 -0.03128831 0.0052132946
0.033922374 0.059745193 0.11593684 0.005405038 0.04864221 0.014815563 0.026947426 -0.058323514
0.05618653 -0.0454587 -0.08355818 -0.01897402 -0.04576371 -0.036523603 -0.037067182 0.05590316
-0.0787442 0.046769034 -0.013554523 0.0098002115 0.052074187 0.02224311 0.039612785 -0.024603311
0.052848436 -0.026336621 0.06734548 -0.032491688 -0.078924194 -0.05703877 -0.025967062 0.043426763
0.025859809 0.05404186 -0.026817195 0.049213044 -0.092781074 0.017976142 -0.03160082 0.044901036
-0.039451987 -0.15114325 0.0033718348 0.10017416 0.024308778 0.081884585 0.14009266 0.03148148
0.08744984 -0.02259975 0.06434644 -0.055590976 -0.06616858 -0.08448247 0.05611681 -0.08132465
-0.09450646 -0.030141229 0.063405804 -0.02083788 -0.054390676 0.018727593 -0.0388794 -0.05394541
-0.004183015 -0.021135164 0.015599539 -0.04520396 0.07281461 0.057122454 -0.038977772 -0.05454724
0.017731113 -0.030713491 -0.07801089 -0.05972765 -0.012596633 -0.0018975581 -0.043928117 0.02616246
-0.058766022 -0.04531185 -0.055370193 -0.00503651 -0.029006254 0.0780953 0.013874847 -0.036449045
-0.02075998 0.07682728 -0.09788589 -0.03283751 0.055529285 -0.023526482 -0.01742209 0.04004288
0.046555772 -0.032405928 0.0615191 0.018515527 0.026750525 -0.0015935024 0.010488392 -0.023291891

transformer.layers.0.linear2.bias f4 [64]
00000000: d0ec d03c c2c7 903c 8bd0 153d 51a0 e5bc
00000010: f495 9eba 4d2d 7b3d 90eb c53b 16e3 733d
00000020: c4af 0e3d 6c53 0a3d 7f00 8cbb 637f 06bd
00000030: ca7d 5d3d 6363 5ebd 3276 82bd 617b 5cbd
00000040: 99c5 203d edbe 3c3d 1323 42bc e705 cd3c
00000050: 28c7 003d 5d8e cb3c 15ca 6b3d 18e2 f5bb
00000060: e489 ad3d 5349 b03d 82cd 1d3d b118 f93c
00000070: 21f0 48bd 81de 743d c7e4 05bd 1dad 17bd
00000080: d030 50bd 7751 653d 8730 6bbb 2d0e 8ebd
00000090: ca7c 19bd 3643 bebd 5356 4abd 8d71 8a3d
000000a0: 663a 86bd 4ac4 a03c 30d4 f23c 5134 82bd
000000b0: cc70 ad3c 076d 8e3d 4d97 44bd edd2 8a3d
000000c0: 226c a9bd 00a0 61bd dd4c b43d 14b7 553d
000000d0: 5978 6abd 7a28 8c3d e39e 2cbd 8d31 d3bb
000000e0: 5809 793d d86e 9cbd c799 a03c 8b00 783d
000000f0: 23e6 803d 205d bf3c ecc4 2f3d 4d44 5fbc
0.025503546 0.017673377 0.036575835 -0.028030546 -0.0012099133 0.0613225 0.006040044 0.059542738
0.034835592 0.033770964 -0.00427252 -0.03283633 0.05407504 -0.054294 -0.063702 -0.0538286
0.039250944 0.04608052 -0.011849183 0.025027229 0.03143993 0.024848158 0.057565767 -0.007503759
0.08473566 0.086077355 0.038526066 0.030407282 -0.04905713 0.05978251 -0.032688882 -0.037030328
-0.0508278 0.055985894 -0.003588708 -0.069362976 -0.037472524 -0.09290163 -0.04939873 0.06759939
-0.06554107 0.019624848 0.029642195 -0.06357635 0.02117195 0.06954389 -0.047995854 0.06778512
-0.08272578 -0.05508423 0.08803723 0.05217655 -0.05724368 0.06843658 -0.042143714 -0.006445116
0.060799927 -0.07638329 0.019604577 0.060547393 0.06293895 0.023359835 0.04291241 -0.013627124

transformer.layers.0.norm1.weight f4 [64]
00000000: 6dba 823f 36b2 823f d309 843f fb04 7e3f
00000010: df4e 893f a104 7f3f 5ea2 7f3f 81e2 813f
00000020: b0fc 863f 1dc4 7d3f b3cd 833f 9714 803f
00000030: a1b8 813f 7334 7d3f f3e5 803f 7dd6 7a3f
00000040: 0f24 803f 5be4 7b3f ddeb 7f3f 48a7 863f
00000050: 769c 833f 05bd 863f ccfc 7c3f e862 803f
00000060: c5c0 7c3f 6ed7 853f c575 7e3f 3e83 733f
00000070: 104b 833f 94e4 7c3f d504 7e3f 31e7 773f
00000080: 4925 803f 9372 773f 1d56 7c3f 08ef 753f
00000090: 508b 823f 8c1e 7b3f dc4e 7f3f 3c07 813f
000000a0: 3448 7d3f ebc2 7f3f aec0 7c3f d445 803f
000000b0: 69e3 7c3f 86f6 803f eca4 813f d736 803f
000000c0: 3296 7f3f 3f0e 783f c65d 7f3f c371 773f
000000d0: 585f 823f 90f4 803f 7ca6 7c3f 87c1 7a3f
000000e0: b765 7e3f 35c4 833f 1c38 7b3f 5df9 793f
000000f0: 83d3 783f 60f7 753f 19f5 813f 19cd 833f
1.0213143 1.0210636 1.0315498 0.9922635 1.0727195 0.9961644 0.9985713 1.0147249
1.0545864 0.9912737 1.029715 1.0006284 1.0134469 0.98908156 1.0070175 0.97983533
1.0011004 0.9839532 0.99969274 1.05198 1.0282123 1.0526434 0.9882324 1.0030184
0.9873164 1.0456369 0.9939845 0.95122135 1.0257282 0.9878628 0.99226123 0.96837145
1.0011379 0.966592 0.985689 0.9606786 1.0198765 0.98093486 0.99729705 1.0080333
0.989383 0.99906796 0.98731506 1.002131 0.987845 1.0075233 1.0128455 1.0016736
0.99838555 0.9689674 0.9975246 0.9665796 1.0185347 1.0074635 0.98691535 0.9795155
0.99373955 1.0294253 0.9813249 0.97646123 0.9719774 0.9608059 1.0152923 1.0296966
