lstm/prod_stage1_lstm.pt (torch, 80380 bytes, 7 tensors)

lstm.weight_ih_l0 f4 [256, 1]
00000000: 0484 573d 53f3 cf3c b31c c63d 4865 9ebc
00000010: e3e7 683c 3447 0d3e 3d33 d8bd d822 14bb
00000020: dbd7 b7be da7d a93d cab2 673c 13c0 b3bd
00000030: ace6 753d 0c72 ddbd 54b7 e43d 072c bf3d
00000040: 305b 13bd 3b4b 0cbc 17e0 ee3d ee66 1a3c
00000050: bb09 ff3d 1177 ce3d a897 5dbd b5c1 01be
00000060: 2a4d fd3c b734 18be 2fef 503c 09b8 9dbd
00000070: 5cba 0fbd 7dd9 093e 104a c33d 4dca ec3d
00000080: 234e 6abd 4208 703c 6a1c d4bd e4f5 cf3c
00000090: 83d2 213e 2170 963d 864a 983c fd33 3b3d
000000a0: 880d 99bd 099a 63bd 1cb3 273e 3532 c93d
000000b0: c8da dd3d aefb 0abe c844 7bbc 94c5 0f3e
000000c0: b68c 963d 2032 e1bd 7d7a 8b3d 118a 6cbd
000000d0: 2960 d1bc 43a0 8cbd 3e54 67be 67f8 643b
000000e0: 6e82 4f3d fdbf d5bc 3599 fb3d d986 dc3a
000000f0: 1134 ff3d 59f7 66bd b798 433c 714b 1dbe
00000100: 46b1 7c3c 3782 2b3e 7821 cc3d aed2 b3bc
00000110: 7016 983c 1eb1 2dbd 26e7 883c 7d81 383e
00000120: f056 2fbe 7eb5 143d 5f00 223e 334f 683d
00000130: bfeb 2c3e 3505 bc3d bac9 c13d b012 04bc
00000140: 6fe2 1bba a05f 383e 9d01 df3c c9bf 363e
00000150: 3517 033e 50a6 513d 83ff 27bc cb60 7d3c
00000160: cf1c 183d 0f1c 51bc da2d acbc 71bd d43d
00000170: adcc 3f3e 5650 093c 12b5 9a3d ae52 aebd
00000180: 52b1 443d db37 adbb fdf7 24be 5d8b e9bb
00000190: c78d 93bc eda5 653e ffbd 5b3d 3b48 c83d
000001a0: c88f 3abd 0610 a3bd 2986 a43c cf78 b9bd
000001b0: 5762 ba3c 11d4 d6bc 8290 f23d 7aa3 dfbc
000001c0: eef6 823d 93bd e13d ccc9 17ba 39a6 0d3d
000001d0: f8ba a3bd abbe a33c 9588 1dbd 56e5 0a3e
000001e0: 98a2 0a3e 21ee f83d b3dd b33d bf0e 593d
000001f0: 22e1 663e 8fa1 fd3c 822e 1bbd 0135 14be
00000200: f7de b23c 9b3c 58bb 3f47 bebd ce18 17be
00000210: e2e9 963d f3c3 7dbd 08dc 163e f24b d83d
00000220: 089b 94bd 868d 2fbe d8cc 99bc 9b11 dbbc
00000230: 283a 39be 41ba 073e 4b32 d9bd e1b9 083d
00000240: a0b7 683d 792c f1bd 3b7a d9bb 8b21 b03d
00000250: 0777 14be 5c2b 92bd 7ff8 abbd 60b2 a5bd
00000260: 633c 2a3e 9455 05be bbaa 12be 63b1 03be
00000270: 9d6e 9ebb 5bbf 2fbe 0a2b ea3d f7a2 2c3e
00000280: 699d 133e 1f9a 3c3e e3db 70bd 6382 20be
00000290: 434e 3b3c f933 0d3c 9782 39bd 1282 eabd
000002a0: c2f4 ae3d 56d1 74bd 0e6f 933c 0291 4e3a
000002b0: 684d eabd 48ec 0e3e 655d 14be ad69 0fbe
000002c0: c7ba f63d 3539 6fbd 12dc cb3d bcea 973d
000002d0: e0cb abbd ae22 a9bd 3f1a 3b3d 9dee a4bd
000002e0: 7cc1 c83d b133 9abd 9425 bebd 9691 d6bd
000002f0: 864b 2dbe 3457 cbbd 85a2 a2bd a58b e9bc
00000300: e2d9 b83d ab58 283d fc67 82bc 3c02 363d
00000310: 8485 983d b492 753d 1550 893d c6aa b1bd
00000320: 06ce 82be 8032 c93c 11a4 fb3d acda 5cbd
00000330: 40b1 e63d 5a83 033a 73f1 01bd f71b cf3d
00000340: be7f 8f3d 50f8 f73d be84 7cbd 961a 193e
00000350: 32d2 0fbd 5211 bb3b 4451 0a3e f8c1 88bd
00000360: 082d 103e 3251 72bd 367f e2bd 6e2a debd
00000370: e3c2 693d c0c8 1abd 4db4 373e 7265 c13d
00000380: dbb2 2d3d a525 08bd a108 22bd 1644 143e
00000390: 938f df3d 2718 fc3d 6aa6 ae3d 93ea 97bd
000003a0: 5cd8 6dbd 8f21 273d 45c1 103d c680 53bc
000003b0: 0f08 633d 3617 90bd 081f d2b8 771e 273e
000003c0: b2df 9f3c 132a 993d 0170 52bd a9a8 b43d
000003d0: 7ee3 f6bc 5fe8 233e 2765 3bbe f952 1cbd
000003e0: ddd1 413d 721d 1b3e 842f 343e 2ba6 033e
000003f0: 9364 1d3e e156 fb3c 030a 13bd 946b 3a3d
0.052616134 0.02538458 0.09673443 -0.019335404 0.014215442 0.13796693 -0.10556648 -0.0022603776
-0.35906872 0.082759574 0.014141748 -0.087768696 0.06003444 -0.10812768 0.111677796 0.093345694
-0.035975635 -0.008562858 0.116638355 0.009423954 0.12453028 0.10081304 -0.05409971 -0.1267155
0.030920584 -0.14863859 0.012752338 -0.077011175 -0.035089836 0.13461871 0.09535611 0.11562023
-0.057203423 0.014650406 -0.10356982 0.025385804 0.1580296 0.07345606 0.018590223 0.045703877
-0.07473284 -0.05556682 0.16376919 0.09824029 0.10832745 -0.1357257 -0.015336223 0.14040214
0.07351057 -0.10995889 0.06810472 -0.057748858 -0.025558548 -0.06866505 -0.2259073 0.0034938098
0.050661497 -0.026092524 0.12285081 0.0016824856 0.12461103 -0.056388233 0.0119382655 -0.1536081
0.015423125 0.16748892 0.09967321 -0.021951046 0.018565387 -0.04240524 0.016711783 0.18018146
-0.17123008 0.036305897 0.15820454 0.056716155 0.16886805 0.09180681 0.094623044 -0.008061096
-0.0005946522 0.18005228 0.027222449 0.17846598 0.12801822 0.051184 -0.01025379 0.015464972
0.03713685 -0.012763037 -0.021017957 0.103876956 0.18730421 0.00838097 0.07554068 -0.08511864
0.04802067 -0.0052861995 -0.16110225 -0.007127209 -0.01801194 0.22426577 0.05364799 0.09779402
-0.045547277 -0.079620406 0.020083504 -0.090562455 0.02275197 -0.026224168 0.11843969 -0.027299631
0.06394754 0.110224865 -0.0005790263 0.03458235 -0.07994646 0.019988379 -0.038460333 0.13564047
0.13538587 0.121547945 0.0878252 0.05299258 0.22546819 0.030960826 -0.03788615 -0.14473344
0.021834834 -0.0032995108 -0.09290933 -0.14755556 0.07368828 -0.06195445 0.14732373 0.105613604
-0.07256132 -0.1714383 -0.018774435 -0.026741793 -0.18088591 0.13254644 -0.10605296 0.033380393
0.056815743 -0.117760606 -0.0066368855 0.08600148 -0.1449853 -0.071371764 -0.08397006 -0.08090663
0.16624598 -0.13020927 -0.14322941 -0.12860636 -0.0048349635 -0.1716284 0.1143399 0.16859041
0.14415516 0.18418168 -0.05880345 -0.15674739 0.011432233 0.008618348 -0.045290556 -0.1145059
0.085427776 -0.05976995 0.017997291 0.0007879884 -0.11440545 0.13957322 -0.14488752 -0.14005156
0.12047344 -0.058404166 0.099540845 0.07417819 -0.083884954 -0.08258568 0.045679327 -0.08053324
0.09802529 -0.075293906 -0.09284511 -0.10476987 -0.16923341 -0.09928742 -0.079411544 -0.02850897
0.09025933 0.041100185 -0.015918724 0.044435725 0.07447341 0.05995436 0.067047276 -0.086751506
-0.25547808 0.024560213 0.122871526 -0.05391948 0.112642765 0.00050168263 -0.031724405 0.10112756
0.07006787 0.12107909 -0.06165003 0.14951548 -0.035112567 0.005708852 0.13507563 -0.066776216
0.14079678 -0.059159465 -0.1105942 -0.108479366 0.057070624 -0.037789106 0.17939873 0.09443177
0.042406898 -0.033239026 -0.03955901 0.14479098 0.109160565 0.12309294 0.08527835 -0.07417788
-0.058067665 0.04080349 0.035340566 -0.01290912 0.055427607 -0.07035677 -0.0001001936 0.16320215
0.019515846 0.07478728 -0.051376346 0.08821232 -0.030137774 0.16006611 -0.18300305 -0.038165066
0.04731928 0.15147951 0.17596251 0.12856357 0.15370397 0.030681076 -0.03589822 0.04551275

lstm.weight_hh_l0 f4 [256, 64]
00000000: 03b0 34bd d179 0b3e c759 a2bd d117 5dbd
00000010: e51b 57bd f4da a63d 9ba8 a93d 97c7 193e
00000020: 48ea 7a3d 1b7f 873d 0112 24be ab6b 05bd
00000030: 49ba 7cbd 1fd2 323e 4537 5cbd a3b2 ec3c
00000040: f210 2c3d f65b 32be 2958 cbbd fe96 20bc
00000050: 29b4 6ebd 2108 d5bb ee9d a8bd c99b d73d
00000060: f8e8 de3c 4f1f a63d c0c1 aebd a07d a9bd
00000070: fa55 97bc 8c21 3dbe 410c 0d3e f10e 8e3d
00000080: b700 f03d ab52 f83d 5afa 9d3d 51d9 40be
00000090: 7562 42be f023 dbbd 8d7d 25be 98ee e9bd
000000a0: db16 d73d d4a6 f1bb 3b25 4bbb e54c 04be
000000b0: 28ed a4bd 654c 80bd ac87 c1bd f3a6 1fba
000000c0: c46e b23d da24 ab3d 6cfd 233e e4d7 fa3d
000000d0: 0767 13bb 7df0 32be 4989 783d c9b8 a5bd
000000e0: 3b2e 2d3d 1e0e 17be 03d6 f7bd 87cf c23c
000000f0: 417e 10be 6a0c a3bc 1233 a93b 88f3 ec3d
00000100: c040 603d 57c4 ae3d 8adc 973d dae5 acbc
00000110: a462 26bd 7c90 8b3d 9464 a43c 1b5c 053e
00000120: 1521 ddbd 0400 ffbd ec20 773d f824 0dbe
00000130: 654b d93c 63e5 a2bd 7fb9 053c a989 113e
00000140: ac6a 633a 7c83 e0bd 5b29 0e3c 928a 143d
00000150: 280f 77bd 00e7 e6bd 852f efbd 07f3 71bc
00000160: c194 083e 4e66 6bbd 2cae 17be efe9 85bd
00000170: 6030 223d e766 1abe c218 a3bd 38c7 353d
00000180: 5d4c d0bd fad6 883d 51da cb3c 2802 803d
00000190: 2e31 a3bd 7647 1ebe 199e e7bd eb23 49bd
000001a0: d798 7abd 70bf f83d 9e24 dfbd b522 d1bd
000001b0: b1f1 1d3d bfdb 3d3b 59b7 6c3d 979b c4bc
000001c0: 8998 bd3d 8c29 033e d36f 083d 2f5a e4bc
000001d0: 042a 81bd 6c31 5fbd 74fd acbd 2619 9f3d
000001e0: 5f02 ba3d a9ee a6bd 9746 003e f476 ff3b
000001f0: d7d4 c83b 0744 513d 773a 4d3d 708a 053d
00000200: 9d5b 633a 79d3 0b3e 282e 663d 3f97 093d
00000210: f2f5 29bd ea3f 7c3d 4ab6 df3d cf99 2abd
00000220: 36fd bf3c 9579 c1bd 0beb 2bbe baa3 cd3d
00000230: 4b97 be3c c38f 04be d9c9 3bbe ce85 fa3d
00000240: ab39 89bd 5c25 4e3c 43c4 50bc a57e 2a3d
00000250: d567 0b3d 6c42 d53d d50c e03c 8259 373e
00000260: 3502 5ebd 99a1 333e 6c59 533d 32d8 203e
00000270: 9cb4 e8bd 3f5a 0ebc 0ce6 57bd 9702 ef3d
00000280: 2ff0 f23c 0664 0a3e d010 083e 8819 c6bd
00000290: 9c6a 50bc adfd aebb f353 17be a302 e4bc
000002a0: cdd7 14be 0ce6 1ebe b805 07bd 5445 0ebd
000002b0: ad87 bf3c b18a 72bd e7b1 1e3d 5170 d0bd
000002c0: 8054 f23d 391a 453e cf57 5abd ca06 3c3d
000002d0: b26b e3bd 2afc 14be 8845 d3bd f654 acbd
000002e0: ed0d d83c cb59 343d 491e 1d3e ea01 703e
000002f0: 3ea1 0cbe 6ff6 e0bd ef97 ee3d 0280 6fbc
00000300: da35 673c d0c6 ef3c 225c 09be b532 1bbe
00000310: 6854 3f3d db5f ad3d e545 bab9 9b84 48bd
00000320: e844 cd3d 9205 00bd be00 ccbd 473f b63d
00000330: fa2d 85bd 068d a5bd 7a47 3ebd 295b 753c
00000340: 7de4 b3bd ea0c aebd e142 363d 0cd2 313d
00000350: 2592 2c3d abd0 143d de5e 823d 6afd 2cbd
00000360: 447b c63d 725a d43d 9476 fa3c 1072 8cbc
00000370: b3a5 e6bc 7acd a9bd 6abe 79bc 2a5e 6d3c
00000380: 5640 63ba 8861 bb3d 8303 343e 5e58 73bd
00000390: 170a ac3d 24a7 fc3c 4654 0fbe ecfa a03d
000003a0: a327 05be c701 a7bd 7d96 a7bd 5524 d93c
000003b0: 3709 f1bd 3a22 b5bd 7c5b b3bd 25f7 b9bd
000003c0: 4a36 b33c 017c f53d cbbe bbbd 17e3 383d
000003d0: 748d 853d e1af 1d3d cfd5 df3c 7f52 02be
000003e0: 94ac db3d b457 87bd 042e b73d 6199 d8bc
000003f0: c9d1 45bd 898c 213d d77f 83bb 458a 65bc
-0.04411317 0.13620688 -0.0792728 -0.05397779 -0.052516837 0.08147231 0.08284112 0.15017544
0.061258584 0.0661604 -0.16022493 -0.032573383 -0.061701093 0.17462967 -0.053763647 0.028893774
0.042008348 -0.17417893 -0.099289246 -0.009801624 -0.058277283 -0.006501213 -0.08233248 0.105277605
0.027210698 0.081114404 -0.08533049 -0.08275914 -0.018473614 -0.18469828 0.13774206 0.069364436
0.11718886 0.12125143 0.077137664 -0.188329 -0.18982871 -0.10700214 -0.16161175 -0.11422461
0.10502406 -0.007374624 -0.0030997533 -0.12919958 -0.080530465 -0.06264571 -0.094497055 -0.0006090246
0.08712533 0.08356638 0.16014642 0.12248209 -0.002249183 -0.17474551 0.0606778 -0.080918856
0.042280417 -0.14751479 -0.12101366 0.023780597 -0.14110662 -0.01990338 0.0051635588 0.115698874
0.05474925 0.085335426 0.07415111 -0.021105696 -0.040621415 0.068146676 0.02006749 0.13023417
-0.107973255 -0.12451175 0.06033413 -0.13783634 0.026525209 -0.07953908 0.0081619015 0.1421267
0.0008675258 -0.10962579 0.008676852 0.036264963 -0.06031719 -0.112745285 -0.116789855 -0.014767415
0.13337995 -0.057470612 -0.14812535 -0.0653876 0.039596915 -0.15078317 -0.079637066 0.044379443
-0.10170815 0.066816285 0.024884375 0.06250411 -0.07968365 -0.15456948 -0.113094516 -0.04910652
-0.061180916 0.12145889 -0.10895656 -0.10211698 0.038560573 0.002897009 0.05779204 -0.023999972
0.092576094 0.12808818 0.03330977 -0.027875034 -0.06306842 -0.05449049 -0.0844678 0.077684686
0.090824835 -0.081509896 0.12526928 0.0077961627 0.006128888 0.051090267 0.050104585 0.032602727
0.0008673014 0.13654889 0.05619636 0.033591505 -0.041494317 0.06158439 0.10923441 -0.04165059
0.02343617 -0.09447018 -0.1678888 0.10040994 0.023265501 -0.12945466 -0.18338718 0.122325525
-0.067004524 0.012582149 -0.012742105 0.041624684 0.03403457 0.104130596 0.027349869 0.17905238
-0.054201324 0.17542113 0.05159895 0.15707472 -0.113625735 -0.0086885085 -0.052709624 0.11670416
0.029655544 0.13514718 0.13287663 -0.096728384 -0.01272073 -0.005340299 -0.14778118 -0.027833289
-0.14535446 -0.15517443 -0.03296444 -0.034734085 0.023380125 -0.059214298 0.03874388 -0.10177673
0.11832523 0.19248284 -0.053306397 0.045904912 -0.111045256 -0.14549318 -0.103159964 -0.084146425
0.026373828 0.044030946 0.15343584 0.2343823 -0.13733384 -0.109845035 0.11650073 -0.014617922
0.01411196 0.029269606 -0.13414052 -0.15156062 0.046711355 0.084655486 -0.0003552876 -0.048954587
0.100229084 -0.031255312 -0.09961079 0.08898788 -0.0650291 -0.08083539 -0.046454884 0.014975348
-0.08783815 -0.08498557 0.044497374 0.043413207 0.04213156 0.036331814 0.06365751 -0.042233862
0.0969148 0.103688136 0.03057412 -0.017144233 -0.028155183 -0.08291145 -0.015243152 0.0144877825
-0.00086689496 0.09149462 0.17579465 -0.059410445 0.08400362 0.030841418 -0.13996992 0.078603595
-0.13003401 -0.08154636 -0.08183 0.026506582 -0.11769336 -0.08844419 -0.08757684 -0.09080342
0.021876473 0.119865425 -0.0916725 0.045138445 0.06521121 0.03849781 0.027323632 -0.12726782
0.10726276 -0.06608525 0.08944324 -0.026440324 -0.04829577 0.039440665 -0.0040130424 -0.014010017

lstm.bias_ih_l0 f4 [256]
00000000: 760e a93c 9a52 a1bc f1b6 353e af74 4f3d
00000010: 7388 92bd 19cc c23c 4a8d 0a3e 7d0d f83d
00000020: 8294 f23d 5b46 3fbd b0bc 793c d8ec 533e
00000030: 66c8 2d3b 4fb4 9cbd fada 133e 5be6 f23d
00000040: 5a29 893c e55a 98bb 2a79 da3d 152b a6bd
00000050: 6022 953d 80dd 023e fd3c fc3d 0105 9abd
00000060: a81b 153e 4328 093e 8366 cd3d 4f98 503d
00000070: d507 b5bd 5fac ac3d 4b9a b4bd f656 aebd
00000080: 0450 f6bc f036 163e 5ce8 e0bd b03d 1abd
00000090: cb21 64bd a583 6ebd 2124 57bd ce2d fe3c
000000a0: 073d 7fbd f97c 043e a3e5 c83d 8248 89bd
000000b0: 1961 703d a3ed cf3d c0d1 3bbd 0719 94bd
000000c0: e8ac a83d 4a6d e13d f511 2e3d dee7 ebbc
000000d0: 3b1a fabc 1ad7 6a3d 01ba 213d 5a0b 53bd
000000e0: ee3c b23d 2191 b0bd c294 9e3d 923f f23d
000000f0: fc73 b63d d9c6 b03d baca debc eb23 0ebe
00000100: ed26 3bbd 588d ca3d 0de7 d23d d541 30bd
00000110: f927 87bd 997b 3e3e 4652 82bd 135c 9e3d
00000120: a48d 893e a63c a43c ab5c cc3d 1403 923e
00000130: a154 b9bd f4c5 393e 71b1 93bd 460e c53d
00000140: b68a 1e3d 1540 863d 9f3a c73d 9820 5bbc
00000150: 1bc7 9ebc a9ad 13bd 2da2 cb3d ad93 e93d
00000160: 9c97 b83d ae65 ca3d 3ce0 db3c 6d75 86bd
00000170: 1ba9 6abd 489c 9fbc 9e58 99bc 74de a6bc
00000180: 995f 0f3d 03eb a9bd 2511 c6bd 2a4e 073e
00000190: c0f3 69bd 38c4 1c3d d98d 043e d504 b6bb
000001a0: 7c0f d43d 5765 ec3d f9b5 843d 6a49 b53d
000001b0: 8f7a 13bd d17e 0dbd 2e70 0d3e f9a9 99bd
000001c0: 101d 3a3e 33ff e93d 05f1 f23d c570 043e
000001d0: 674a 9ebd 3f81 783d 1320 01bc 5c58 d43d
000001e0: c105 4f3c e7fc 043e f6cf cb3d 603a 393e
000001f0: 882b 2d3e b04e 35bd 2feb ad3b b36a 353c
00000200: 86dd 503d d822 4f3d 6003 cf3c 1efb b4bc
00000210: cc7f 253b d237 a23d a228 f7bd 14d2 aa3d
00000220: 68fe c83c 168f ecbd a097 fbbc 07dc cbbd
00000230: 8430 9d3d ebb0 d6bd 8995 e5bc 1ef8 b63d
00000240: 2296 683d ca0f f0bd 0d26 0d3b caf7 033e
00000250: 14bd 703d e4f2 eb3b 16f3 d9bd c97b 903d
00000260: a957 ec3d 6717 023e a6d2 e63d ea7f ee3d
00000270: 4cb1 8f3c 3abd 9ebd ba31 9e3d 70c7 23bd
00000280: 0e07 25bc 654d b23d 1d87 0a3d d4eb 8dbd
00000290: a31f aabd 92bd 86bd db3e 5d3c 29b2 e4bd
000002a0: 0c32 b6bd 3052 f439 31cc e0bd a690 053d
000002b0: 2a2d e2bc acf0 c63c 988d 3c3d 4129 edbd
000002c0: f780 69bc c996 933d 8a09 ee3d ffc9 c23d
000002d0: 993a d73d e2ad 9f3c e8c9 8dbc 1103 b2bd
000002e0: da4f 133c 70de 5cbb e791 833d 957d 9abc
000002f0: c636 61bd 9462 57bc 07d3 d73d d38d 983d
00000300: 6fef 243e cd10 f9bc 790d 313d 2a56 063e
00000310: ac95 4c3d 9f81 a43b 7ed1 133e e0b6 0b3e
00000320: 366d 813d 9d8b d73c aa9a ef3d bd08 663e
00000330: 5b6f c83d 5bac 253e c806 92bd 7050 623d
00000340: e636 c63d aa9a 1e3e 0c87 793d db46 013e
00000350: caf7 29bd c026 1b3c 9865 12bd c228 37bd
00000360: 5bea a93d fc4e a1bb d9ab 233a 7f50 c23c
00000370: fbd7 12bc eb3a d83c 962b a63d 9260 e93d
00000380: 2818 40bd ef44 5fbb 855f 853d d598 263e
00000390: c611 fabc 7fff 093e 3f7d 833b a946 373b
000003a0: cdcd 0f3d 6112 d63d e17f a2b9 6874 f13d
000003b0: 12f3 ad3d 0aa6 1cbd c547 cd3d 6679 283c
000003c0: a1fc 0f3d 2099 403c 330d f33d 4a5f e4bc
000003d0: 4089 fe3d 871b 583d 2ba1 1c3e 5756 353d
000003e0: 6fb6 953b abab a13b f0d8 d73d f07c 353e
000003f0: 4f3a 283e a450 183c f856 c93d 96a8 06be
0.020636778 -0.019692708 0.17745568 0.050648388 -0.07154932 0.023778962 0.1353046 0.12111948
0.11844732 -0.046697956 0.0152427405 0.20695817 0.0026517152 -0.07651579 0.14439002 0.11860343
0.01674335 -0.0046495073 0.106676415 -0.08113686 0.07281947 0.12779808 0.1231632 -0.07520486
0.14561331 0.13394265 0.10029318 0.050926503 -0.088393845 0.08431315 -0.088184915 -0.0851268
-0.030067451 0.14669394 -0.10981819 -0.037656486 -0.05569629 -0.058231015 -0.05252469 0.0310277
-0.06231406 0.12938298 0.09809425 -0.06703283 0.05868635 0.101527475 -0.04585433 -0.07231336
0.08236104 0.11007173 0.042497594 -0.028797086 -0.030530086 0.057334043 0.039484028 -0.051524498
0.08703028 -0.08621431 0.07743217 0.11828531 0.08908841 0.08631677 -0.027196277 -0.13880889
-0.04569142 0.098902404 0.10297976 -0.043031532 -0.06599421 0.18601836 -0.06363349 0.077324055
0.26865876 0.02004845 0.099786125 0.28517973 -0.09049345 0.1814192 -0.07211579 0.09621863
0.038706504 0.065551914 0.09727978 -0.01337447 -0.01938205 -0.036054287 0.09943042 0.1140512
0.09013292 0.09882675 0.026840322 -0.06565366 -0.057290178 -0.0194837 -0.018719014 -0.020369746
0.03500328 -0.08296778 -0.09671239 0.13213411 -0.057117224 0.038273066 0.12944736 -0.0055547752
0.10354516 0.115427665 0.06480021 0.08851893 -0.036005553 -0.03454477 0.13812324 -0.07503123
0.18175149 0.114256285 0.11862377 0.12933643 -0.07729035 0.060670134 -0.007881182 0.10368416
0.012635649 0.129871 0.09951775 0.18088675 0.16911137 -0.044264495 0.005307577 0.011072802
0.05099251 0.05057034 0.025270164 -0.022092398 0.0025253175 0.07920803 -0.12068297 0.083408505
0.024535373 -0.11550729 -0.030711949 -0.09954076 0.07675269 -0.10482963 -0.028025405 0.08934043
0.056783803 -0.117217615 0.0021537573 0.12887493 0.05877407 0.0072005857 -0.10642068 0.0705486
0.11540157 0.1270424 0.11270647 0.116454914 0.017540596 -0.07750936 0.07724328 -0.03998512
-0.010072483 0.08706168 0.03382026 -0.06929746 -0.083068155 -0.065791264 0.013503755 -0.11166794
-0.088962644 0.0004660054 -0.109764464 0.03260865 -0.027609427 0.024284683 0.04603347 -0.11580134
-0.014251939 0.07206494 0.11622913 0.09511184 0.105092235 0.019492093 -0.01730819 -0.08691991
0.008991206 -0.003370192 0.06424313 -0.01885871 -0.054983877 -0.013146061 0.10538297 0.07448926
0.16106962 -0.030403519 0.04322574 0.13118806 0.049947426 0.005020335 0.14435384 0.1364398
0.063196585 0.02631169 0.11699422 0.22464271 0.09786864 0.1617903 -0.071302 0.055252492
0.0967844 0.15488687 0.060919806 0.12624685 -0.041496076 0.009469688 -0.03574142 -0.044716604
0.08296653 -0.0049227457 0.0006243564 0.023720024 -0.008962627 0.026395282 0.08113782 0.113953725
-0.046898037 -0.0034068187 0.065123595 0.16269238 -0.030526053 0.1347637 0.004012733 0.00279657
0.035108376 0.10452724 -0.00030994325 0.11789781 0.084936276 -0.038244285 0.100234546 0.01028285
0.035153035 0.011755258 0.11867752 -0.027877469 0.12428522 0.052760627 0.15295856 0.044271793
0.004568867 0.0049337945 0.105394244 0.17723441 0.16428493 0.00929657 0.09831041 -0.13150248

lstm.bias_hh_l0 f4 [256]
00000000: 088e 003c 6307 c43d bbd1 eb3d cdb8 3f3d
00000010: efd9 30bd 8ee3 2c3d e3c8 bfbc 221d 393c
00000020: 1782 ac3d 3dc8 10bb ec8c a8bc 67e2 fa3d
00000030: 579d fcbb d5bc ba39 1065 6a3d 11a5 adbc
00000040: 217b 843d 0e35 a63c 64c2 bfbd 2ce8 643d
00000050: 7119 8ebd f8a1 093e 9bbd f3bc 603b d23d
00000060: 263b 30bc c30c f5bc 8909 efbd 9a3d d5bd
00000070: fb3c f23d 067b 283c c133 b7bd aa95 95bd
00000080: e779 e9bc e29b 8c3c e135 163d 6d7a 313d
00000090: 0d34 72bb ae76 76bd c166 81bd a17b 4a3d
000000a0: 34e4 1a3c ee70 3f3d cff8 e0bd 44db 0cba
000000b0: 8cac 4ebd 5c38 803d 1a0f 093e 151e 64bd
000000c0: 2fbc 573d 380f a23b 3085 aa3d 12d2 4b3d
000000d0: 2265 5ab9 f707 7cbd 5903 6abd 8578 fa3d
000000e0: ae10 b13c f3d3 d13d d8bb 473d 5c56 3a3e
000000f0: eecd 13bd 25d9 b13d eb9f adbd bdba 913d
00000100: af4b dc3d 706b 76bd 3cd5 3c3e d7b9 063d
00000110: 0716 0f3e f214 453d 8523 1a3d 8658 db3d
00000120: ab20 883e 5327 8dbc 5d85 853d 0ba3 363e
00000130: 5569 8dbd 7452 113e 6747 8dbd 9bcd c5bc
00000140: 9dc8 4cbd 2b83 2b3e 8599 d53d 6b6d 693b
00000150: 1fd4 41bd ac73 d33d 6d91 ea3d 5834 9e3d
00000160: 0260 9cbd cb7c f33c a0f4 3d3c 048b b93d
00000170: d7ef 0d3e c548 a13d af0e 023c 0cee 873d
00000180: d698 963c c384 b6bc 1360 f93d 0151 ed3d
00000190: b920 bc3d 3469 7c3d b11b ebbc a7f7 a2bd
000001a0: de47 1a3e 455e 2dbc 15b0 f93c 9629 353e
000001b0: 7cb7 d9bd b391 8e3d d17d f83d e72d d43d
000001c0: 6bb3 f2bc 214d adbd 163d 093d ee00 c8bc
000001d0: c127 d2bd 996e 22bc 62d4 0a3c 33af 433c
000001e0: 568c eb3d d161 54bd 8250 073e 4f5f 033e
000001f0: 43e6 9f3d e6e0 eebd 8715 eebd e5a4 e539
00000200: a02e e5bd 08c0 423d c1ac b1bd d2f8 2e3d
00000210: 5d20 9f3d 7755 083d 656e 4f3d eeb1 b2bd
00000220: b691 9dbd 826a e63d adb9 0fba 83cf ad3d
00000230: 5012 e1bd c52b 683d ec6f 0dbd 766b 513d
00000240: d507 79bd ef2b a93c 5668 acbd fed7 3e3d
00000250: bdc8 e9bd 2d16 fd3c 0a4e e53d 9591 603d
00000260: 7fcd 34bd 5dde eebc 3d58 c1bd c7be a13d
00000270: a635 77bc 8af0 dc3c dacb d8bd 76ca 7f3d
00000280: 6143 a33c 4c4c edbc cadd 6f3d 9f87 963d
00000290: 0287 8cbd e15c 1bbc 916e ddbd 6a27 ba3c
000002a0: 52e6 c3bd 96f2 a73c 5102 783d f382 813d
000002b0: 5523 4cbc 0d5b 7a3d 8728 5a3d d5b0 c43d
000002c0: 312e 173e aee3 0b3e a1a6 61bd 7a45 ed3a
000002d0: abfb e7bd 8afc 2c3d 05aa a93d 37ed 4a3d
000002e0: 7532 193d 13a2 f1bd b820 ffbc 7cbe 3e3d
000002f0: eb5c f43d 8794 56bd 3053 c6bc f19b 363d
00000300: 1291 6a3c 1ff7 863d a9f8 923d 8527 92bd
00000310: 785c b13d 8137 583d b3d7 fb3d 179e b63d
00000320: 1420 b93d 050f 5e3d 68c4 60bd 026a 823e
00000330: 511d ed3d ea9d 293d a45e adbd 3929 16bd
00000340: d68b 3a3d f8b8 173e b24b 673c 7a40 ec3d
00000350: 2fde 593c 3452 d03c 7a78 c13d f71f 3ebd
00000360: 094b 543c 6cf4 153e 9348 443d 65f9 54bd
00000370: 3993 033e 8bb7 a13d 235a 95bd 8728 b43d
00000380: e665 c6bd bccf 503d 264a 3dbd bc53 dcbc
00000390: 8d53 31bd 8889 343d 939c 1e3e 6ccb f23d
000003a0: 3d3d 913c 9902 95bd edf2 fcbb 052d f83d
000003b0: de43 553b d7b1 133e 6de3 ecbc 35a4 c0bd
000003c0: 1d6c a83d d9e4 293c 1fcf d63d a665 873c
000003d0: 0b62 563d fe8e ce3d be87 0e3e 1f0f c33a
000003e0: 3d56 18bc 3d9b 9abd 172d 573e 7531 243e
000003f0: 7c06 2c3e 42da 7e3d 023c 823d ec46 ae3d
0.007846363 0.095717214 0.11514612 0.0468071 -0.043176588 0.0422092 -0.02341122 0.01129845
0.0842325 -0.0022092008 -0.02057501 0.12250214 -0.007709186 0.00035617375 0.057225287 -0.021196874
0.064687975 0.02028897 -0.09363249 0.05588548 -0.06938446 0.13440692 -0.029753497 0.10265231
-0.01075629 -0.029913312 -0.116717406 -0.1041214 0.11828037 0.010283237 -0.08945418 -0.07303937
-0.02850051 0.017164174 0.036672477 0.043329645 -0.0036957294 -0.060171776 -0.06318427 0.049434308
0.009453822 0.046738558 -0.109849565 -0.00053732493 -0.050457522 0.0626075 0.13384667 -0.05569275
0.0526697 0.004945662 0.08326185 0.049760886 -0.00020827775 -0.061531033 -0.0571321 0.122300185
0.021614399 0.10245504 0.048763126 0.18197006 -0.03608506 0.08683995 -0.084777676 0.071156956
0.10756623 -0.060161054 0.18440717 0.032892074 0.13973247 0.048115678 0.03763153 0.10710244
0.26587424 -0.017230665 0.06519578 0.17835633 -0.06904856 0.1419161 -0.068983845 -0.024145892
-0.049996007 0.16749255 0.10429672 0.0035618197 -0.047321435 0.10324797 0.11453519 0.077248275
-0.076354995 0.029722592 0.011593968 0.09059718 0.13861023 0.07875208 0.007938071 0.06637201
0.018383425 -0.022280103 0.12176528 0.11587716 0.09185929 0.061623767 -0.028699728 -0.07957392
0.15066478 -0.010581558 0.03047947 0.17691645 -0.106307 0.06961384 0.121333726 0.10360318
-0.029626569 -0.08461977 0.03350552 -0.024414506 -0.10261489 -0.009914064 0.008473488 0.011943626
0.11501376 -0.051851097 0.13214305 0.12829326 0.07807591 -0.1166399 -0.116252 0.0004380114
-0.11190534 0.047546417 -0.08675528 0.042717762 0.07769845 0.03328463 0.05064239 -0.08725344
-0.07693808 0.112507835 -0.0005482685 0.08486845 -0.10989821 0.056682367 -0.034530565 0.051127873
-0.060798485 0.020650832 -0.08418338 0.046592705 -0.11415241 0.030894363 0.111965254 0.054826338
-0.04414129 -0.029158765 -0.09440658 0.07897716 -0.015088474 0.026970167 -0.105857566 0.06244894
0.01992959 -0.028967045 0.058561124 0.073500864 -0.06861688 -0.009482593 -0.108121045 0.022723872
-0.095654145 0.020501416 0.060549084 0.06323805 -0.012459596 0.06112199 0.053261306 0.096040405
0.14763714 0.13661072 -0.05509055 0.0018102371 -0.11327299 0.042233028 0.08284382 0.049542632
0.037401635 -0.11798491 -0.031143531 0.04656838 0.11931785 -0.05238774 -0.024209589 0.04458231
0.014316814 0.06590103 0.071763344 -0.07136444 0.08660215 0.052787308 0.12297001 0.08916872
0.090393215 0.054213542 -0.054874808 0.25471503 0.11577857 0.041410364 -0.08465317 -0.036660407
0.045543514 0.14816654 0.014117168 0.115357354 0.013297602 0.025429823 0.09446807 -0.046417203
0.012957343 0.14644021 0.047920775 -0.051995654 0.1284913 0.07896336 -0.07292583 0.087967925
-0.09687404 0.05097936 -0.04621329 -0.026895396 -0.04329257 0.044076473 0.15489416 0.11855206
0.017729396 -0.07275886 -0.0077193887 0.12117962 0.0032541673 0.1442331 -0.028917039 -0.0940632
0.08223746 0.010369503 0.10488724 0.016527962 0.052339595 0.10085867 0.13918969 0.0014881826
-0.009297905 -0.075491406 0.21013294 0.16034491 0.16799349 0.062219866 0.06359102 0.08509621

classifier.0.weight f4 [32, 64]
00000000: 2922 f1bd 3ecb b93d 2dff cbbd f9e6 41be
00000010: 725d 623e 0fa1 1fbd d08c 0e3d f130 713e
00000020: 37b4 a23d f2b4 f0bd 6831 27be 2947 8dbd
00000030: 0eb1 dbbd ba44 1c3e f1d0 8cbe 3374 273d
00000040: 2bb4 b33d 970a 40be e1a7 57bd 7803 233e
00000050: 7066 46be f85f 4ebd 5526 52be c463 173d
00000060: 717d 273e 0fae 273e 7a0e 6abe f9ad 593d
00000070: ce61 b33c 8964 65be 4852 f33d a343 063d
00000080: 22e4 1d3e 79d7 333e a24c ccbd 013f 97bd
00000090: b973 57be f452 86be 65ae 0ebe dc34 f7bd
000000a0: 66dd c9bd c8ab 00be c838 0dbe fae5 133d
000000b0: af1e c6bd b773 5a3d 51b3 58bd 3c86 d5bd
000000c0: 28cb 503e 978c 643e a433 6c3e c9c8 433e
000000d0: 7998 d9bd b2f7 08be 567c 8f3d 4ec9 bdbd
000000e0: 19c1 543e 8c97 15be 6081 d73d bddf 933d
000000f0: 139c e6bd 5e0c d8bd fd9b a1bc 243e 923c
00000100: 9e03 fbbd 3a6a 1d3e 92a8 83be 89e0 1cbe
00000110: 7b87 2f3e ace8 df3d 039e 363c 83d7 b73d
00000120: 51c3 6f3d a22f bdbc 2a8d 3a3c 7c9d c7bd
00000130: b17c 74bd 3a74 f03d 5231 c0bd 2807 0b3e
00000140: c7a4 c13d 33c6 31be 9031 f4ba 6519 033c
00000150: b7bf 36bd 29c4 03be d616 57be 2ec7 1a3e
00000160: 5469 1fbc 2387 ae3d 3934 a23a 74e5 c83c
00000170: e1a8 23be 2400 20be aa2c 303e a2e5 71bc
00000180: ec58 1c3e 9916 d33d 98ae dcbd 2033 67be
00000190: 2d5d 39be 2cd6 22be 3512 13be 62a1 04be
000001a0: 25bf f2bd 4e33 05be 8473 263c 15b7 673d
000001b0: 739c 68be 8218 e53d cfa8 c8ba 5848 fdbd
000001c0: cdea 6c3d af5c 1d3e b034 2f3e 7546 a63d
000001d0: ae7c 19be b908 42bd d267 a53d ef30 8f3c
000001e0: 3ddd a43b 8d66 c1bd 6a2d 043e a07f 2e3d
000001f0: 2532 2ebe 75d5 3ebe a909 ebbd 8951 0fbe
00000200: 6957 9b3d 45b0 43be eb11 b83d c3bf 973d
00000210: 0059 2c3d 8b58 1d3e ad4e c6bd 6693 91be
00000220: 48e5 b83d 448a 723e 1cf7 bc3c 5f7d 243e
00000230: 3185 133e ba48 89be 34b1 9d3d 2fcb d43c
00000240: 73f0 7bbe e0ad 333e edf6 193d 8bea 44be
00000250: 788b 653e ccd6 123e 0ef1 783e 72b4 bc3c
00000260: d625 3abd a37f 1e3d 5ae5 7f3e eda0 533e
00000270: 7d58 fabd 755a 233e ae44 73bd 7779 2ebe
00000280: f6a9 563c 33eb 23be 0cb2 563d 27d1 943e
00000290: deb6 2d3e 0ee6 003e bc53 873e 1eea 0e3e
000002a0: 5ae8 073d 980c 25be 9fb5 843d fff3 ec3d
000002b0: fb4f 283e 720f 39be d0d4 7e3e e561 753d
000002c0: 4cdc 8ebe be49 3cbe 0564 35be 13b9 9d3d
000002d0: fb14 19bd cca7 6f3e 092e a5be 9529 813e
000002e0: a504 aabd 63fd 913c 13f4 ee3b 8279 143e
000002f0: a175 323d 28ac 023e 37f6 463d 9bed ca3d
00000300: e6da ad3d 7248 88bd 5158 773e dbe9 0abd
00000310: a8fc e5bc a946 2dbd 21ee e6bc 2272 ccbd
00000320: 7536 da3d 6ae2 273e d4c6 68bc f5ae a8bd
00000330: d909 313e da82 e6bc 445b 84bc 01f5 b53c
00000340: bd7c ce3c 93c1 043e 38b4 2c3d 6a54 3dbe
00000350: 65ed 453e 008a 223e c375 873b 8978 23bd
00000360: be62 ffbd 542d c43d c066 ff3d 3b4f 183e
00000370: 26ea 8f3c d19b e43b 1acd 2ebe 6b74 93bc
00000380: 1516 36bc dffe 4bbe 2dd8 943d a7ff 213e
00000390: f359 493e a303 f73c 00b0 8f3c 6189 733e
000003a0: 419d 493d c348 ad3c 7379 17bd fbe5 8cbd
000003b0: 7bab 1c3d a5c2 43bd 634f 303e 13e2 183e
000003c0: 7cb4 35be 5065 0bbb d044 37be 2ba6 0dbd
000003d0: 384a 02bc c00d f73c 87e0 48be e78e d23c
000003e0: 2b5e debd 3806 ff3d 2e2c ac3d 0a1e 7e3d
000003f0: bb86 343e 31b1 ea3d fed3 be3c 9145 bc3d
-0.11774094 0.090719685 -0.0996078 -0.18935765 0.22105959 -0.038971957 0.034802258 0.23553826
0.079445295 -0.117532626 -0.1632744 -0.06898338 -0.1072713 0.15260592 -0.2750316 0.0408823
0.08774599 -0.1875404 -0.052650336 0.15919292 -0.19375014 -0.05038449 -0.20522435 0.03696038
0.16356446 0.16374992 -0.22857085 0.05314443 0.021897223 -0.22401632 0.11880928 0.032779347
0.15419057 0.17562665 -0.09975554 -0.07385064 -0.21040238 -0.26235163 -0.13933714 -0.12070629
-0.098566815 -0.1256553 -0.13791192 0.036107995 -0.09673821 0.05333301 -0.052905384 -0.10425994
0.20389998 0.22319256 0.23066574 0.19119562 -0.10624785 -0.13375738 0.07006137 -0.092669114
0.20776786 -0.14608592 0.10522723 0.07220409 -0.112602375 -0.10549234 -0.019727701 0.017851897
-0.12256549 0.15372553 -0.25714546 -0.15320028 0.17141525 0.109330505 0.011146071 0.089766525
0.058535878 -0.023094002 0.011386195 -0.09746835 -0.059689227 0.117409185 -0.09384407 0.13576949
0.09455257 -0.17360763 -0.0018630493 0.00800166 -0.044616427 -0.12867798 -0.21004805 0.15115044
-0.009729702 0.08521869 0.0012375183 0.024523474 -0.15982391 -0.15625054 0.17204538 -0.014764221
0.15268296 0.103070445 -0.107754886 -0.22578096 -0.1810195 -0.15902013 -0.14362414 -0.12952188
-0.11852864 -0.13007852 0.010159377 0.056571085 -0.2271593 0.11186315 -0.0015309098 -0.12367314
0.05784111 0.15367387 0.17109942 0.08118907 -0.14988968 -0.0473716 0.08076443 0.017479388
0.0050312565 -0.09443388 0.12907949 0.04260218 -0.17011316 -0.18636115 -0.11476452 -0.13995947
0.075850315 -0.1911021 0.089877926 0.074096225 0.042077065 0.15365808 -0.09682975 -0.2843277
0.09028107 0.23685557 0.02306705 0.1606345 0.14406277 -0.26813298 0.076998144 0.025975792
-0.24603443 0.17546797 0.037589002 -0.19230096 0.22416484 0.14339751 0.24310705 0.023035262
-0.04544624 0.038695943 0.24989834 0.20666857 -0.12223909 0.15952475 -0.05939167 -0.17038523
0.013102045 -0.1600769 0.052415892 0.2906582 0.1696429 0.12587759 0.26431072 0.13956496
0.033180572 -0.16118085 0.06479954 0.11569976 0.1643676 -0.18072298 0.24885869 0.059907813
-0.27902448 -0.18387505 -0.17713936 0.07701316 -0.037373524 0.23403853 -0.32261685 0.25227037
-0.08301667 0.01782102 0.0072922795 0.14499477 0.04356921 0.12760985 0.048574653 0.09908601
0.08489017 -0.06654443 0.24154784 -0.03391443 -0.028074577 -0.042303715 -0.02818972 -0.099827066
0.10654918 0.16394964 -0.014207561 -0.082364954 0.17288913 -0.028138567 -0.0161568 0.022211554
0.025205964 0.12964468 0.042164057 -0.18489233 0.1932884 0.15872955 0.0041339113 -0.039909873
-0.124700055 0.09578958 0.1247077 0.14873974 0.017567705 0.0069765826 -0.17070428 -0.017999848
-0.011113663 -0.19921444 0.07267795 0.1582018 0.19663219 0.030153101 0.017539978 0.23782875
0.049222235 0.02115286 -0.036981057 -0.06879803 0.038249474 -0.04779305 0.17217784 0.1492999
-0.1774463 -0.0021270104 -0.17897344 -0.0345823 -0.007952265 0.030157924 -0.196169 0.025702907
-0.10857805 0.12452358 0.08406864 0.062040366 0.1762952 0.11459578 0.023294445 0.09192956

classifier.0.bias f4 [32]
00000000: 36dc c9bb 8706 0c3d b1e2 c0bd 5632 9e3d
00000010: dc13 193c 6a30 95bd 31a6 723e 2813 ae3d
00000020: 5d34 e4bc 2ede ed3d 863e d4bd 1e89 763c
00000030: 08b1 0e3e 3f60 763c e007 fabc df4f 903e
00000040: 18d7 a63d 15eb b53d fada 12bd c4a5 b43d
00000050: fcda fbbb a80f 0dbe 9aaf 05be cbdb 49bc
00000060: 1f41 963d 5e95 ad3d d6df 893d 247e e8bc
00000070: f9df cabd 306f b8bd 1cf9 fe3c 7cc1 14be
-0.0061602844 0.034185912 -0.09418238 0.077244446 0.009343114 -0.07284625 0.2369621 0.084997475
-0.027857 0.11614643 -0.10363488 0.01504734 0.1393472 0.015037595 -0.030521333 0.28185937
0.081464946 0.08882729 -0.035853364 0.0882068 -0.007686017 -0.13775504 -0.13055268 -0.012320469
0.073366396 0.08475755 0.067321464 -0.028380461 -0.09906001 -0.09005582 0.031124644 -0.14526933

classifier.3.weight f4 [1, 32]
00000000: 446f f13d 1a58 573e 7fa1 6ebe 7711 66be
00000010: e5aa 8dbe 5508 8ebe 3d97 103e 58d3 713e
00000020: 1f8f 503e 94d5 173e 33cf 83be 42a2 0a3e
00000030: 9c75 1b3e a847 3bbe a0a9 083e 153c 3c3e
00000040: 8ecb 6c3e af19 5c3e 9629 5e3e d5b3 223e
00000050: defd 59be 3f8b a7be 3edc 94be 7a19 80be
00000060: 7080 423e 0ee9 34be dda6 743e 4e14 77be
00000070: 6182 a2be a1f0 8dbe b5d9 65be 6f7d 6bbe
0.117888 0.21029702 -0.23303793 -0.224676 -0.27669445 -0.27740732 0.14120193 0.23615777
0.20367096 0.14827567 -0.25744018 0.13538459 0.15181583 -0.18289053 0.13345957 0.18382294
0.23124525 0.21494173 0.21695551 0.15888913 -0.21288249 -0.32723424 -0.2907428 -0.25019437
0.18994308 -0.17667028 0.23891778 -0.2412884 -0.31740096 -0.27722648 -0.2244633 -0.22997068
