lstm/stage1_lstm_fp_best.pt (torch, 84430 bytes, 12 tensors)

lstm.weight_ih_l0 f4 [256, 1]
00000000: 2715 873d 4e45 87bc 5ceb a83d b321 833d
00000010: 64b1 f4bc 65f9 edbc fab8 b3bd 727b 223e
00000020: 1596 4b3d 7bd3 3cbd 11bb 043e b369 993d
00000030: 81ae 4a3e b101 963d 246f 9d3d 6d4b 1d3d
00000040: 333b da3d 9c8e b53d a6c7 eb3d 0feb f8bd
00000050: a945 69bd ad3c 14be 94dd a93a 9acf dc3d
00000060: 997c ff3d ff33 1a3e 33eb c13d 8015 ea3d
00000070: 2df8 fc3c 4e7c 51bd 1944 7abd 3be6 ac3d
00000080: 261b 0f3c c648 12be 0bc8 8cbd 47c3 043e
00000090: 0fac e73d e601 1cbb 2a43 823c b58a d33d
000000a0: 402b ad3d afbf 633c dfc6 5cbd 6e6a d0bc
000000b0: ef6b 3ebc 93d5 0ebd a792 dbbc e946 b43c
000000c0: b1ed b33d a190 413d de40 fd3d 11c5 333d
000000d0: 53ea 7bbd b8b0 0b3e fed8 fb3d c1fb b83c
000000e0: 6c49 b93d 37b0 0b3e 17eb 48bd 82b7 213d
000000f0: b01c b7bc 24a4 e03d b6f3 5cbd a713 b13d
00000100: 08ce c0bb 8d84 bdbc 4327 ac3c e0e1 413d
00000110: 597a 933d 04e9 d63d ae59 d43d 5c7b 94bc
00000120: 79d7 173e bbab 173c d8bd e73d eeeb b83d
00000130: ee96 6e3e a552 42bd ced5 af3c f3ad 51bd
00000140: 71ec 80bc ef9f 58bd 33e3 4e3e 75bd 79bd
00000150: e4e8 973d 5bdd 19be 7f0e 423e f2a9 133e
00000160: 1824 023e 2f86 203e e6f9 24bc 2b23 803d
00000170: 25f8 03be 425c 1c3d dfa6 4d3e aa60 1b3e
00000180: 3405 0c3e 18b0 a9bd e296 5bbe aade 323d
00000190: 306f 0b3e 9df9 223e f32a 4e3e 5ba7 5a3d
000001a0: 2537 893c 6189 69bd b91e 453d afaa 053e
000001b0: 5801 da3d 7ca1 663d 4fd7 243d e536 173e
000001c0: 8b01 5f3b 15fc c33d 7abc 393d 3ecb f23d
000001d0: 3eb8 633d a654 193e 08cc 013e f0d7 183d
000001e0: f3f2 6b3d 0762 523d a654 183e 5662 013d
000001f0: 1833 313e 0834 56bd 9333 193e c986 173e
00000200: 38d3 163e f25c d3bd 1634 c1bd 949f d03d
00000210: 8808 19be 687f 6d3d 85a4 4abc d113 fe3d
00000220: 9e99 0d3e 45c2 82bd d3a5 84bd f388 cebc
00000230: 8c13 10bd fc24 923d 01c7 2abc 69bd c2bd
00000240: 732f 633d 5198 253e 9601 1d3e 1d27 b73d
00000250: 41f4 14bc 398d f13d a387 5f3d f73e cebd
00000260: 6641 293c 2190 4ebd 359f eb3d 3604 2ebe
00000270: 5e05 893d 3b1d 0a3e c13c bb3d da03 14be
00000280: 2305 f3bd 6d70 21be 6fc3 05be 5953 0abe
00000290: fdfb 2bbd 4d0a b8bd 1ed5 a0bd 759b f13d
000002a0: 69ac 183d 009f fbbd ba05 f7bd 1157 ad3b
000002b0: e582 053e 0416 c0bd fb53 57ba 86dd 093e
000002c0: 66b8 bbbc 39e2 31ba db60 203d 436e 20be
000002d0: 8d2d a83d 7e9a 26be 6d23 e1bc 44bb 82bd
000002e0: e476 07be c165 12bd 0357 003e e796 1d3e
000002f0: 6c92 943d 2c03 d23d 8fc8 ed3d b22a 86ba
00000300: b4a0 8c3c 39ab 303e 4d64 a03d e44c 863c
00000310: 8683 bf3d ad48 023e a7fd 22bd c27e 083e
00000320: de41 ba3c 0604 e23d 9c39 e33d fea5 273d
00000330: 7e3b c83c 926b 8ebd 809d 30ba e3d5 5a3d
00000340: 4c9e 3f3e 1f22 eb3d a189 9f3d 5580 a3bd
00000350: fb86 513c 3c46 c3bd e46a 613d 2834 f83d
00000360: d9ea 3dbd a3e7 50bc 62c3 053d d971 2bbd
00000370: d90f eabd 907b a63d ca3b 0e3e d3e3 0b3e
00000380: 4413 fbbc 9da3 753b 6b0b 8abd 9034 963d
00000390: 55b5 82bc 9d61 e339 f384 153e c71e 463d
000003a0: c8ff 463d a32e 24bd eeb7 79bd 0ef2 163e
000003b0: 0f6c 813d cd20 353e 8094 c3bc e4c8 683b
000003c0: 3a53 e5bd 5b32 4a3e f001 c63d b434 dd3d
000003d0: 30aa 2c3e 5e40 843d 555d dd3d 9d0d b7bc
000003e0: 94af 973d 4cd2 3b3e 0bc8 eb3c 73fc 3dbd
000003f0: 055b 9fbb 7039 863d 6327 123e cc20 d73d
0.06595831 -0.01651254 0.08248016 0.06402912 -0.029869743 -0.029049585 -0.08775516 0.15867403
0.049703676 -0.04610012 0.12961985 0.07490864 0.1979313 0.07324541 0.07687214 0.03840201
0.106558226 0.08865091 0.11512689 -0.12154209 -0.0569512 -0.14476271 0.0012959712 0.10781784
0.12474937 0.15058897 0.09468689 0.11429882 0.030880058 -0.051143937 -0.0611001 0.084423505
0.0087345 -0.14285573 -0.06874093 0.12965117 0.113121144 -0.0023804842 0.015901167 0.10329191
0.08455515 0.013900681 -0.053900596 -0.025441375 -0.011622413 -0.03487165 -0.026803328 0.022006469
0.087855704 0.04725707 0.12365888 0.04388911 -0.061502766 0.13641632 0.12297247 0.022580983
0.09047207 0.1364144 -0.049052324 0.039481647 -0.022352546 0.10968807 -0.05394336 0.086463265
-0.005883936 -0.023134494 0.021014815 0.04733455 0.0720107 0.10493663 0.103686675 -0.018125229
0.1482829 0.009257252 0.11315507 0.09029375 0.23299763 -0.047442097 0.021464255 -0.05119128
-0.015737744 -0.0528869 0.20203857 -0.060971696 0.07417467 -0.15025847 0.18950842 0.14420298
0.12709081 0.15676187 -0.010069346 0.06256708 -0.12887628 0.03817392 0.20083188 0.15173593
0.1367386 -0.0828554 -0.21444276 0.04366938 0.13616633 0.15915532 0.20133571 0.05338226
0.016749928 -0.05701578 0.048125003 0.13053392 0.106447875 0.056306347 0.040244397 0.14767034
0.003402802 0.09569565 0.04534576 0.118551716 0.05559563 0.14973697 0.12675488 0.03731531
0.05760474 0.051363017 0.14876041 0.03158792 0.17304647 -0.052295715 0.1496108 0.1479751
0.14729011 -0.10320462 -0.09433763 0.10186687 -0.1494466 0.057982832 -0.012368326 0.124061234
0.13828132 -0.0638471 -0.06476941 -0.025211787 -0.03517489 0.071359605 -0.010423423 -0.09508783
0.055465173 0.16171385 0.15332636 0.08943007 -0.009091438 0.11794514 0.054572713 -0.10070603
0.010330534 -0.05043042 0.11504976 -0.16993794 0.06690477 0.13487713 0.09142447 -0.14454594
-0.11866214 -0.15765543 -0.13062833 -0.13508357 -0.04198836 -0.0898634 -0.07853149 0.11797229
0.0372738 -0.12286186 -0.12061639 0.00528992 0.13038214 -0.09379199 -0.0008214113 0.1346341
-0.022915076 -0.0006785724 0.03915487 -0.15667062 0.08211813 -0.16269872 -0.027482713 -0.06383374
-0.13228947 -0.03574157 0.12533192 0.15389596 0.0725449 0.10254511 0.11610519 -0.0010236113
0.017166473 0.17252816 0.07831631 0.016394086 0.09351258 0.12723036 -0.039792683 0.13329604
0.022736486 0.11035924 0.110949725 0.040929787 0.02444243 -0.06954111 -0.00067373365 0.053426635
0.18712729 0.114811175 0.077899225 -0.07983462 0.0127885295 -0.095348805 0.05503358 0.12119323
-0.046366546 -0.012750539 0.032657035 -0.04185662 -0.11428804 0.081290364 0.13889995 0.13661127
-0.030648835 0.0037481554 -0.06740459 0.07334244 -0.015955606 0.00043369542 0.14601497 0.048369195
0.048583776 -0.04008354 -0.060966425 0.14740774 0.06319439 0.17688294 -0.023874521 0.003552013
-0.11197515 0.19745772 0.09668338 0.10801068 0.16861796 0.064575896 0.10808817 -0.022345359
0.07406536 0.1834194 0.028781911 -0.046383332 -0.0048631453 0.06553924 0.14272837 0.105043024

lstm.weight_hh_l0 f4 [256, 64]
00000000: f1b5 4fbd f928 24bd 69cb 6bbd fee9 6f3d
00000010: b807 303d 0394 08be 4e3a 59bb 4080 fdbc
00000020: dd82 153e 2800 1abe b13e 56bd 475c cbbd
00000030: 52ad 7fbd 2e9d 87bd 0f3d 293d c7df afbd
00000040: 1b36 cc3c 0bc4 4abd b06a 063e c340 f9bd
00000050: 3ffe fdbd e070 e1bb 9e6c 0ebe af9b c7bd
00000060: de17 803d 1b3f 03be 33be 94bc 2810 0b3d
00000070: a9d7 d23d 53b0 123e 06ed 183e 08d9 673d
00000080: 1741 64bd 9336 633d de56 223c 0aa0 13bd
00000090: 70c9 84bb 9901 edbd 320b 063e 6b75 cebc
000000a0: 49f2 eb3d e918 b3bc 142d d73c 264e 463d
000000b0: 7346 8f3d fd7a 04be b294 a53d 208d 21bd
000000c0: 5765 173d c6db dfbc 9fc6 1f3c a986 15be
000000d0: 6574 2bbd 16ca 613d 041f ff3c e6c8 13be
000000e0: 24d1 dbbd 7acb 73bd ab0c 183d 7c68 b03c
000000f0: ad91 e23c 6b50 983d 1f9a 8a3d 1189 5ebd
00000100: 51da 593d 66df 12be cdee 6b3d 9cec a4bd
00000110: 46cb d8bd 344a 9bbd 1880 febc 35bb 553d
00000120: 9822 dc3d fdf6 24bd 2cd7 aebd 03a5 473a
00000130: f0c6 9f3d e9e2 0abe 3871 103e 0e25 903d
00000140: 59c3 37bd ca59 003d 0348 aa3d 38d7 613d
00000150: 3690 043d b94b 42be 1adf d8bd 1cb0 fc3c
00000160: 8b67 ef3d 3e40 11bd 2a8a 1e3e 0126 08be
00000170: c5b9 3abe 67e2 d2bc e37a f33d f3b8 9e3d
00000180: f27b 14bd ecc8 a43d 3cca 3f3e aa56 323d
00000190: 9222 23be a11f e1bd cc1f 073e 81cd b43b
000001a0: 62e1 a0bd d9f9 09be 1bd5 dbbd e980 2dbd
000001b0: 49f3 083d 92ad 0bbe 4948 263e 2f28 573d
000001c0: c8e3 473d 9efc 5e3a 06ea 523d ffd4 1fbc
000001d0: 8cc2 95bd 1ccf 443d 127e e93d 969b 0abe
000001e0: 2e49 6f3d 2e6b 1ebb ebb4 66bb 5757 493b
000001f0: 57f5 34bd f2a8 1b3e 0ff4 ec3b 30b0 b4bc
00000200: 137a fa3d 2383 0fbe 77aa bcbd 752e 863d
00000210: 0cbd d13d 2115 9abd 2cae 70bd a4ff 50bd
00000220: 9a68 c53d 3e1d 2cbd 5e55 d9bd d761 9bbd
00000230: 7f03 a0bd 1f5e 3b3d 6fcc 71bd 7774 443c
00000240: 5480 d03d 0ca0 b23d 0fc6 dabd b932 233d
00000250: 02e9 7f3d 20f1 003e 2908 a93c cfcc 2ebd
00000260: 2c2e 8bbd f72a 93bd 4fb0 76bd 2062 3bbd
00000270: d545 da3d cbe5 263e d98a b93d 5115 47bd
00000280: 64b5 ae3b 74dc a7bc be00 3ebd 1f84 5ebd
00000290: e65d 16bc 1e3a 53bb 4c82 8b3d e5d3 153d
000002a0: a57f b03d 0c1a ff3b 9441 d4bd 59cf 8c3d
000002b0: a5c4 643d e790 12be 3033 bd3c 0882 bd3d
000002c0: 1b29 9cbd 6b04 973d d531 afbd 0560 203d
000002d0: 6ed3 7d3d 776e e23c a885 0dbe 6984 353d
000002e0: d416 ccbd 5a76 0cbd b69d 713d cd73 86bd
000002f0: bfb2 a63d e4f3 993d b604 073e 4775 eebd
00000300: 1f18 603d 8c4b 683d ccf1 a93c d370 b5bb
00000310: 7793 b13d 7424 663d 38d0 943d d9b9 5ebc
00000320: 7f32 4fbd 7270 e73d 9485 e2bc 509e 743d
00000330: 52a6 b53c b8b0 debd 9e7c c93d 54d4 983d
00000340: dab0 803d b76c 663c d60e a43d 47d8 813c
00000350: 9275 0e3e 1d48 f83c 2d69 51bb 911c 783d
00000360: da52 95bc c293 e9bd 22c0 c33d 58b0 9abc
00000370: 8ba7 81bd d66e 3abc 91f7 a23d 2783 fcbc
00000380: db08 c13c 3f43 8c3e e408 b73d 8334 89bd
00000390: 4999 bcbd a818 113d 80e7 1dbb ea16 773d
000003a0: d212 96bd bc6e fd3b 83fb 05be f0a7 f3bb
000003b0: 0314 36bd f53d 10be 90cb 0e3d aeda 953d
000003c0: 8dbb 3ebe 6d89 11bd 517c 593d 1943 55bd
000003d0: 6a13 dd3d 6df9 c8bd 3d4c 8bbc 4020 073d
000003e0: 14e4 0ebe 90fe 9d3d 9fc9 32bd 4ae4 d6bc
000003f0: 34e9 5a3d 09b1 dc3d 2cc9 dfbc 5eb1 463d
-0.050710622 -0.040078137 -0.057567034 0.05857276 0.04297611 -0.13337712 -0.0033146325 -0.030944943
0.14600702 -0.15039122 -0.05230588 -0.0992971 -0.06242115 -0.066217765 0.041317996 -0.08587604
0.024928143 -0.049503367 0.13126636 -0.121705554 -0.12402009 -0.006879911 -0.13908622 -0.09746491
0.06254552 -0.12817042 -0.0181571 0.033950955 0.1029504 0.14325075 0.14934167 0.05660346
-0.055726137 0.055471968 0.009908406 -0.036041297 -0.0040523335 -0.1157257 0.13090208 -0.025202474
0.115208216 -0.021862464 0.026266612 0.048414372 0.06995859 -0.12937541 0.08085002 -0.039441228
0.03696188 -0.027326476 0.009751945 -0.1460215 -0.04185905 0.055124365 0.03114272 -0.14432105
-0.1073325 -0.059520222 0.037121456 0.021534197 0.027657354 0.074372135 0.067676775 -0.054329935
0.05318672 -0.14343032 0.057600785 -0.08052942 -0.10585646 -0.075825125 -0.03106694 0.052180488
0.10748786 -0.04027461 -0.085371345 0.0007615836 0.07801616 -0.13563122 0.1410569 0.070383176
-0.044864032 0.03133563 0.083145164 0.05513689 0.032364093 -0.18974198 -0.10589428 0.030845694
0.11689671 -0.035461657 0.15482393 -0.13295747 -0.18234928 -0.025742723 0.11888673 0.0775012
-0.036251016 0.08046135 0.1872949 0.04353968 -0.15931156 -0.10992361 0.13195723 0.005517662
-0.07855488 -0.13474216 -0.10734006 -0.042359266 0.03343514 -0.1364043 0.16238512 0.052528556
0.048801214 0.0008506271 0.051492713 -0.009755372 -0.073124975 0.048049077 0.11400999 -0.13535914
0.0584194 -0.002417277 -0.003520305 0.0030722225 -0.044179287 0.15201166 0.0072312425 -0.022056669
0.12230315 -0.14014868 -0.09212201 0.0655183 0.10241136 -0.07523561 -0.058759853 -0.051025048
0.09639092 -0.042020075 -0.106119856 -0.07587021 -0.07813167 0.045744058 -0.059032854 0.011990658
0.10180727 0.08721933 -0.10682308 0.039843295 0.062478073 0.12591982 0.020633774 -0.04267579
-0.06795916 -0.07185929 -0.060226735 -0.045747876 0.10657851 0.16298597 0.09059686 -0.048604313
0.005331682 -0.020490862 -0.046387427 -0.05432522 -0.009177661 -0.0032230685 0.068119615 0.03657903
0.08618096 0.0077850875 -0.103640705 0.06875486 0.055851597 -0.14313088 0.023095697 0.09253317
-0.07625028 0.073738895 -0.085544266 0.03915407 0.061969213 0.027640564 -0.13820517 0.04431573
-0.099652916 -0.034292556 0.058988295 -0.06565056 0.08139562 0.075172216 0.13185391 -0.11643463
0.054710504 0.056712672 0.02074518 -0.0055371313 0.08670705 0.05618711 0.07266277 -0.013594114
-0.050585266 0.11300744 -0.027651586 0.05972129 0.022174034 -0.1087355 0.09838222 0.074623734
0.06283732 0.014064006 0.08010642 0.0158502 0.13912037 0.030307824 -0.0031953559 0.060574118
-0.018227983 -0.11405136 0.09558131 -0.018882915 -0.063307844 -0.011378964 0.07957376 -0.030824257
0.023563793 0.27395055 0.089372426 -0.06699469 -0.09208924 0.035423905 -0.0024094284 0.060324587
-0.073278084 0.007734148 -0.13084225 -0.007435791 -0.04445268 -0.14086135 0.0348621 0.073171005
-0.18626232 -0.03553145 0.053097073 -0.052065942 0.107947186 -0.09813199 -0.017004127 0.03298974
-0.13954192 0.077145696 -0.043649312 -0.026231904 0.053445056 0.10775954 -0.027317606 0.048508994

lstm.bias_ih_l0 f4 [256]
00000000: f5da 973d 8e4c 92bd d572 6abd b955 1d3e
00000010: ab33 f23d 049c 8bbd 8af0 debc 2543 da3d
00000020: f3d8 123e 22b7 bd3d d6c6 73bd 73f0 9d3d
00000030: 001e a53c 035b d0bc d0c9 7a3d bd44 193c
00000040: 7c0f 76bd 378a b1bc 5c48 7cbd fe64 b33d
00000050: 6186 87bd e6e7 91bd eda3 b03d 9466 7bbd
00000060: 30b4 343d 7392 183e 48f2 ba3d 0540 9bbd
00000070: fd2e 80bc 1aa0 053e 3ecd 81bd 9bab ee3d
00000080: 9881 793b c121 3abd 83db a4bd dc09 e0bc
00000090: 73cd 72bd 1657 02bd 363b ee3c 3ab6 81bd
000000a0: 720a 81bd d42a b93d 5e25 9b3c c2de bdbd
000000b0: d320 903c d745 003e 568f dc3b a637 26bd
000000c0: 55e5 643d 9183 893d 2165 c63c db46 4bbd
000000d0: f9c0 8c3d 1ecd 04bd 4232 3b3e 7155 8dbd
000000e0: 37d8 1b3d 85fc a33d f6a3 aa3d 9944 d2bc
000000f0: f085 a5bd 7c4a 6bbd 8a99 b8bd 9196 f93d
00000100: 707c 31bd 1c66 56bd 492c febc 3d00 a93d
00000110: 450c 213e 6934 8a3d 8dfe 9cbd 1d94 98bd
00000120: 6b69 b03d 5491 673d 54c9 133e a42c 9c3b
00000130: 9e7c 8fbd 7397 80bd 8f5f dc3d 17a7 cbbd
00000140: e646 703d a479 b13d adfb 0d3d 11cd 4a3d
00000150: 2eb1 b73d f0a1 1f3e 9260 2bbd c80f 443e
00000160: e374 01bd b1a7 453c 5eef 1e3e 4e93 3bbd
00000170: 53ed fd3b 9a41 0a3e 4c6b 16bd d869 423e
00000180: a650 813d f721 dd3c 13ed 183e ee96 d03d
00000190: 101a f8bc 272f 0f3e f097 51bd 1bc5 7a3d
000001a0: ccca dcbd 880c 1f3d 8e79 4a3d 58b9 c9b9
000001b0: dc72 e03d 9650 373e 568e 69bd 200d 38bd
000001c0: a785 8ebd cc74 4c3d 3246 cf3d 4314 f7bc
000001d0: a16a 083e 3fc7 0dbd 136b 373e 6136 ec3d
000001e0: fa7d b5bd d6e8 afbd 80d2 913d 3b83 05b9
000001f0: c339 d83d 27a8 6dbd 0319 643c 6bd4 f63d
00000200: 56bf 9d3c cac6 a23d 43f7 ebbd e5a1 50bc
00000210: 5a41 9ebd 0f31 893d 4e1e 8b3d ea33 a3bd
00000220: 430f a43c 1c1d 0bbd 3e29 edbd f9ad 3f3d
00000230: d424 dd3d 2c94 87bd 793f b33d d411 e73d
00000240: 8445 113d eb27 813d 466e 4dbd a66b 903c
00000250: ded4 c73d 00cc cebd 0c56 81bd 6cd1 b1bc
00000260: c181 843d 63c5 a0bd a191 dd3d a435 b33c
00000270: ffc5 f1bd b512 a4bd 0568 7c3d 53e9 813d
00000280: 6ed3 6cbd b830 263d 6204 643d efd6 ea3d
00000290: dd24 a7bd dc78 a8bd 2eab 9d3d b701 7c3d
000002a0: d377 a73c 79f7 90bd 188c dabd d9be c0bd
000002b0: 2776 033e 613e 953d f053 553d fccf 16bd
000002c0: b4ce 753d bb31 90bc 82f8 aebc 1021 39bd
000002d0: 1927 82bd 40dc 3e3c f115 afbd d5be 983b
000002e0: 8f1c 983c d814 ee3c 59e0 39bc 1f07 d43d
000002f0: 3be5 8f3d 3844 4fbd 68b9 283d c32d f1bc
00000300: 5444 2ebd 3e0c 2f3e 2794 17bd c6bd ea3c
00000310: 325b 0cbc 0aa8 57bd 379c f23d ba27 e93d
00000320: 2d5d 133e 2d6d a43d 5464 03bc 2699 233e
00000330: a184 af3c 0476 0ebd 6b9c b4bc 4b3f fc3c
00000340: 8212 b93d f553 8c3d ccbb 02bc 9f4a 113e
00000350: 5033 ddbc 9cf0 3cbd 20e1 bd3d fa95 2a3c
00000360: 2724 64bd eeae 973d d852 263d 11bc 833d
00000370: 8d69 4f3d 4c0d cbbb 7424 d13d d548 423d
00000380: a3af 6ebd 6909 143e 3515 67bd aa54 1d3e
00000390: b57c 4e3d caea 87bc f46c d0bd c377 363c
000003a0: 12d8 093e 7027 883d 64cf d83d c3c0 83bd
000003b0: ea41 cb3d a778 9a3b ea51 87bd 7c72 ad3d
000003c0: 2d89 b4bc 7ec7 da3d bd5d f63d f835 943d
000003d0: a71b 183e 8eba 023e 926a ff3d 89d5 5fbd
000003e0: 9a5e ebbc f5ec c0bd 311b b3bd 08ca 263e
000003f0: 149f 073e c825 14bd 22bb bb3c 2f0c 5bbc
0.074148096 -0.07143508 -0.05723842 0.15364732 0.11826261 -0.06816867 -0.027214307 0.10657338
0.14340572 0.092634454 -0.059515797 0.07711878 0.020155907 -0.025434023 0.06122762 0.009354767
-0.06007336 -0.021672351 -0.061592445 0.08759497 -0.066174276 -0.07124309 0.08625016 -0.061377123
0.044117153 0.14899616 0.09128243 -0.0758057 -0.015647406 0.13049355 -0.06337975 0.11653825
0.0038071629 -0.045442346 -0.08049681 -0.027348451 -0.059277963 -0.031821333 0.029080968 -0.06333585
-0.063008204 0.09041372 0.018938717 -0.09271003 0.017593777 0.12526642 0.006730954 -0.040580414
0.05588277 0.067145474 0.024218144 -0.04962812 0.06872744 -0.032422177 0.1828089 -0.06901062
0.038047995 0.08007149 0.08332054 -0.025667476 -0.08082187 -0.05744408 -0.0901366 0.121869214
-0.043331563 -0.052343473 -0.031026976 0.082519986 0.15727337 0.06748278 -0.07665739 -0.07450125
0.08613857 0.05653508 0.1443227 0.0047660638 -0.07006191 -0.06278887 0.10760414 -0.09943979
0.058661364 0.08665779 0.034663845 0.049511973 0.08969341 0.15589118 -0.041840144 0.19146645
-0.031605612 0.0120639065 0.15520999 -0.045794778 0.0077492385 0.13501588 -0.03672342 0.18985689
0.063142106 0.026993735 0.14934187 0.101850376 -0.030285865 0.13982831 -0.05117029 0.06122313
-0.10780868 0.03883031 0.04943233 -0.000384758 0.10959408 0.17901835 -0.057020508 -0.044934392
-0.06959086 0.049916074 0.101208106 -0.030161029 0.13321926 -0.034613844 0.1791194 0.115338095
-0.08861919 -0.08589332 0.07120228 -0.00012732756 0.10557892 -0.05802169 0.013921979 0.12052234
0.019256275 0.07948072 -0.11521771 -0.012733911 -0.077273086 0.0669881 0.067928895 -0.07968886
0.020026809 -0.033963308 -0.11580132 0.046796773 0.1079804 -0.066200584 0.08752341 0.11282697
0.035466686 0.06306442 -0.050153993 0.017629456 0.09757398 -0.10097504 -0.0631524 -0.021706305
0.06470061 -0.078501485 0.10818792 0.021876164 -0.11805343 -0.080113806 0.06162264 0.06343331
-0.057818823 0.040573806 0.055668242 0.114667766 -0.08161328 -0.08226177 0.076986656 0.061525073
0.020442879 -0.07078452 -0.10671252 -0.09411401 0.1283804 0.072872885 0.052082002 -0.036819443
0.06001158 -0.017601838 -0.021358732 -0.045197546 -0.063551135 0.011649191 -0.08549107 0.004661421
0.018568305 0.029062673 -0.011344993 0.10352921 0.07026144 -0.050602168 0.041192442 -0.029440766
-0.04254563 0.17094514 -0.037006523 0.028654944 -0.0085666645 -0.05265049 0.11846202 0.1138453
0.14391012 0.08028636 -0.008019526 0.1597639 0.021425547 -0.034780517 -0.022047242 0.0307919
0.09036733 0.06851951 -0.007979345 0.14188622 -0.027002007 -0.0461279 0.09271455 0.010411734
-0.05569854 0.07406412 0.04060635 0.06432355 0.05063777 -0.0061966535 0.10212031 0.04743274
-0.05827297 0.14456715 -0.05641671 0.15364328 0.0504119 -0.016591448 -0.10177031 0.011136952
0.1346133 0.06648147 0.105864316 -0.06433251 0.099246815 0.00471409 -0.06607421 0.08469102
-0.022038067 0.10682581 0.12029598 0.07236856 0.14854299 0.12766477 0.124714985 -0.054647002
-0.028731633 -0.09420196 -0.08745421 0.16288006 0.13244277 -0.036168844 0.02291638 -0.013369604

lstm.bias_hh_l0 f4 [256]
00000000: 15c3 e6bd 7aac 6bbd ac38 9d3d c5bf 3abd
00000010: 2cd5 ef3d 22c1 963d 4572 ad3d c22d 873d
00000020: 43f7 acbc 8e99 1dbd a6c5 083e 8374 a7bc
00000030: e1c7 81bd 19c0 49bd 20cd 8e3d 1396 c2bd
00000040: 4fee b93d 2b7d 7a3d 4c43 763d ad6d 523d
00000050: 6568 c0bd 5c1c 1d3e d234 de3d d779 863c
00000060: 80fa b63d f2cc 963c 94f0 7dbd e349 b73d
00000070: 0f57 d63d 8007 033e 60a8 0d3e 7bf6 cf3d
00000080: 8a51 b6bd a848 2b3d 47cc dabc 5e90 df3d
00000090: 9c1a 11bd 454c 083d d17e 1b3c e56e 9f3d
000000a0: 825f 73bb a35f d03d 52fe 3bbd fc3e ff3d
000000b0: b0ee f53d dd71 4a3c 13eb a0bc a815 1ebd
000000c0: 7c4a 8ebd e817 2ebc 7da1 8fbc 83bd 9cbc
000000d0: 8a5d 873c 1deb 1e3c 3a1a e3bc 0730 81bd
000000e0: 4847 cb3b 1f9b eabd 3a73 873d 919c ec3d
000000f0: 49b3 2d3c 10e1 f43d 347c 0ebd 53e4 ab3c
00000100: d050 08bd 9541 143e 7c0c 5fbc d850 cfbb
00000110: 632d 1d3e 6da0 bb3d ec99 91bd 0e2a bf3b
00000120: 686a 333e bbef 26bd 3e62 a4bd 00c5 953d
00000130: 2b92 ecbc 637d cabd c020 ee3c 4935 cebd
00000140: 4a28 25bd c9db b3bc 5b0c c23b c13b 9f3d
00000150: 3ecc 533d a717 023d 958f 95bd 4150 3b3e
00000160: faa5 dc3d 26d6 a13d 15df e93d 26c0 0c3e
00000170: 62cc ec3d dfd1 cf3b 8725 af3d 8c54 0a3d
00000180: e5bc 9a3d ef60 0f3e 8537 ad3c b46a 3b3e
00000190: bca4 c4bb d53e 0b3d 2a90 2bbd 7b5d d63d
000001a0: 410b af3d 5a81 873d fb7b f63d e0ce 2a3d
000001b0: 73aa c03d 1069 213c 13b2 d43a 40ca 3c3d
000001c0: 2993 ef3d 31c1 d63d b513 58bd 18b1 53bd
000001d0: 398a e03d ccee 2bbd 7f25 5a3e 0272 1f3e
000001e0: 183d 95bd 9e1e 48bd ae2d d13d 4626 6d3d
000001f0: 0b8b 82bd fc43 073e ef08 8bbc 7960 67bd
00000200: eb9e 003e 58b9 f3bd f19f ecbc fe69 603d
00000210: f9bd a7bb 2aa0 fcbd 9746 513d bc4c 2c3d
00000220: d39d 25bd 6e69 e03d 4b5f d43d 043c 7f3d
00000230: a8ad a7bd e561 43bd f3ac e63d c855 913d
00000240: 14db e5bc 14d2 eb3d 58b6 003e bb0d e3bc
00000250: 317b d83d 884b 0fbd d97f 673d ed25 c93d
00000260: 40ae 353d 1ea1 68bb b005 77bd d4b0 14bd
00000270: c3cb aebd cf9d c3bd 1e99 83bd 4033 a8ba
00000280: 1386 9dbd 6859 4cbd ab5c 26bd 6620 a1bd
00000290: 0ff5 d3bd 9f68 543c 8e77 de3d 14b1 023e
000002a0: ce52 e23d 5ca0 b7bc 447d 02be 8a53 a0bc
000002b0: 2649 9abc 430a 88bd b401 5c3d 113b 033e
000002c0: d16e 79bd c79a fc3d c4c2 08be 20ba 8bbd
000002d0: becc b43d eab7 d83c 9927 a63d c318 c2bd
000002e0: 8f43 85bd a7f2 62bc 48e6 f93d 61eb 00be
000002f0: a019 3b3d 69b0 b83d 1420 8e3d 25ae 7d3d
00000300: df1b c83b 4de7 9f3d 36e2 ccb9 afea 50bc
00000310: 723d 033e 2a85 d3bd e57d a0bb e977 143e
00000320: 0b3e 19bd c8f1 a3bb 7834 3f3c 7899 2c3e
00000330: 2e3f f53d 3eae b63d 1a30 8d3d 25ff debb
00000340: 3627 103e 7746 27bd f1fe ea3d 4390 3fbd
00000350: 76c3 a03c dc77 bbbc 2e50 f43d 2114 d93b
00000360: 505e c7bd bfa7 e93d 7cd5 623d 843f 1f3e
00000370: 3cc7 823c 67db 273e 1301 a03d 7ddb 303e
00000380: fdd7 413d 65bd e43d e710 c13d 445e e93d
00000390: 8ca3 c73d e1ca 1fbd c19a 033d 10e2 cfbd
000003a0: 4007 30bd f633 0b3c 367c e9bc bde6 dd3d
000003b0: b179 fabc a4a0 2e3d 6d51 7bbd 4f0e b1bd
000003c0: 7302 8abd 9f80 b8bd bd62 dd3d 46a9 593b
000003d0: 3cfe 073e 622b 723d 78f7 2fbb 5de4 58bd
000003e0: f765 843d c351 dabd 3a4b e2bc c7a8 cd3d
000003f0: 8e50 803d 2706 873d 6cee 93bc c0c9 f5bc
-0.11267678 -0.057537533 0.07676825 -0.045593042 0.11710581 0.07361056 0.08469061 0.066005245
-0.021113997 -0.03847652 0.13356647 -0.0204413 -0.06336952 -0.049255464 0.06972718 -0.09501281
0.09078657 0.061154526 0.060122773 0.051374126 -0.09394912 0.1534285 0.108499184 0.01641552
0.08934498 0.018408272 -0.06199701 0.0894964 0.10465824 0.1279583 0.13833761 0.10154434
-0.08902271 0.041817337 -0.026708735 0.10916208 -0.035425767 0.03327586 0.009490685 0.07784823
-0.0037135785 0.10174491 -0.045896836 0.12463185 0.12008417 0.012356249 -0.019643342 -0.03859487
-0.069478005 -0.010625817 -0.017533058 -0.019133335 0.016524095 0.00969961 -0.027722467 -0.063079886
0.0062035657 -0.11455368 0.066137746 0.115533 0.010601827 0.1195699 -0.034786418 0.020982897
-0.033280194 0.14478143 -0.013613816 -0.006326776 0.15349345 0.09161458 -0.071094364 0.0058338707
0.1752106 -0.04075597 -0.08026551 0.073129654 -0.028878292 -0.09887197 0.02906835 -0.10068757
-0.040321626 -0.021955388 0.005921883 0.07775069 0.051708452 0.031760838 -0.07302777 0.18292333
0.10773845 0.07902174 0.11419503 0.13745174 0.115624204 0.0063421573 0.0855208 0.033772036
0.0755556 0.14001821 0.021144638 0.18302423 -0.006001083 0.03399547 -0.041885532 0.10467049
0.085470684 0.06616469 0.12035366 0.041701198 0.094075106 0.009851709 0.0016227387 0.046091318
0.116979904 0.10486067 -0.05275317 -0.05168256 0.10963864 -0.04197578 0.21303366 0.15570834
-0.07287043 -0.048857324 0.10213791 0.05789783 -0.063741766 0.13209528 -0.016972033 -0.056488488
0.12560622 -0.11900586 -0.02888486 0.054788582 -0.005119082 -0.12335236 0.05109271 0.042065367
-0.040433716 0.10957609 0.10369738 0.062313095 -0.08187419 -0.04770078 0.11263456 0.070964396
-0.028058566 0.115146786 0.12569559 -0.027716508 0.10570372 -0.03498414 0.05651841 0.09821687
0.04435563 -0.0035496424 -0.06030816 -0.03630145 -0.08534958 -0.09551584 -0.06425689 -0.0012832657
-0.07691588 -0.049889952 -0.04061572 -0.07867508 -0.103494756 0.012964397 0.10862647 0.12762862
0.1105095 -0.022415332 -0.12743098 -0.019571085 -0.018833708 -0.06642582 0.05371256 0.12815501
-0.0608967 0.12334209 -0.13355547 -0.0682261 0.08828114 0.026454885 0.081130214 -0.09477379
-0.065070264 -0.013851798 0.12202126 -0.1258979 0.045678735 0.090180226 0.06939712 0.061933655
0.006106838 0.07807789 -0.00039078452 -0.012751265 0.12816408 -0.103281334 -0.0048978203 0.14498867
-0.037412684 -0.005003188 0.011670224 0.16855419 0.11974941 0.08919953 0.0689394 -0.006805318
0.14077458 -0.040838685 0.114744075 -0.046768438 0.019624453 -0.022884302 0.119293556 0.006624714
-0.097347856 0.11408948 0.055379376 0.15551573 0.015964143 0.16392289 0.07812705 0.17271228
0.047325123 0.11168937 0.09427052 0.11394933 0.09747991 -0.03901184 0.032130007 -0.1015054
-0.042975664 0.008496275 -0.028501611 0.108350255 -0.030575605 0.042633668 -0.06135695 -0.08645307
-0.067387484 -0.090089075 0.108098485 0.0033212467 0.13280576 0.059123404 -0.0026850384 -0.05295216
0.06464761 -0.10660126 -0.027623761 0.10041957 0.062653646 0.0659297 -0.018058024 -0.030003428

fp_to_h0.weight f4 [64, 3]
00000000: 2262 24bd 07bb 3dbe 8704 06bf a8ef ee3e
00000010: f346 ab3d 1c5c 493f 5989 363d 4e2d 91bd
00000020: 1cfc d73d bc70 04bf b3a6 143c ab71 78be
00000030: c9df 143f 6149 57be 1c16 f03e 20c7 313f
00000040: 088a 90be f29e b93e 4ffb a73d 160b 0bbc
00000050: 0105 52be a6f3 77be f980 edbd 4321 6b3e
00000060: 7808 2fbf 0cfc 6fbd 5f24 81bd bcfa 9dbe
00000070: a0f0 e8bc a8b6 3d3f c0b8 153e 20be ddbe
00000080: ec95 debe 08c4 70be 996b ec3c d264 8ebe
00000090: 7f48 45bf a2d1 9a3d 0ea5 2abe 0436 29be
000000a0: 59b3 1fbf 1bbb 12bf a45b 6f3e 3020 1f3f
000000b0: 8782 023f a24f 8ebe 815c 4abe 4621 9cbe
000000c0: 564a 353f 6c8a 053f 5528 333f d613 d3be
000000d0: 4348 0c3d 97bd abbe 90d9 d5be 2d41 ecbe
000000e0: 3650 3fbf 08cc b8be 572d 15be c178 a7bd
000000f0: 6939 143f ebef b43d 7f2a 173f b684 0ebf
00000100: 372c 26bf c792 46be 50e0 96be 6cc7 8d3e
00000110: 9877 073c c19f 28be 710c f53e 70ef bc3e
00000120: 1ff7 0f3c 5eb0 4dbf 47a9 bfbe 2de7 3c3f
00000130: 30ad 303f bf36 90be 1a78 47bf dac8 a2be
00000140: 9d18 863e 96b1 893e 26bc 5a3f 8175 18be
00000150: cb58 2cbf 187b 5ebd 1b8e 08be 501a 21bf
00000160: b356 1ebe 13f3 803e bce6 eabd 1862 0ebf
00000170: e5c3 e0bd 8981 8cbe 703c fd3e 78db b43e
00000180: 69f9 aa3e b529 8ebd 6e4a c73e 9d3c 523e
00000190: 33e9 5dbe 1bb3 38be dc06 453f f92e 073f
000001a0: affd 243f 0d65 fe3e 807a 033f 0fea e03e
000001b0: 3efd 1fbf 18ae 3dbf 5cd6 9cbd 3117 9e3e
000001c0: 2df0 003d 3698 ae3e 78f7 01be db15 02bf
000001d0: 619b 93be f92e 223e 7858 c83d 1e20 2e3f
000001e0: d647 19bf 2821 43bf 3e46 40be b1b1 4d3e
000001f0: aa35 3ebe b88a d53e 8750 d23e 1b43 083f
00000200: 726d 123f 83bf 263d a9d4 c23e d3f0 903e
00000210: 099a d7bc dfdd 3ebd de07 58be 573b 9a3e
00000220: b76b ca3e 17ef 52be 356f 343e 54f1 0ebf
00000230: 6053 3a3e d98f 87be 08a4 8c3e d043 83be
00000240: c00b 883d 9124 00bf 2199 ddbe 64e3 603e
00000250: 5379 d6be fa42 babe f59d b5be de63 383f
00000260: 28d8 953e 9c4b 3d3f 9243 98be 822e 1bbe
00000270: 197e 753d 6683 5bbe 0397 13bf 8710 d53d
00000280: ce66 c83e 02d5 333e 590f cd3e 5f8c 003e
00000290: 9f9b ce3e 230e 423f 2ef8 3f3f 6cba 79bd
000002a0: b28c 8e3c 63ec e03e 9f81 22be 904a bdbe
000002b0: d7c5 dbbe ef7c 1abf 50c4 f33d db2f 5c3e
000002c0: 304d 75bd 200c a3bd bc83 37bf 31b6 85be
000002d0: 1c39 2abf d4d9 7a3d 72aa 85be 3ca2 87be
000002e0: 066d d7be 49f1 a1be 6e3e b3be ec26 66bd
000002f0: d9ec 23be e458 3a3e d395 ba3e f8f6 013e
-0.04013265 -0.18528377 -0.5235066 0.46667218 0.08363142 0.7865617 0.04456458 -0.07088719
0.10546133 -0.5173452 0.009072947 -0.24262111 0.5815397 -0.21024086 0.46891868 0.69444466
-0.2823031 0.36254078 0.0820223 -0.00848653 -0.20509721 -0.24214038 -0.11596865 0.22961907
-0.683723 -0.05858998 -0.06305765 -0.30855358 -0.028435051 0.74106836 0.14621258 -0.43309116
-0.43473756 -0.2351228 0.0288599 -0.27811295 -0.77063745 0.075595155 -0.16664526 -0.16524512
-0.6238304 -0.5731675 0.23374802 0.6215849 0.5098042 -0.2779513 -0.1976185 -0.30494136
0.7081655 0.5216434 0.69983417 -0.4122607 0.0342486 -0.33543083 -0.4176755 -0.46143475
-0.7473177 -0.36093163 -0.14568077 -0.08177329 0.579001 0.08834823 0.5904922 -0.5567125
-0.64911216 -0.19391929 -0.29468012 0.2769121 0.0082682595 -0.16467191 0.47861055 0.36901426
0.008786946 -0.8034724 -0.37433836 0.73790246 0.69014263 -0.28166768 -0.77917635 -0.31793863
0.26190653 0.268933 0.8544334 -0.14888574 -0.6732299 -0.05431661 -0.13335459 -0.62930775
-0.1546276 0.2518545 -0.1146979 -0.5561843 -0.10974864 -0.27442577 0.49460173 0.3532369
0.3339341 -0.06941549 0.38923973 0.20530935 -0.2167099 -0.18037073 0.7696359 0.5280605
0.6444959 0.4968647 0.51358795 0.43928573 -0.6249579 -0.7409377 -0.07658073 0.3087707
0.03147905 0.34100503 -0.12692058 -0.508146 -0.28829482 0.15838231 0.09782499 0.68017757
-0.5987524 -0.7622247 -0.18776795 0.20087315 -0.18575159 0.41707397 0.41077062 0.53227395
0.5719825 0.040709984 0.38052872 0.28308734 -0.026318567 -0.04659831 -0.21096751 0.30123398
0.39535305 -0.20599018 0.17620547 -0.5583699 0.18195868 -0.26476935 0.27468896 -0.25637674
0.06642866 -0.50055796 -0.4328089 0.21961743 -0.41889438 -0.36379224 -0.35472074 0.72027385
0.29266477 0.73943496 -0.29739052 -0.1515446 0.05993471 -0.21436843 -0.576523 0.10403543
0.39140934 0.17561725 0.40050772 0.12553547 0.40353104 0.7580282 0.7498807 -0.0609688
0.017401073 0.4393035 -0.15869759 -0.3697095 -0.42924377 -0.60346884 0.11902678 0.2150263
-0.059888065 -0.07961297 -0.71685386 -0.26115564 -0.6649339 0.061242893 -0.26106602 -0.26490963
-0.42075366 -0.31629398 -0.35008568 -0.056189463 -0.16008319 0.18197972 0.36442432 0.12691867

fp_to_h0.bias f4 [64]
00000000: df2f 83be 1e22 c1be 3780 c63e 1625 45be
00000010: db20 b63e a411 a03e 739f 24bf ecb2 90be
00000020: 0dea 0b3f e02d e2be 5122 b23e 34dc 12be
00000030: a157 663d b221 e63e b056 80bd eb35 ad3e
00000040: e221 153f 1b94 443e d4c1 d1bc 2b94 d9be
00000050: 1889 50bd 780d d9bd 7fa4 e8be 1ef5 e5bc
00000060: 697d 043f bc6f 41be 6369 9d3d 4f9a 88be
00000070: 8b02 b53e f3c3 85be f9c4 e9bd 362e 47be
00000080: a54e a73e da16 0c3f 4718 f1be 5fd9 6e3e
00000090: 741c 47be 2643 0bbe 7d43 a03e daf1 b83e
000000a0: 599c b93d db1c 70be 7ab0 09bf ec87 ef3e
000000b0: f869 e1be b884 003e f790 563e 15d3 18bf
000000c0: 975f 883e 8eef ac3e e4b1 9bbc b331 22bf
000000d0: 8358 ecbd 2354 c8bd 015a 0d3e ba49 61be
000000e0: 816a 883e b25c 4c3e 4ecb cf3d 47c0 9dbe
000000f0: 9df3 0f3e 9b36 1b3d ae16 863e d83f 95bd
-0.2562246 -0.37721342 0.38769695 -0.19252428 0.35571942 0.3126346 -0.643058 -0.28261507
0.5465401 -0.44175625 0.34791806 -0.14341813 0.056235913 0.44947582 -0.06266534 0.338302
0.58254826 0.19197123 -0.02560512 -0.42495856 -0.050911993 -0.10598272 -0.45438 -0.028070983
0.5175386 -0.1889028 0.076861165 -0.26680228 0.35353503 -0.2612606 -0.11414523 -0.19451222
0.3267719 0.5472237 -0.47088835 0.23325108 -0.19444448 -0.13599834 0.3130149 0.36122018
0.09063024 -0.23448507 -0.53784907 0.46783388 -0.4402616 0.12550628 0.20953737 -0.59697086
0.2663543 0.33776516 -0.019005723 -0.63357085 -0.1154032 -0.09781673 0.13803865 -0.2200078
0.26643756 0.19957235 0.10146199 -0.30810758 0.14057775 0.037893873 0.26189178 -0.07287568

fp_to_c0.weight f4 [64, 3]
00000000: c5b8 f9bd f07c c2be ef2d e7be e7be 4b3f
00000010: 8285 253d e6cc 44be a9be b93e 8dcb 9abe
00000020: 2662 2b3f 883b fa3a 954a 0ebf 52ce 11bf
00000030: e256 fe3e 4496 073f aa47 353f 753e 053e
00000040: 441c 073f ced3 2d3f d6b4 253e 5dc3 8b3d
00000050: 08a0 b2be 080a e3be a8e4 f1bd 7da4 cdbe
00000060: 6429 23bf 7b53 60be 318d 403c 2742 b73d
00000070: f438 44bd 3999 583f 4d88 ee3e 80a7 cebb
00000080: 99da d33e 0088 193f 62c6 2f3f 00dd 05be
00000090: a98a ebbd 8769 4b3e ba53 9d3d 8426 643e
000000a0: 98d8 09be 2bc7 ccbb bd75 99be 45f5 07be
000000b0: 5e4b 223f f42f fabc 6023 073c 7b91 e53e
000000c0: a85e 38bf ddd4 13be 5f17 b03e 7a2a a23e
000000d0: 177b 1f3e a380 da3e 9f6d 143e 3eec fbbe
000000e0: 0373 103e 7c18 bfbe 190e 5ebe f00b 42bf
000000f0: c9da ca3e dfb5 193f 13c4 213f d4ab 9abd
00000100: 2b35 f2be b646 58be 50dd 52be b057 773e
00000110: 590d f0be 50e5 003f b7c1 7fbe 11be 1b3f
00000120: f1d9 6ebe c1aa e8be d293 1f3d f99d babd
00000130: 87a0 11bb b340 bf3e 1214 3abe f8bc 3cbf
00000140: ad2e e6be dc32 453f 6723 6e3e adef c83e
00000150: a808 c9be 80d7 143e 4bc2 0cbe 8e60 393e
00000160: c8f4 cabe 5eb5 ecbe 5bcd 1abf 4161 e0bd
00000170: e323 dd3c c9be 203f b651 c13e 66e0 11be
00000180: 3efa 97be 73a4 163e d9a9 af3d f5ab 19bd
00000190: 90d4 753e 3ef6 283f 3a2b a93c 56a0 423a
000001a0: 7453 503e ce6d ae3e 2c00 85be 0531 8cbe
000001b0: c5a1 bebe 39ae f1be fa1a f3be 4692 67bc
000001c0: 3f81 d63e b54a a3bd 8f3e 10bf 1af2 69be
000001d0: 93a7 b0be c119 303e 50c9 273f d74f a13a
000001e0: 45f4 aa3d b3c6 e6bd f3b2 a4be 5bbc 0a3f
000001f0: d8c3 22bd 002f 38be f844 c13e d737 e73e
00000200: 1994 d83c 5b13 29bf a471 903e 36b2 bebe
00000210: bd54 573e 4288 4ebf 2d35 f6be 5083 b43e
00000220: b876 503f bfef 623d fd89 213e 6474 d4be
00000230: 2d17 cd3d 68a5 2fbf f7b1 bcbd aa04 81be
00000240: b539 8a3d 3125 43bf e0c9 a0be 9781 663e
00000250: 3d78 05bf b4a9 1b3e ac8d 61be 11cb a8bb
00000260: 6fcf 263f 5e7c e63e 35fb 403f 0dbd d3bd
00000270: 259f dd3a dda7 28bf 93a3 56be 5541 92be
00000280: 0474 0a3f 8042 87be 31af 2e3f 7d72 3b3f
00000290: 69ad 54be 9584 71bd 4984 b33e 6733 fc3c
000002a0: 0e2c 3a3f c1e9 2a3f 1f98 21be 8add 0cbe
000002b0: 1f58 0ebf eb38 8ebe 8376 5ebd 85fb 9d3e
000002c0: fdf4 cdbd e009 173e e498 aa3d d324 053c
000002d0: b1f8 e2bd 886d 623c c15e 3bbf 2131 39bf
000002e0: d621 15bf 3ac2 d5be 28d1 ccbe 9eb0 f7be
000002f0: 7534 943e 6ef7 da3d fb56 a3be 977a bc3e
-0.12193445 -0.37985945 -0.45152232 0.7958817 0.040410526 -0.19218788 0.36278275 -0.30233422
0.6694664 0.0019091228 -0.55582553 -0.56955445 0.4967566 0.5296366 0.70812476 0.13012107
0.52777505 0.67901313 0.16182265 0.06824372 -0.3488772 -0.4434359 -0.11811191 -0.40164557
-0.6373503 -0.21906845 0.011752413 0.089481644 -0.047905877 0.846088 0.46588364 -0.0063065886
0.41377714 0.59973145 0.68662083 -0.13072586 -0.11501057 0.19864474 0.07681985 0.22280318
-0.1346153 -0.0062493286 -0.2997264 -0.13277157 0.6339625 -0.030540444 0.00824818 0.44837555
-0.72019434 -0.1443667 0.3439283 0.31673032 0.15574299 0.42676267 0.14494942 -0.49203676
0.14106373 -0.37323368 -0.21685065 -0.75799465 0.39620045 0.6004314 0.6318981 -0.07552305
-0.4730619 -0.21120724 -0.20592237 0.24154544 -0.46885183 0.50349903 -0.2497624 0.60836893
-0.23325326 -0.45442775 0.03895933 -0.09112162 -0.0022220926 0.3735405 -0.18171719 -0.73725843
-0.44957486 0.7703073 0.23255692 0.39245358 -0.39264417 0.14535332 -0.13745992 0.18103239
-0.39639878 -0.46232122 -0.604696 -0.1095605 0.026994651 0.62791115 0.37757653 -0.14245757
-0.29683107 0.1471117 0.08577318 -0.037517507 0.24006867 0.66000736 0.020650495 0.00074244046
0.20344335 0.3406815 -0.25976694 -0.2738115 -0.37232795 -0.47203234 -0.4748152 -0.014133995
0.41895482 -0.079732336 -0.56345457 -0.2284626 -0.3450285 0.17197324 0.65541553 0.0012307119
0.08347372 -0.112683676 -0.32167777 0.5419366 -0.039737552 -0.17986679 0.3774793 0.4515979
0.026437806 -0.6604516 0.282117 -0.3724534 0.21028419 -0.8067666 -0.48087445 0.35256433
0.8143115 0.05540442 0.15775295 -0.4149505 0.10014186 -0.68611765 -0.092136316 -0.2519887
0.06749288 -0.76228625 -0.31404018 0.22510372 -0.52136594 0.15201455 -0.220267 -0.0051511605
0.6516027 0.4501676 0.7538331 -0.10338793 0.0016908391 -0.6588114 -0.20960836 -0.2856547
0.54083276 -0.26417923 0.6823607 0.7322157 -0.20769276 -0.05896433 0.35061863 0.03078623
0.7272347 0.6676293 -0.15780686 -0.13756385 -0.5560321 -0.277778 -0.05431224 0.30855957
-0.100564934 0.14749861 0.08329943 0.008126455 -0.1108259 0.01382006 -0.7319146 -0.7234059
-0.58254755 -0.41749746 -0.40003324 -0.48376936 0.28946272 0.10691725 -0.31902298 0.3681228

fp_to_c0.bias f4 [64]
00000000: 8285 be3d 9021 e93d a493 a9be 63e7 973e
00000010: b833 8ebe a496 0fbf da9b 473e ec4e a1bc
00000020: 3469 7e3e 6034 efbe 2b24 4e3e 5dba 1cbe
00000030: 274f 00bf 6c58 d7be 725a 03bf 4b35 5b3e
00000040: 705e 173f 4463 cf3e c55b 263f 387c d93d
00000050: 418b 84bd 352c 4bbc fdc9 203e 8ff0 c03e
00000060: 338b 393e 4e39 a63e 114b 8cbe e5e6 9dbe
00000070: a0ea 023e 0e7c acbe bbbc 79be 574a bdbc
00000080: 0205 143f 1f5c bebe 25d3 2f3e 664a 293f
00000090: 3ac3 22be 5f90 19bf 49c2 cf3e 7682 7abe
000000a0: 01ca b9be dbd5 bcbe d862 c23c 9f96 5f3c
000000b0: 76b1 ae3e f669 cabe 1ea8 023e 879f c93e
000000c0: 0958 7fbd f9bb f7bd 8ff5 1fbf 52bb 963e
000000d0: 6c19 fabd 3fae bcbd f9d0 c7be 0865 e3be
000000e0: 98fe 3c3e a15b 84be 1e8b 3f3f c6cb 2abf
000000f0: 61a1 793e 5c3b fd3e 2f04 d33d 0c08 b73e
0.09302808 0.11383355 -0.33120453 0.29668722 -0.27773833 -0.56089234 0.19493046 -0.019690953
0.2484482 -0.46719646 0.20130984 -0.15305467 -0.50120777 -0.42059648 -0.51309884 0.21407048
0.59128475 0.4050542 0.6498378 0.10619396 -0.06471873 -0.0124006765 0.15702052 0.37683532
0.18119507 0.32465595 -0.2740102 -0.3084022 0.12784815 -0.33688396 -0.24388401 -0.023106737
0.5782014 -0.37179658 0.17170389 0.6612915 -0.15894786 -0.5998592 0.40577915 -0.2446383
-0.3628693 -0.3688191 0.023728773 0.013646751 0.34119767 -0.39533967 0.12759444 0.39379522
-0.062339816 -0.120964 -0.6248407 0.2943979 -0.1221188 -0.09212922 -0.3902662 -0.44413018
0.18456495 -0.25851157 0.7482165 -0.66717184 0.24377967 0.4945935 0.10303532 0.35748327

attn.weight f4 [1, 64]
00000000: 0db7 8bbd 18d5 85bc 949a 93ba 8318 453c
00000010: e41a 363d 24d9 933d 98a5 d3bc 82ff 623d
00000020: 09f3 9b3b e481 99bd 1c79 01be 3540 1ebd
00000030: 428f 4b3e acd7 debd 723c 593d 576c 513e
00000040: cee7 063e 75cd 94bd 7757 7abc 14d9 cdbd
00000050: 1bc5 613e 1b80 09be a131 0abe ecbb f2bd
00000060: 7e6e a73d ae47 7ebd fe7c 28bd 3d2a 01be
00000070: 2ab9 f63c b6b0 183e 6d73 d73a 4104 633c
00000080: 1fea 913d 2226 353e bf20 133d 37a5 a3bd
00000090: 99ec 9f3c e463 c9bd cfbe ca3d 21bd 9d3d
000000a0: f84f 023d 92c4 9ebc b024 863d 2707 0d3e
000000b0: 939c 033e 0971 24bd de42 363e c2bd e03c
000000c0: 839c 23be 9a96 f83d 793f 2c3d 5356 4e3d
000000d0: 66f4 833c 2c22 bbbc 608c c5bd 0141 163d
000000e0: 2590 abbd ca58 953d f220 773d a4e0 b83c
000000f0: dee1 cfbc dee6 723d 8ae4 0c3e 48b8 5dbe
-0.068220235 -0.016336963 -0.0011261278 0.01202977 0.04445924 0.07219151 -0.025835797 0.055419452
0.0047591967 -0.07495478 -0.12643856 -0.03863545 0.19878867 -0.1088098 0.05303616 0.20451485
0.13174364 -0.0726575 -0.015279642 -0.1005117 0.22047846 -0.13427775 -0.13495494 -0.118522495
0.081753716 -0.062080078 -0.041134827 -0.12613769 0.03011759 0.1491116 0.0016437598 0.013855995
0.07124733 0.17690328 0.0359199 -0.079904966 0.019521998 -0.09833506 0.09899675 0.07702089
0.031814545 -0.019380841 0.06549966 0.1377226 0.12852697 -0.04014686 0.17798945 0.027434234
-0.15977673 0.121381 0.04205272 0.050375294 0.01610775 -0.022843443 -0.09645915 0.036683086
-0.08377103 0.07292326 0.060334153 0.022568054 -0.025376257 0.059302203 0.13759056 -0.21652329

classifier.0.weight f4 [32, 64]
00000000: 3a0f 06bd d39d 403e 2bd3 dbbd b56c 18be
00000010: 18d9 963b 0735 edbc 9a4a cc3d 7ce7 f53c
00000020: 9167 66bd 8297 5c3d b0e9 6ebd 5a43 693e
00000030: 29a3 a9bd 9f0f efbc d578 1d3e 2de0 fb3d
00000040: 708a 243b efe4 eabb 41a3 c1bd 1651 9cbd
00000050: 5041 c43d 9b85 58be d1f1 393d f246 5c3e
00000060: 835a 983d bc81 be3d 0f58 a7bd 0fa5 6a3c
00000070: dbda 44bd a19d 63be 57e6 36be 3b27 1e3e
00000080: e4eb bdbd b80e df3d f4c8 1d3e 8c42 0b3d
00000090: 7caa 8cbd 6541 d43d 8ea2 8dbd 9e31 313d
000000a0: d5d8 913d df91 eeba 5a62 da3d 293b 93bd
000000b0: 6ad6 853d 813a 973d 2c65 abbc 5b39 243c
000000c0: 0bdf 98bd 1e87 273d 212c dcbd e335 903d
000000d0: d7bf 58be e63e eb3d a106 3f3e 47af 4bbd
000000e0: d030 003e 1225 19be 3fd2 2e3d 1f12 19bd
000000f0: 3692 2bbd fb96 17be 217b aabd 7da9 1b3d
00000100: 4524 303e 377e 00be 7ceb 6f3d fd1f 833c
00000110: 65e1 30be 375a 09be 2cd3 3b3e 7e3c 313d
00000120: f471 a93c 5d21 56bd 727c cd3c c5e8 27be
00000130: ce53 e23d cc73 10bd 7dc9 09bc 7558 97bd
00000140: bddd 0f3e 6c70 793d 9bde 353e cae1 58bd
00000150: f237 5ebb 39bf e63d ec22 33be b9f0 b1bd
00000160: 4252 293e de6c 0a3d 9d8e f6bc 1f26 46be
00000170: 9c78 50bc f761 523e 1f68 b43c 839d 1abe
00000180: c681 31be b7a8 71bd 0992 acbd f0e7 9e3b
00000190: abc4 d4bd 58d0 fcbd 09dd 23bd f283 7b3d
000001a0: 8d65 58bd e2e6 f1bc d90f 263d 3893 343e
000001b0: 0e75 d13d 1269 58be 01de 1c3e b7af b03b
000001c0: e399 303e bcf3 0f3e ea88 08be 381a eabd
000001d0: 6b42 293e e35f 91bd 7a06 10be a8da d8bc
000001e0: 1268 2dbe aede b83d 309a dc3c 73f3 833d
000001f0: 7bd3 9d3d 05ca 5c3d 7153 363e 6b6c 7abd
00000200: b0d3 a03d cc1b 67bd 4d4f 18be d9a0 223e
00000210: 12ee d4bb c496 70bd c3a1 ba3b c194 fd3d
00000220: cf9f dd3d 26a3 afbd 6aa2 27be e496 b5bd
00000230: 0f31 b53d ec3d ecbd ddcc c73d 1add e83d
00000240: cf82 e73d 190a ac3d 84e9 0a3e 27fc a83d
00000250: 5f01 6a3c 8351 e23c abff 77bd 7d95 13be
00000260: 178a 703c b04f 45be e5f0 653d e9b4 13be
00000270: 72a5 3b3e d46a 453e edac 5c3e 3b0f 68bd
00000280: 008f 03be b675 0abe 366b 89bd 8a8a 81be
00000290: 7580 893d af09 1f3c d624 0a3e 89d4 0a3e
000002a0: 990f c5ba 88d8 a53c 86bd 1cbe ef24 163e
000002b0: 7746 cf3d e128 c73a 8d57 1f3e 36b2 27bc
000002c0: 6d56 05bd 4801 653d 5063 cbbd d7df ad3a
000002d0: 3818 9f3d 832f 9bbc 17d3 f4bd fc11 32bd
000002e0: 2d32 93bd 49fb 0fbc beb2 543d 4fb6 093e
000002f0: ab63 4b3d 0b7d 023d 978d 7c3d 8888 54bd
00000300: a5ba 863d 7cce 34bb 008d 10bd 9ad0 4fbe
00000310: 6269 2f3e 4a6f 44bd 6620 ba3d be89 9bbd
00000320: 91bf 0bbe 039c 153e fd92 093e d429 6c3e
00000330: 4ce9 fa3c 6797 953c b2d9 843d a35f 1f3e
00000340: a735 19be b160 0cbc a303 7ebd b121 cebd
00000350: f988 b63c e534 00be 5ace da3a 1702 463e
00000360: 6b9a 923c 4af4 023e a3b0 10be 7703 c43d
00000370: 0a2e e1bd 6eb9 56be 3d0f 9cbd 6ab2 4e3e
00000380: ac42 c73d 0b87 4f3d 61f0 883d 8a0a 853c
00000390: 9aa3 b33d e4a0 b9bd 28dd 9f3d 7746 e13d
000003a0: 2e83 acbd 2217 0c3e 4620 7ebc 9a6d 5ebe
000003b0: 3f49 243c ecbc e23d 3d1e 343d 5812 9fbd
000003c0: 1756 61bd d09d eebd 4668 e23c 9011 653d
000003d0: 81f6 b43c 71d8 723d 3a9d 943d 5a07 023e
000003e0: 8bc0 ccbc 2f01 07be 2e06 353d d9d9 28be
000003f0: 4021 073d 35c3 d73d 4c15 723d 0fce 3e3e
-0.032729365 0.18810205 -0.107336365 -0.14885218 0.0046035163 -0.02895595 0.099751666 0.030017607
-0.056251112 0.053855427 -0.05832833 0.22779599 -0.082830735 -0.029182253 0.15378125 0.122986175
0.002510693 -0.0071684043 -0.09454966 -0.076326534 0.0958277 -0.21144716 0.04539663 0.21511438
0.07439139 0.093020886 -0.08171093 0.01432158 -0.04806028 -0.222281 -0.17861305 0.15444653
-0.09273508 0.10891479 0.15408689 0.03399901 -0.06868455 0.103640355 -0.069157705 0.04326021
0.071214356 -0.0018201432 0.1066329 -0.07189018 0.06535037 0.073842056 -0.020922266 0.01002344
-0.07464417 0.040900342 -0.107506044 0.07041528 -0.21166931 0.11486606 0.18654872 -0.049727704
0.1251862 -0.14955547 0.042680975 -0.037370797 -0.041887484 -0.14803688 -0.08324266 0.038003433
0.17201336 -0.12548147 0.058574185 0.016006464 -0.17273481 -0.1341332 0.18342274 0.04327058
0.02068422 -0.05227791 0.025083754 -0.16397388 0.11051141 -0.035266683 -0.008409855 -0.07389919
0.1404943 0.06089823 0.17760698 -0.052949704 -0.0033907858 0.112669416 -0.1749379 -0.08688492
0.16535285 0.03379523 -0.0300973 -0.1935048 -0.012724068 0.20545183 0.022022305 -0.15099148
-0.17334661 -0.05899879 -0.084262915 0.0048494264 -0.10389074 -0.12344426 -0.040005717 0.06140513
-0.05283122 -0.029529039 0.040542457 0.17634284 0.102274045 -0.21133831 0.15319063 0.0053920406
0.17246203 0.14057821 -0.13333479 -0.11430782 0.16529243 -0.07098367 -0.1406497 -0.02647145
-0.16934231 0.09026848 0.026928991 0.06442919 0.07706352 0.0539036 0.17805268 -0.06113855
0.07852876 -0.056422994 -0.14874001 0.15881671 -0.0064981068 -0.05873753 0.005695553 0.12381888
0.10821497 -0.0857604 -0.1637055 -0.08866671 0.08847248 -0.11535248 0.097558714 0.11370297
0.11304247 0.084003635 0.13565642 0.08251219 0.014282553 0.027626758 -0.06054656 -0.14412494
0.014681361 -0.1926868 0.056137938 -0.1442448 0.18324831 0.19279033 0.21550341 -0.05665515
-0.12847519 -0.13521466 -0.06709902 -0.2530101 0.06713954 0.009706899 0.13490614 0.13557638
-0.0015034556 0.020244852 -0.15306672 0.14662527 0.10120862 0.0015194678 0.15560742 -0.01023536
-0.032553125 0.055909425 -0.09931052 0.0013265562 0.07768291 -0.018943554 -0.11954325 -0.043474182
-0.07187305 -0.008787938 0.051928274 0.13448451 0.049655598 0.03185753 0.061658468 -0.05188802
0.06578568 -0.0027588895 -0.035290718 -0.20294419 0.17130044 -0.047957696 0.09088211 -0.075946316
-0.13647296 0.14610295 0.13434978 0.23062831 0.030628823 0.01826067 0.064868346 0.15563826
-0.14961873 -0.008567975 -0.062015187 -0.1006502 0.02228211 -0.12520178 0.0016693578 0.19336735
0.017895898 0.12788501 -0.14129882 0.09570973 -0.109951094 -0.20969173 -0.07620094 0.20185247
0.097295135 0.050665896 0.06686474 0.016240377 0.08771439 -0.090638906 0.07805854 0.10999768
-0.08423458 0.136807 -0.015510624 -0.21721497 0.010027229 0.1107119 0.04397415 -0.07767171
-0.055013742 -0.11651194 0.027637612 0.055924952 0.022090198 0.059288446 0.07256551 0.12698117
-0.024994155 -0.13184045 0.044195347 -0.16489352 0.032990694 0.1053528 0.05910234 0.18633293

classifier.0.bias f4 [32]
00000000: 7675 02bd bfc4 c6bd 6f6d 09be 6086 1f3e
00000010: a3b0 24bd dea3 a23c d7b1 2a3e 073b 8e3d
00000020: 1826 1c3e d439 d9bc 3b33 d0bd 07f6 90bd
00000030: 6453 cbbd 7635 633d f20e db3d bddf eabd
00000040: 6fd4 27bd 3e19 783d a3f7 c13d 166f babc
00000050: e68b 513e 0a78 acbb 69a2 88bc be5b 533d
00000060: 8271 8dbd 24b5 bbbd 25bb 1b3e f536 013e
00000070: 0968 13bd 65f6 7e3c ca4c 93bd 3c66 ecbd
-0.0318503 -0.09705495 -0.13420652 0.15578604 -0.040207516 0.019853529 0.16669403 0.06944852
0.15248907 -0.026516832 -0.101660214 -0.07078176 -0.09928015 0.055470906 0.1069621 -0.11468456
-0.040974077 0.060570948 0.09471061 -0.022758048 0.20463523 -0.005263333 -0.016679006 0.051601164
-0.069064155 -0.09165409 0.15208109 0.1261862 -0.035987888 0.015561675 -0.07192381 -0.11542937

classifier.3.weight f4 [1, 32]
00000000: 750a 6cbe 3adb 673e 8f62 363e ef39 70be
00000010: b055 61be 8e28 f03d 5d61 81be 501b 053e
00000020: b408 97be b1d1 063e 73a2 233e f9e4 9fbd
00000030: 3e40 f73d 98e3 51be 2c99 86be 2594 253e
00000040: 2333 99bd 45cb c33d 7bc5 0fbe 67e2 4fbe
00000050: d04a 17be 2b32 283e 660b 68bd 70a1 2cbe
00000060: fe7e 24be fec5 593e 856a 89be 22c8 01be
00000070: 0465 0fbe e83e 0b3e c689 e83d 66cc cd3d
-0.23050864 0.22642222 0.17811035 -0.234596 -0.22005343 0.11726485 -0.25269595 0.129987
-0.29498827 0.13165928 0.15979938 -0.07807345 0.120728 -0.20496976 -0.26288736 0.16169794
-0.07480457 0.09560255 -0.14040177 -0.2030121 -0.14774632 0.16425388 -0.056651495 -0.16858459
-0.16064069 0.21266934 -0.2683908 -0.12674001 -0.14003378 0.13598216 0.11354403 0.100487515
