lstm/stage1_lstm_best.pt (torch, 81158 bytes, 8 tensors)

lstm.weight_ih_l0 f4 [256, 1]
000000 ee af 9a 38 8d 2e a5 bb c2 b0 1d bd a8 ee a5 3c
       7.376062e-05 -0.0050409497 -0.038498648 0.020255402
000010 f0 78 26 be 17 81 27 be 76 26 2c 3d f2 89 ce bd
       -0.16257071 -0.16357838 0.042028867 -0.10084905
000020 e0 ae 30 3d cb 98 8d 3d 54 8e 00 be af 82 e1 3d
       0.043135524 0.069139086 -0.12554294 0.11011254
000030 9e e7 f0 bb da 79 00 3d 9c d8 3e bd e0 e2 07 be
       -0.0073518297 0.031366207 -0.046593294 -0.1327014
000040 db c4 c8 3d d4 44 99 3d 1b 99 8e 3d 00 64 70 3d
       0.09803172 0.07483831 0.06962796 0.058689117
000050 6f 10 42 bd 85 68 5c bc 3a a0 e1 3b 76 29 43 bc
       -0.047378954 -0.013452654 0.0068855556 -0.0119117405
000060 77 89 dd 3d f1 55 4f bd 48 ae 13 3e 97 ab 44 3e
       0.10817235 -0.05061907 0.14421952 0.19206081
000070 3e a0 82 be 94 b6 a2 3d 07 82 a0 bd e1 f7 4b bd
       -0.2551288 0.0794498 -0.07837301 -0.049796943
000080 5f 7d 39 bd ac c7 47 bd b3 f2 8e bd 16 d2 08 bd
       -0.04528558 -0.048774406 -0.06979885 -0.03340348
000090 1f 59 21 3e a8 90 cc 3c 0b d8 a5 3d e3 a1 0f 3d
       0.15756653 0.024971321 0.080978476 0.035066497
0000a0 71 f5 54 bb 04 17 94 3c 00 41 28 be 00 bf 8b 3d
       -0.0032494927 0.018077381 -0.16431046 0.0682354
0000b0 2a ac 95 bd 57 1a 0c be 8a 88 d2 be c3 f0 c4 3c
       -0.07308228 -0.13681923 -0.41119796 0.024040585
0000c0 cf 17 f5 3d 70 d3 1c be 07 94 31 3e 45 18 40 be
       0.11967432 -0.15315032 0.17341624 -0.18759258
0000d0 b6 46 a9 bd 6b c5 3c 3e f6 82 f1 bd e2 a1 df 3d
       -0.0826544 0.18434684 -0.11792557 0.109195486
0000e0 3e 2f 84 be 16 5a a0 bd 1e 44 75 bc 0b 24 94 3c
       -0.25817293 -0.078296825 -0.014969854 0.018083593
0000f0 54 c4 a5 be 14 a9 bf 3c 20 fe 06 3e 0b 78 ef 3d
       -0.3237635 0.023396052 0.13182878 0.11692818
000100 f9 d5 c0 3b fe b1 af 3c 34 47 56 3c 67 f6 01 3e
       0.0058848825 0.021447178 0.0130785 0.12691651
000110 5b 9d 2a bd c5 df 65 3d c7 a3 84 3e 46 2b 21 be
       -0.041653972 0.056121606 0.25906202 -0.15739164
000120 f0 79 10 3d 4f 01 14 3e bc 4a da bd 7f f5 9e bd
       0.03527254 0.14453624 -0.10658786 -0.077616684
000130 b9 40 7a 3d e4 c9 8e 3c 33 50 e5 3d 5e f2 09 3c
       0.06109688 0.017430253 0.111969374 0.008419601
000140 8c d6 93 bd 19 64 1b 3d 0c 12 04 bc 57 f5 f4 bd
       -0.07218656 0.037937257 -0.008060943 -0.11960857
000150 dc ac c2 bc 18 9e 10 3e 5c e4 b2 bd 17 a1 62 3e
       -0.023764066 0.14122808 -0.08734962 0.22131763
000160 a0 3a 07 3c a3 f4 3a bd 4b 1f 75 3b 57 19 71 3e
       0.008253723 -0.04564346 0.0037402685 0.23544823
000170 ab 31 44 be 33 7f 65 3e 08 aa 2d 3e 0e 0a 16 3e
       -0.19159572 0.22411804 0.16959393 0.14652273
000180 0a 5e 46 3e 7a 9c e3 3d e3 a0 79 bc 35 3c e4 3d
       0.1937181 0.1111383 -0.015236112 0.11144296
000190 e3 ee 18 3e ad 33 ee 3d 54 79 4e bc 63 40 5b 3e
       0.14934878 0.1163095 -0.012602169 0.2141128
0001a0 8c 7b b3 3d d6 55 8b 3e f0 c2 ab 3d 0a a1 50 bc
       0.08763799 0.27213925 0.08386791 -0.012733707
0001b0 c8 4f ce 3d 43 3a f0 bd c1 e6 7f bd 4b 2f 40 3e
       0.10073811 -0.117298625 -0.062475923 0.18768041
0001c0 a9 e2 58 3d f3 8c 2d 3e 8a f6 95 3e ec 6b 2a bd
       0.052950535 0.16948299 0.29289657 -0.04160683
0001d0 2c 33 a5 3c 2d e4 10 3e 7e 21 86 bd 53 cd 2b 3e
       0.020166002 0.14149542 -0.06549357 0.16777544
0001e0 bd ec 64 bd 77 45 cb 3b 53 6a 81 3c 24 db 6b be
       -0.055889834 0.006203349 0.01579777 -0.23032814
0001f0 89 a6 87 be 3a 76 3e bb 21 bc b4 3e 04 e6 32 3d
       -0.26494244 -0.0029062168 0.3529978 0.04367639
000200 fc 96 b7 bd ca 0a 13 be 5c 39 75 bd 5d 99 75 3d
       -0.08964345 -0.14359584 -0.059869155 0.05996071
000210 44 ff 87 3d 65 31 81 bc be f1 ed bd 4a 9e a6 bc
       0.06640485 -0.015770623 -0.11618374 -0.02033915
000220 97 65 f4 3c d2 a3 a6 3d 38 12 4e be f2 e3 de 3d
       0.029833598 0.08136715 -0.20124137 0.10883321
000230 18 7b d1 3d c1 e7 2f be df 43 eb 3d 1c e1 f1 3d
       0.102285564 -0.17178251 0.11487555 0.11810514
000240 6d 60 93 3d 19 74 0a be 66 5b 83 3c 78 58 af bc
       0.07196126 -0.1352085 0.016034793 -0.02140449
000250 0c 0a 00 be 85 c8 ae ba 57 69 1b 3d ff 85 22 3e
       -0.12503833 -0.0013334906 0.037942257 0.15871428
000260 75 b4 66 3b d2 23 38 be 65 59 2f be 23 d6 e8 bc
       0.0035202776 -0.17982414 -0.17123945 -0.02842242
000270 c4 b9 20 be 67 b2 b1 3d d2 ad 27 3e 80 ba 06 3e
       -0.15695864 0.08676606 0.16374901 0.13157082
000280 41 a9 22 be 9d 3d de bd 30 2c 1b 3e e5 cf d6 bb
       -0.15884878 -0.108515956 0.15153575 -0.0065555447
000290 d2 0c 45 3d 55 e8 a0 3d 57 c4 0c be 70 39 c8 bd
       0.04810793 0.07856814 -0.13746773 -0.0977658
0002a0 c2 f1 43 3d a2 1f 21 bd 50 53 c5 bd d6 59 ec 3d
       0.04783798 -0.039336808 -0.09635031 0.11540572
0002b0 0d f7 3e bc 42 88 30 3e f7 aa 37 3e a9 0f a9 3d
       -0.011655581 0.17239478 0.17936312 0.0825494
0002c0 ca 9f f1 3d f6 26 03 be 3a a5 cc 3c 58 23 19 be
       0.117980555 -0.12807831 0.02498113 -0.14954889
0002d0 93 8c 29 3e f7 5b e4 3a 4b 5f e2 bd 3c 71 ac bd
       0.16557531 0.0017422427 -0.11053332 -0.08420035
0002e0 e2 d4 2e 3e a5 16 05 3e 15 87 56 bd 23 c9 73 3d
       0.17073396 0.1299692 -0.052374918 0.05951799
0002f0 98 45 f7 bd 79 ca 0c 3b 3e 34 a6 3d 5d 07 5a bd
       -0.12073821 0.0021482988 0.08115433 -0.05322968
000300 63 32 dd 3c 07 2b f3 3d 81 f9 a4 3d a2 51 55 bb
       0.027001565 0.11873441 0.080554016 -0.0032549878
000310 30 54 14 3d 4f f9 83 bd dc 62 40 3d 09 2b 6a 3d
       0.0362131 -0.06444036 0.04696928 0.057169948
000320 d4 d8 5a 3e 9b e3 a3 bd 15 f0 fc bd aa 78 93 3c
       0.21371776 -0.08002397 -0.123504795 0.018001873
000330 2a 61 03 3d ce 71 54 3c 48 1d 08 3d db 81 92 bd
       0.032075085 0.012966586 0.03323105 -0.07153674
000340 c0 f6 a7 bd ae 6d 0c bd 53 22 fa bd 82 0f ab 3c
       -0.08201361 -0.034284286 -0.12213578 0.020881418
000350 56 d9 2b 3d e4 bd d2 3d 9c e9 bc 3d 10 ed 28 3d
       0.041955315 0.10290125 0.09224245 0.041241705
000360 99 6e 43 3e 49 a0 9c 3c 10 d6 26 3b ab 55 03 3e
       0.19085158 0.019119399 0.002545718 0.12825648
000370 34 27 5e be ce 4e 2b 3e 8d 6b 6f 3d cd 8d 4b 3d
       -0.21694642 0.1672928 0.058452178 0.04969578
000380 30 07 07 3e 35 f6 33 3e 62 96 a3 bc 26 90 20 bd
       0.13186336 0.1757439 -0.019969169 -0.03919997
000390 6b 83 b5 3d 21 34 20 3d d0 68 48 3d 29 d8 56 3e
       0.088629566 0.039112214 0.048928082 0.20980896
0003a0 63 26 52 3d 99 6d ea 3d 8e 70 53 bd b6 07 88 3d
       0.05130614 0.11446685 -0.051621012 0.06642096
0003b0 28 8f dd bd 6e 08 a9 bd 57 64 dd bc 52 e4 94 3c
       -0.108183205 -0.08253561 -0.027025385 0.018175278
0003c0 70 5a d4 3d 12 e3 13 3d f8 fa 77 3e 07 b7 34 3d
       0.10368812 0.036105223 0.2421683 0.04411986
0003d0 4e d0 c6 bd 07 30 af 3d 00 b6 e5 bd 3f 10 1d 3d
       -0.097077 0.08554082 -0.11216354 0.03834557
0003e0 2e 57 9c be 62 08 af bd ce 8a 01 3e fc 57 10 be
       -0.30535263 -0.08546521 0.12650606 -0.14096063
0003f0 95 e1 a1 be 10 49 ae 3d 6d ad ae 3e ea a2 be 3d
       -0.31617418 0.08510029 0.34116688 0.09308417

lstm.weight_hh_l0 f4 [256, 64]
000000 bc 2c c6 3d af f4 0f 3e 0b 72 63 3d 38 4e a6 bd
       0.09676501 0.14058183 0.05552868 -0.08120388
000010 9f ad f4 3a 89 e4 02 bc 2d 41 09 3e 16 2e a5 bd
       0.0018667466 -0.007989057 0.13403769 -0.08065431
000020 90 24 a6 bd ae 3b 87 3d 50 fa b1 bd 07 67 32 3d
       -0.081124425 0.0660318 -0.086903214 0.043555286
000030 8c 59 f5 bd 5f f2 75 3d e4 71 ca 3d 67 7e a5 3c
       -0.1197997 0.060045596 0.09885004 0.020201875
000040 c1 c1 c1 bd 40 b2 b3 3d 4e 61 15 bd 4f 43 10 bd
       -0.09460784 0.08774233 -0.03646975 -0.03522044
000050 57 60 b9 bd 43 6a a0 bd 9b a4 92 bd ab 57 ae 3d
       -0.090515785 -0.07832768 -0.07160302 0.08512815
000060 2f 54 d6 bd 88 37 08 be cd 46 8d bd df 2e 1a 3d
       -0.104652755 -0.13302433 -0.0689827 0.037642356
000070 aa af 91 bc 77 6b 03 be 88 59 de bc c5 c0 25 be
       -0.017783958 -0.12833963 -0.027142301 -0.16186817
000080 83 c2 5e 3d 8a 0d 8e 3c e0 fa b3 3d 8d 47 9c bc
       0.05438472 0.01734044 0.08788085 -0.019077087
000090 f8 4b 08 be 7c b6 cd bd 07 f9 63 3c d1 da 04 bd
       -0.1331023 -0.10044572 0.013914353 -0.032435242
0000a0 38 4f 0b 3e a5 79 7e bd 4e 19 df bd d3 de 25 3d
       0.13604438 -0.062127728 -0.10893498 0.040495705
0000b0 29 88 74 bd 68 9c 6f 3d 48 f6 8f ba 08 c9 0c 3d
       -0.059700165 0.05849877 -0.0010983432 0.034371406
0000c0 ea 09 a6 3d 2c 9f 15 bb d3 ca 43 bd 8c e8 88 bd
       0.0810736 -0.002283047 -0.04780085 -0.0668498
0000d0 1c 2c 28 bd 5b 5b 04 be 33 e1 20 3e 34 da 97 3d
       -0.04105769 -0.12925474 0.15710907 0.07414666
0000e0 61 e6 75 bd 18 3c 1a 3d 2d 4f 7d 3d 52 d5 d9 3d
       -0.06003416 0.037654966 0.061843086 0.10636391
0000f0 42 3a 09 3e c5 0f 6b bc 51 15 27 bc 38 3f 01 3e
       0.1340113 -0.0143470215 -0.010197953 0.12621772
000100 91 36 76 3c 46 3b 7b 3d de a5 15 3d 95 d9 6f bd
       0.015027658 0.061335824 0.036535136 -0.05855711
000110 64 5e 1f 3d 4d d0 e5 3d b4 60 59 bd 57 a7 c1 bd
       0.038908377 0.11221371 -0.05307074 -0.09455746
000120 f5 c3 7d 3c 0e 03 d0 bd c8 e7 89 3d f0 50 bd 3d
       0.015488614 -0.10156833 0.06733662 0.09243953
000130 90 6c a3 bd 29 56 0c be df 60 90 3d aa cd 27 3d
       -0.07979691 -0.13704742 0.07049727 0.04096762
000140 6a aa b7 3d 21 db 38 bc c0 43 5d 3c 6e b6 57 3e
       0.08968051 -0.011282713 0.013504922 0.21065685
000150 03 7e 1d 3d 9f d5 89 3b 31 60 f6 3d 1d 8b 95 bd
       0.038450252 0.004206374 0.12030066 -0.073019244
000160 70 06 b3 3d c4 ff 4c 3d ab ae 37 3d 5e 3a fe bd
       0.08741462 0.050048605 0.04484431 -0.124134764
000170 e9 13 85 3d 90 a5 23 be fc 2c f6 3d 43 97 8d 3d
       0.06497938 -0.15981126 0.12020299 0.069136165
000180 80 12 61 3d b6 2f 3b bb 6c 8a 41 bc 41 c7 0f 3d
       0.054949284 -0.0028562373 -0.0118127875 0.035102133
000190 fd e4 db 3d 89 6b d2 bc 16 11 14 bd 1c 6a d0 bd
       0.107370354 -0.025686042 -0.036149107 -0.10176489
0001a0 f7 04 1a be 1e 02 3d 3c cb 86 11 be ed 79 94 3d
       -0.15040956 0.011536149 -0.14211576 0.07249818
0001b0 e2 e7 86 bd d0 90 65 bd 2b a8 23 bd 52 fd e0 3d
       -0.06587197 -0.056046307 -0.0399553 0.10985817
0001c0 66 73 1b 3e c2 37 02 be d6 f1 b6 bd 06 30 8a 3c
       0.1518074 -0.12716582 -0.08932845 0.016868602
0001d0 33 55 bc bd 6d 22 a7 bd cb 86 46 bd 31 2f 63 bd
       -0.09195938 -0.08160863 -0.048468392 -0.055464927
0001e0 2e ca 02 3e b7 61 c0 3d 82 3a 3a 3d 72 15 02 be
       0.12772438 0.093936376 0.045465954 -0.12703493
0001f0 dc 09 fd bc 40 1f 1a 3d 4b b9 1c be 8a d0 45 3c
       -0.03088849 0.03762746 -0.15305059 0.012073645
000200 c9 d5 4d bd 2a 5d 2d be b1 44 36 be 12 4a 89 3d
       -0.05025271 -0.1693007 -0.17799641 0.06703581
000210 ab ed de 3d b5 be 2f 3d 9e e6 a7 bd d3 c2 2f 3d
       0.10885175 0.04290648 -0.081982836 0.04291041
000220 dd 48 78 3d 34 c4 f1 bc 1c 7b b3 3d 70 f9 b3 3b
       0.060616363 -0.029512502 0.087637156 0.0054923818
000230 7b 53 6c bc 99 28 5d bd 39 e0 5f 3c d5 47 a6 3c
       -0.0144242 -0.053993795 0.013664299 0.020297924
000240 15 c6 ba bc da aa bc 3c 90 9a 6b 3d e8 0b 50 3e
       -0.022799531 0.023030687 0.05752045 0.20317042
000250 bc ac 1a bd 3f 3c e3 3c 14 eb 88 bd 59 91 fc 3d
       -0.03776239 0.027738689 -0.066854626 0.1233241
000260 fb 2f d1 3d c1 bc 0d 3c 3c 2d f8 bd 5e ce 71 bd
       0.1021423 0.0086509595 -0.12118003 -0.059034698
000270 d6 65 d0 bc b6 9f eb bd 86 e9 bf 3c d0 e3 28 3d
       -0.025439184 -0.11505072 0.023426782 0.041232884
000280 71 83 3c 3c 62 2e 98 3d 2d b5 e8 3c 0d 5f 8a 3d
       0.011505947 0.07430722 0.028406704 0.06756411
000290 54 23 ed 3d f9 63 74 bd 86 c8 47 3d 2b 5e 1f be
       0.11579004 -0.059665654 0.04877522 -0.15563266
0002a0 f7 bd f1 bd 12 42 ed bd 6e 96 1f bd c6 69 99 bd
       -0.11803811 -0.115848675 -0.03896182 -0.07490878
0002b0 09 28 8f bd 41 24 28 be 47 16 73 bd 04 d0 bd 3c
       -0.06990058 -0.1642008 -0.059347417 0.023170479
0002c0 aa 64 0d 3e 8f f4 11 be d5 ac 70 bd 6e e3 1e 3e
       0.13807932 -0.14253448 -0.058758575 0.15516445
0002d0 48 70 b1 3d db c4 99 3d d1 b7 11 be 89 4e e5 3c
       0.08663994 0.0750825 -0.14230277 0.02799155
0002e0 5d df 6d bc f1 38 07 3e 46 ea 0d be bc b8 4f bc
       -0.014518586 0.13205315 -0.138589 -0.012678321
0002f0 a1 1f d8 3d 99 9e 1f bd 63 93 31 be 76 68 a0 bd
       0.10552908 -0.03896961 -0.1734138 -0.07832424
000300 87 85 34 3c 43 84 e1 bd 2d 51 8e bc 07 30 85 bc
       0.0110181635 -0.11011555 -0.017372692 -0.016258253
000310 94 54 b8 3d 0f 7a 93 3d df d9 3f 3d e4 a0 58 bd
       0.09000507 0.07201015 0.046838637 -0.052887812
000320 77 2c b1 bd 5a 0f 20 3d 11 67 61 3d db 7b 3c bd
       -0.08651059 0.03907714 0.055029932 -0.046016555
000330 a7 2c ab 3d 57 91 12 be cd 6b ab 3d 4f 0d 37 3d
       0.08358126 -0.14313255 0.08370171 0.044690426
000340 07 d3 b6 bd 28 5c 6d bd 15 d1 d2 3d e8 50 2b 3e
       -0.08926969 -0.057949215 0.102937855 0.16730082
000350 c3 24 9c 3c bd 10 f3 bd 9d de 02 3e 57 77 8c bd
       0.019060498 -0.11868427 0.12780233 -0.068587
000360 42 d0 f7 3c f6 17 cb bd 5e fb 10 be 16 cf db bd
       0.030250672 -0.099166796 -0.14158389 -0.10732858
000370 50 d7 8a 3d 56 d0 22 be 4b 0b ea 3d 78 45 2f 3e
       0.06779349 -0.15899786 0.11427935 0.17116344
000380 4e 5d c4 bd f9 74 83 3c 19 23 85 bc c0 2f 1a be
       -0.09588109 0.016046988 -0.016252087 -0.15057278
000390 d5 49 9e bd e2 7f a3 3a 1f dd fb bd 55 8c 49 bd
       -0.07728926 0.0012474025 -0.12298035 -0.049206097
0003a0 fe d6 1f 3d 2c 5a e9 3b fe ef 2b be 37 cd aa 3d
       0.039023392 0.007121345 -0.16790769 0.08339923
0003b0 17 b7 8d 3c 82 a3 eb 3c 6e 89 c3 3d 18 08 f0 bd
       0.017299218 0.02876449 0.09547697 -0.11720294
0003c0 bf 5e 15 bd 5f 63 b6 3c 1a 07 f8 bc dc 3c 91 bb
       -0.03646731 0.02226418 -0.030276824 -0.004432304
0003d0 02 a1 dd bc ec 60 3c 3d c6 a6 b1 bd 28 46 81 3b
       -0.027054314 0.04599087 -0.08674388 0.003945131
0003e0 11 98 92 bc 28 21 36 3e c3 87 d7 3b 48 63 8b bd
       -0.017894777 0.17786086 0.0065774634 -0.06806046
0003f0 a4 79 f7 bd 57 69 0f 3e 0e e5 16 be 14 2e 20 be
       -0.12083748 0.14005028 -0.14735815 -0.15642577

lstm.bias_ih_l0 f4 [256]
000000 ee ab 42 3d 0f f2 da 3c 76 3b 5b bd a7 e7 96 bd
       0.047527246 0.02672675 -0.053523503 -0.07368403
000010 0f f1 15 3e 27 3f 98 bd 40 79 d5 3a f0 98 22 3e
       0.14642738 -0.0743392 0.0016286746 0.15878654
000020 e7 e8 76 bc d0 a6 bf 3d c3 94 f0 3d 40 13 c3 bd
       -0.015070177 0.09357989 0.11747124 -0.09525156
000030 a5 0d 11 3e 65 38 a3 bd 97 78 6f 3d 2e fb b4 3d
       0.14165361 -0.07969741 0.058464613 0.08836971
000040 0d 60 a9 3c dd ba ce 3d 7f 2e 5f bd 6f f7 91 3c
       0.020675683 0.10094235 -0.0544877 0.01781818
000050 fd aa 39 bd b5 21 df 3d 04 fa 6e 3d 26 6c da 3d
       -0.045329083 0.10895101 0.058343902 0.10665159
000060 e5 be a2 3d 1e 71 08 3d ba 51 67 bd c3 5a 87 bd
       0.079465665 0.033311002 -0.056474425 -0.06609108
000070 2d 90 12 bd 6e 08 2d bc 7a 6c 04 bd 1c f0 8d 3d
       -0.035782028 -0.010561092 -0.032330014 0.06930563
000080 af 2c d9 bd 22 53 8a bd 46 d3 f2 3d 53 46 a2 bd
       -0.10604226 -0.067541376 0.118567035 -0.079235695
000090 ff d9 af 3b bc 0f b3 3d ee ed 94 bb c4 e1 87 3d
       0.0053665633 0.087432355 -0.004544965 0.06634858
0000a0 57 9b b1 3d 80 9d 8a 3d 3e fa a8 3c 81 d3 9a bc
       0.08672207 0.06768322 0.020627137 -0.018899681
0000b0 90 1a 21 bd 3e 09 af 3e 05 af 79 bd da 4a 1e 3e
       -0.039331973 0.3418674 -0.060957927 0.15458241
0000c0 6f 88 c8 3d 75 f5 68 3d dd 5a f9 3d 9d e8 e9 bc
       0.09791648 0.05687471 0.12175534 -0.028553301
0000d0 38 de 62 3d 23 f3 4d bd 7c f9 d7 3d 86 c1 40 3b
       0.055387706 -0.0502807 0.10545632 0.0029412224
0000e0 e1 70 16 3e c3 f6 43 bd 40 21 e9 3b d2 5c c1 3d
       0.14691497 -0.047842752 0.0071145594 0.09441532
0000f0 c2 58 03 3d 52 75 bf bb 15 d0 c7 3d 5c 56 ae 3d
       0.032067068 -0.005842843 0.097564854 0.085125655
000100 0f 96 70 3d 1e d7 59 3d cc 93 d0 3c 27 e5 3b 3d
       0.058736857 0.053183667 0.0254611 0.045872834
000110 49 3f 18 3e 1b 16 b4 bd fc 2f 1d 3e cf fe c2 3d
       0.14867891 -0.08793279 0.15350336 0.09521257
000120 3f bb b1 bd 08 16 0e bc cd 97 bc bc 04 46 e4 3d
       -0.086782925 -0.008672245 -0.023021603 0.11146167
000130 ca 87 9e bd 8b 61 3c 3c f7 2d f0 3d e0 bf 23 3e
       -0.077407435 0.011497865 0.11727517 0.15991163
000140 ea 9b e0 bd f6 24 f3 3c ef 4c eb 3d d8 42 ec 3d
       -0.10967238 0.02968071 0.11489283 0.11536187
000150 a6 a5 79 3d 28 dd 46 bd 54 ff c0 3d 02 37 1f 3e
       0.06094899 -0.048550755 0.094237 0.15548328
000160 21 a3 11 3e fc bd 1b 3e 66 1d 1d 3e b5 7f a6 3d
       0.14222385 0.15209192 0.15343246 0.08129827
000170 f2 1e 46 bd 91 19 07 3e fe 39 b0 bc 44 03 49 3d
       -0.048369355 0.13193347 -0.021512028 0.04907538
000180 0a e8 b5 3d 10 25 b2 3d 43 f4 13 bc 2e 8f 61 bd
       0.088821486 0.08698475 -0.0090304045 -0.055068187
000190 f5 a8 19 bd ad 91 59 3d 15 82 49 bd 10 fe 88 bd
       -0.037514646 0.053117443 -0.04919632 -0.066890836
0001a0 90 45 98 3d f4 d0 7e bd f0 f2 a7 3d 23 e4 c4 3b
       0.07435143 -0.062210992 0.082006335 0.0060086413
0001b0 cb a0 37 3d 3c c5 be 3e 9f f4 6a bc 9a 82 ba 3c
       0.04483108 0.37259853 -0.014340549 0.022767354
0001c0 49 b0 99 3d f8 46 1c 3e 27 03 24 3e 24 48 32 3e
       0.07504327 0.15261447 0.16016828 0.17410332
0001d0 8f 5b 8a 3d 15 fa 92 bb 19 f0 ae bc 49 1b 0e 3d
       0.06755745 -0.0044853785 -0.021354722 0.03469399
0001e0 5f 32 b6 3d cf ec f6 3d be 85 b0 3d db aa 90 bd
       0.08896326 0.120568864 0.08619259 -0.07063838
0001f0 62 f0 a0 3d 96 28 e1 3d 40 27 5c 3e e9 fb 25 3e
       0.078583494 0.10994069 0.21499348 0.16209377
000200 d9 ec 6a bd d2 36 62 bd c1 30 8d 3d 0b b3 0f 3c
       -0.05735478 -0.055228062 0.06894065 0.0087707145
000210 85 92 33 bd 01 d3 f5 3d e5 6b 83 3d 18 9c f4 bc
       -0.043840904 0.120031364 0.064170636 -0.029859588
000220 33 aa 97 bc b4 79 c4 3d 27 67 7b 3c 4a 1a 5d 3d
       -0.018513774 0.095935255 0.015344418 0.05398015
000230 e8 eb c8 3d c1 4f ed bd 4a c2 09 3d 2e 96 10 3d
       0.098106205 -0.115874775 0.033632554 0.035299473
000240 ea a3 d4 3d 5c f4 1a 3d c8 c9 ad 3d 36 98 70 bd
       0.103828266 0.037830696 0.08485752 -0.05873891
000250 65 ff c9 bc 4a 70 82 bd c9 e1 cc bd 2e 8a 65 3d
       -0.024657914 -0.06369074 -0.100040026 0.05603998
000260 85 1e 54 bd 72 8b a9 bc 8c fb 65 b9 6f 3b 2c bd
       -0.05178692 -0.020696376 -0.0002193285 -0.042048868
000270 f9 21 00 bd cb ca 55 3d 9b 31 a5 3d d6 91 35 bd
       -0.0312824 0.05219535 0.08066102 -0.044328533
000280 d4 3e 51 bd ea f8 1c 3d 44 4a b5 3d 6d 41 85 bd
       -0.05108531 0.03832332 0.08852056 -0.065066196
000290 0a fb b4 3d ec 64 4c bd c7 f9 5f bd da b1 c7 bc
       0.088369444 -0.049900934 -0.054681566 -0.024376798
0002a0 83 78 78 3d b9 4b 8c bb 92 96 1e 3d a1 57 92 3d
       0.060661804 -0.004281488 0.038717814 0.0714562
0002b0 45 b9 8c bd 15 68 42 3d 7c 95 0b bc 33 bd c7 bc
       -0.06871275 0.04746254 -0.008519527 -0.02438221
0002c0 38 73 d7 bc 96 5c 85 3c d7 a1 2d bd 34 cc be 3d
       -0.026300058 0.0162795 -0.04239067 0.093162924
0002d0 7e 2b 29 3c 8d 5d d2 3d 83 25 d8 3b 7e b1 44 bd
       0.010325311 0.1027175 0.0065962686 -0.048020832
0002e0 e6 72 66 bc e6 f7 92 bd 7c 79 83 3a 0d 72 a7 3d
       -0.01406548 -0.07176189 0.0010030712 0.0817605
0002f0 9f f6 96 bc 9a ca 94 3d b8 d4 e5 bd f6 e9 f1 bc
       -0.018428145 0.07265206 -0.112222135 -0.029530507
000300 df f3 9a 3d 07 f1 77 3d 76 f5 24 3d f2 97 fe bc
       0.07566046 0.060532596 0.040273152 -0.031078313
000310 68 a5 cb 3c 25 1a 98 bb 30 8b 8c bb 92 eb 1b 3d
       0.024859145 -0.0046417885 -0.0042890534 0.038066454
000320 df 02 05 bd 6a 17 b4 bc 58 61 16 3c 1b 2d f1 bb
       -0.03247344 -0.021983821 0.009178482 -0.0073601133
000330 c5 dd 4e 3c 5e 46 7e 3d 4a 0b 73 bc 5c 20 0a 3e
       0.012626116 0.062078826 -0.0148342345 0.13488907
000340 85 33 88 bc b7 ee a2 bd a4 f8 8b 3c ff bc 11 bd
       -0.016626129 -0.079556875 0.017086335 -0.03558063
000350 33 bb 12 3e ca b0 ce bc c2 6b 8c 3d 95 5e 91 3c
       0.14329223 -0.025230784 0.06856491 0.017745296
000360 38 f7 18 bd 60 5b 92 bd bc 43 9f bd 20 48 05 3e
       -0.03734514 -0.07146335 -0.07776591 0.13015795
000370 f7 bd 53 3c f6 3a 97 bd d6 f5 ab bd 92 94 96 3c
       0.012923709 -0.07384293 -0.08396499 0.01838139
000380 83 0e ad ba b2 2b 99 3d 1d 1b 45 3d 17 85 88 bc
       -0.0013203177 0.07479037 0.04812156 -0.016665025
000390 9e 5f 9c bd 77 4f af bd 19 87 89 3d 51 d9 2b bc
       -0.07635425 -0.085600786 0.06715221 -0.010488824
0003a0 71 5f 33 3d 0e 78 b3 bd 3b 12 cc bc 4a 41 84 bc
       0.043792192 -0.08763133 -0.024911037 -0.016144414
0003b0 26 58 86 3d aa 54 c8 3e 9c f0 bf ba a2 0e 1a 3d
       0.06559782 0.39127094 -0.0014643851 0.03761161
0003c0 1c e1 15 3c 4f 5b 8e 3d 97 5f 81 3d 41 89 7b 3d
       0.009147909 0.069510095 0.063170604 0.061410192
0003d0 4a bf 35 bd f4 6a 98 bd 82 4e 25 3e cf 2a b2 3c
       -0.04437188 -0.07442275 0.1614323 0.021748928
0003e0 00 ee 16 3e 27 db 7d bd f6 69 ab 3d f9 c9 b2 bd
       0.14739227 -0.061976578 0.0836982 -0.087299295
0003f0 57 ac 37 3e 40 3d ad bd f7 f9 29 3e 3e db bf 3d
       0.17936836 -0.08458948 0.1659926 0.09367989

lstm.bias_hh_l0 f4 [256]
000000 bf 6f e4 bd 1f 81 dd 3d ef 82 b7 3c b7 38 07 3e
       -0.111541264 0.108156435 0.022401301 0.13205229
000010 e3 a5 0b 3c 6a 98 dc 3c 72 a3 00 3d b9 be 1f 3e
       0.008523437 0.026928145 0.031405874 0.15600099
000020 93 6d 56 bd 29 a1 71 3d 9a 61 2e 3c 5c 29 97 bd
       -0.052350592 0.058991585 0.010643387 -0.073809355
000030 f0 35 d1 3d 6a ce 9c bd dd 8c 7d bd 5f 14 af b9
       0.10215366 -0.07656558 -0.061901916 -0.0003339378
000040 bb 20 fb 3d c3 19 dd 3d d4 d0 19 bd 55 d1 25 bc
       0.12262102 0.10795929 -0.03755267 -0.010120709
000050 97 75 c0 3d 0a 10 fe 3d 7f 79 b0 3c 66 19 75 bd
       0.093974285 0.12405403 0.021542309 -0.059838675
000060 57 c7 29 3c 2a fd 93 3c 04 59 cc 3d e1 ed 04 3e
       0.010362468 0.018065054 0.09977916 0.12981369
000070 40 d2 7f 3d 92 dc 83 3c e2 e1 5e 3d 47 cd 57 3d
       0.06245637 0.016096387 0.054414637 0.052686002
000080 d1 c3 39 bd 09 90 1a 3e 5d 84 d1 3d 4f d6 8e 3d
       -0.04535276 0.15094008 0.102303244 0.0697447
000090 14 40 eb 3c 84 d4 90 bd 17 e6 a0 bd b0 63 e8 3d
       0.028717078 -0.07071784 -0.07856386 0.11347139
0000a0 68 ed 20 bd dd a4 08 3d 3e 49 df 3d c2 ad b6 bd
       -0.03928891 0.03336035 0.10902642 -0.089198604
0000b0 06 c4 84 3d 57 70 a6 3e 1e 02 f1 3d 46 a7 68 bd
       0.06482701 0.32507583 0.11767982 -0.05680015
0000c0 82 c3 ce bd 1f 62 e7 bc ea 12 03 bd e7 aa 5c bd
       -0.10095884 -0.02824503 -0.03200046 -0.053873923
0000d0 cd 02 79 bc 0e f4 0a bd c7 b7 60 3c ee b1 d7 3d
       -0.015198422 -0.033924155 0.013715691 0.10531984
0000e0 6b 94 0e bd 45 41 79 bc 30 47 3a bd c2 5e 5d 3b
       -0.03480951 -0.015213315 -0.045478046 0.0033778404
0000f0 eb 16 25 bd e1 75 02 be 3c 08 b2 3d 18 46 9f bd
       -0.04030506 -0.1274028 0.08692977 -0.07777041
000100 b1 33 64 3d 0f 08 71 bd 50 e0 b8 3d 4c e8 f7 3d
       0.05571336 -0.058845576 0.09027159 0.12104854
000110 1d 72 d2 3d c0 ca aa 3d 7c 94 8c bc fc 43 cd bb
       0.10275672 0.08339453 -0.017160647 -0.006264208
000120 6e 9e 10 3e 4e 0e b0 3c 6b 43 25 3e e8 fd 99 bd
       0.14122936 0.021491196 0.16138999 -0.07519132
000130 c0 3f ac 3d 29 94 a3 3b 47 ec a1 3d 00 5f 2d 3d
       0.08410597 0.0049920273 0.079063945 0.042326927
000140 1d fb e6 3c ea 11 68 bd 71 92 05 3d 37 ca 6b bd
       0.028195912 -0.05665771 0.03261036 -0.057565894
000150 b6 59 ad 3d 8f e9 2d 3e 24 cc a0 3d 41 0d 85 bb
       0.08464377 0.16983627 0.07851437 -0.004060418
000160 35 16 65 bc 98 60 61 bd 2a 7a ed 3d 77 58 47 3d
       -0.013982345 -0.05502376 0.115955666 0.04866835
000170 3a d7 65 3d 31 96 51 bd ce ba a5 3d 39 f3 a1 3d
       0.05611346 -0.051168624 0.08092271 0.07907719
000180 40 ea de bc 15 d1 e4 3d ef fa 08 3e 85 5b 26 bd
       -0.027211308 0.11172692 0.13376974 -0.040614624
000190 e4 f6 99 3c c9 4d 8c bd 97 7b ae 3d 56 b2 96 bd
       0.018794484 -0.06850774 0.08519667 -0.07358234
0001a0 b1 4e c1 3d b4 63 dd 3d bc ae e6 3d 4a 54 ad 3c
       0.09438837 0.108100325 0.11263797 0.021158356
0001b0 5a 41 a7 3d b0 78 c2 3e b6 3d 4a 3e 42 17 3d 3e
       0.08166762 0.37982702 0.19750103 0.18465903
0001c0 69 f0 0e 3e b3 3c 99 bc 05 f2 88 3d a9 48 35 bd
       0.13958897 -0.018705701 0.066867866 -0.044258747
0001d0 10 ee b8 3d 5b ee c3 3d 02 c0 eb 3d 0b 3d 81 3d
       0.09029782 0.09566947 0.11511232 0.06310471
0001e0 ec 23 d2 bc 82 40 ce 3c 68 42 1b 3e e4 4d d4 3d
       -0.025651895 0.025177244 0.1516205 0.10366419
0001f0 0b 25 21 3d aa fe a0 bc 6a 87 3d 3e c4 49 7b 3c
       0.039341968 -0.019652683 0.18508688 0.015337411
000200 89 8b 1f 3d 57 a3 da bc 12 d3 08 be 8a 11 3a 3d
       0.03895143 -0.026689215 -0.13361767 0.045426883
000210 f0 a8 80 3b ea 05 ca 3d 77 6a 8a 3c 76 79 2e bb
       0.003926389 0.09864409 0.01689647 -0.002662269
000220 fe cd 19 3c f1 82 9b bd e4 0c 3a 3d e3 39 93 3d
       0.009387491 -0.075933345 0.04542245 0.071887754
000230 30 7f b6 bc b2 53 04 be ad b8 6e bd fb 96 82 bc
       -0.022277445 -0.12922552 -0.05828159 -0.015941134
000240 44 df c6 3d e1 0a 13 bc 5e 7c 97 3d 23 41 81 bb
       0.09710553 -0.008974762 0.07396768 -0.0039445325
000250 5c 81 0e bc 29 3b 88 3d 67 5d d0 bd 07 ed 64 bc
       -0.008697834 0.06651909 -0.10174065 -0.013972527
000260 f0 f1 cb 3d b3 e9 d9 3c 22 84 9b bd a5 65 c3 3d
       0.09958255 0.026600694 -0.07593562 0.095408715
000270 98 63 ae 3c 39 a3 d0 bd 07 f7 5f 3d 7c 22 c1 bd
       0.021287724 -0.10187382 0.054678943 -0.094304055
000280 90 68 58 3b 2e 89 95 bd ab ff ce bd c1 66 9f bd
       0.0033021308 -0.073015556 -0.101073585 -0.077832706
000290 e9 01 18 bb 40 d0 ce 3d 73 29 7a 3d 97 08 2b bd
       -0.0023194498 0.10098314 0.061074685 -0.04175624
0002a0 e8 da ee bd 81 8b 3f bc 46 08 2c 3d f6 92 27 bc
       -0.11662847 -0.011690975 0.042000078 -0.010227909
0002b0 07 01 e9 3d f7 4c a7 bd 3d 27 e7 bd 89 fb b9 3c
       0.11377149 -0.08168977 -0.11286781 0.02270295
0002c0 1f cd e2 bc 80 0a 23 3b ca 10 04 3b fe cc ad 3c
       -0.0276857 0.0024878085 0.0020151609 0.021215912
0002d0 4a 4d 6f 3d f9 2a b6 3d f3 39 14 bd 05 7e 7d bd
       0.058423318 0.08894915 -0.036188077 -0.06188776
0002e0 19 85 c1 bd 88 13 07 3d 10 22 82 bc 1e 0a af 3d
       -0.094492145 0.03297761 -0.015885383 0.085468516
0002f0 5d 4a 0d 3d 57 62 1b 3d 2f c5 d5 3d 78 d4 46 bc
       0.034494746 0.03793558 0.104380004 -0.012135617
000300 4b 68 4b bd 88 a5 f9 3d 56 7f c7 b9 90 3f 1d 3e
       -0.04966001 0.12189776 -0.0003805111 0.15356278
000310 ce ed 6e bd 11 50 93 bd 93 7d f2 3d c4 7d b9 3d
       -0.058332257 -0.07193006 0.11840358 0.09057191
000320 42 2f 92 3d 0d 8b 50 bd ab 32 3b 3c 42 24 ac 3d
       0.0713792 -0.05091386 0.011425654 0.08405353
000330 af 13 25 3d c7 56 b9 bd fb 60 a5 bd 78 20 8f 3d
       0.040301975 -0.090497546 -0.08075138 0.06988615
000340 d0 87 11 bd 73 f5 84 bd 74 a4 ec bc fd 56 26 3d
       -0.03552991 -0.06492128 -0.028887011 0.040610302
000350 b6 5f 99 3d ab fd af bc cb 60 5f bd 19 48 37 3d
       0.074889585 -0.021483263 -0.05453567 0.044746492
000360 37 99 c9 3d 8a 36 b1 bc 06 43 11 3e 14 32 1e 3e
       0.098436765 -0.021632452 0.14185724 0.15448791
000370 55 ee c3 bc c9 e1 cc 3b 40 19 b3 bd 9c a0 9f 3d
       -0.023917357 0.0062525016 -0.087450504 0.07794306
000380 f7 50 8c 3c 27 16 7c bd 9d dd 14 3e a5 9c 23 bd
       0.01712845 -0.061544564 0.14537664 -0.03994431
000390 a2 8b 9e bd 77 23 66 3d 29 72 13 3e 65 8c fc 3c
       -0.077414766 0.056186166 0.14399017 0.030828664
0003a0 33 e0 65 3c b5 01 2f 3c 0e ac ab bc 4d 3a b8 3d
       0.014030504 0.010681559 -0.020956066 0.08995495
0003b0 42 75 c0 bd c1 6e b3 3e 74 15 07 3e 03 26 2b 3d
       -0.09397365 0.35045436 0.13191777 0.041784298
0003c0 69 6b 9e 3d 7f bd bd 3d 78 36 da 3d a6 6b aa 3d
       0.077353306 0.09264659 0.1065492 0.083213136
0003d0 79 f6 c7 3c 14 97 db bd 7a e5 d7 3d ac 74 9a 3d
       0.02440952 -0.10722175 0.10541816 0.07541785
0003e0 ac 9c b6 3d fd 56 4e 3d ec d9 18 3e 74 7a 82 bb
       0.089166015 0.050375927 0.1492688 -0.0039818827
0003f0 04 00 05 3e bf e0 54 3c ee 31 f6 3d d2 2d 87 bc
       0.12988287 0.012993037 0.12021242 -0.016501341

attn.weight f4 [1, 64]
000000 48 e3 34 3e 1e 65 25 be 7f 94 da bd d3 dd 39 3e
       0.17664826 -0.16151854 -0.10672855 0.18151025
000010 42 85 65 3d 63 1a 6c bd cd 4f 45 bd 46 71 12 3e
       0.056035288 -0.05764235 -0.048171807 0.14301023
000020 bc ec 2e 3e 7c 5a 8d 3c b2 12 68 bd a9 56 9d 3d
       0.17082494 0.01725506 -0.056658454 0.07682545
000030 e0 35 70 be a1 32 36 bd 52 f3 b3 3d dd 1e 4a 3d
       -0.23458052 -0.044481877 0.08786644 0.04934584
000040 7d 48 f1 bd 2a f1 7d bd 74 31 29 be b0 1c 91 3d
       -0.11781404 -0.06199757 -0.16522771 0.0708555
000050 6b 67 dd bd 81 e5 50 be e0 35 d4 3d be f8 ee bd
       -0.10810741 -0.20400049 0.10361838 -0.116685376
000060 aa 58 b8 3d 18 ab f3 3d 90 03 37 3d c2 32 35 be
       0.09001286 0.11897868 0.04468113 -0.17695144
000070 c1 6a b4 3e 63 7a a8 bc ef 85 e9 bd 91 64 61 3d
       0.35237697 -0.020566171 -0.11402499 0.05502755
000080 7e 22 63 bd 5d e9 2d be 56 7f bf bd a1 ff 24 be
       -0.055452816 -0.16983552 -0.09350459 -0.1611314
000090 e5 88 53 3b 26 fd be 3c 72 81 14 3c b4 de f3 bd
       0.003227764 0.02331407 0.009064065 -0.119077116
0000a0 60 25 17 be 62 2c fc 3c 67 7f c7 3c da 37 ec bd
       -0.14760351 0.030782882 0.024352742 -0.1153409
0000b0 9e de 92 3d d7 aa e9 3b ef 84 42 bd 81 b2 4b bd
       0.07171367 0.0071309614 -0.047490057 -0.04973078
0000c0 fc a0 af 3d 59 e1 9c 3d 2a ef c8 bd 8b 79 e6 bb
       0.08575627 0.07660169 -0.09811242 -0.007033532
0000d0 6d bc 01 3d 88 15 58 bc 98 a1 84 3e 3f fb 1a be
       0.031673837 -0.013188727 0.25904536 -0.15134905
0000e0 b3 5f 2a bc 88 20 bc 3d 06 05 82 3c 5f 19 85 3e
       -0.010398793 0.09185892 0.015871536 0.2599592
0000f0 12 ce 17 3e bd 9b 7d bc 27 13 68 be 00 a6 79 3d
       0.14824703 -0.015479025 -0.22663556 0.060949326

classifier.0.weight f4 [32, 64]
000000 8b 98 00 be 10 53 bd bd 78 b1 14 bd d0 10 1b 3e
       -0.1255819 -0.092443585 -0.03630206 0.15143132
000010 8b 17 cf 3d ee 76 13 bd 4c 61 2d be 62 88 c9 3d
       0.10111912 -0.036002092 -0.16931647 0.09840466
000020 bd 24 83 3d c1 22 17 3e 65 65 be bd 72 68 41 bd
       0.06403492 0.14759351 -0.09296683 -0.047218747
000030 6c ce be 3d 6d 24 cd 3c e7 4f 29 bd 55 62 9d 3d
       0.093167156 0.025041783 -0.041335966 0.07684771
000040 10 95 33 3e 51 d8 ac bd b6 8a 57 3d e0 e4 24 3d
       0.17537332 -0.084396966 0.05262252 0.040257335
000050 31 c8 7f 3d 80 2e 8b bd 15 4b 02 3e d1 09 e8 3c
       0.062446777 -0.067959785 0.12723954 0.028324993
000060 3f 57 2b bc fe 0e 4c 3d 4a 92 20 be 19 49 52 bd
       -0.010457813 0.049818985 -0.15680805 -0.051339243
000070 cb 72 03 be f7 e7 ec bd 11 72 34 3e d6 5e a7 3d
       -0.12836759 -0.11567681 0.17621638 0.081723854
000080 38 54 e7 bd 9e 6c 5c 3d 14 81 c3 3d 9b f9 92 bd
       -0.1129536 0.053814523 0.09546104 -0.07176515
000090 c2 6b 2e 3e cc 65 0b bc 37 b4 de bc dc a7 30 be
       0.17033294 -0.008508157 -0.027185543 -0.17251533
0000a0 82 85 0e 3b 98 dc da bc 30 d0 bc bd 87 dd 17 3e
       0.0021747057 -0.026716515 -0.09219396 0.148306
0000b0 d6 c5 12 3e e8 1d 07 bd 9d c8 63 bd 76 d1 7e bd
       0.14333281 -0.032987505 -0.05561124 -0.062211476
0000c0 08 54 c4 3d 9d e3 cb 3c f6 0b c9 bd 7f ed db 3d
       0.0958634 0.024888808 -0.098167345 0.10738658
0000d0 d1 0b fc bc eb 2f 00 3e 78 0f 90 3c f1 5a 41 be
       -0.030767353 0.12518279 0.017585501 -0.18882348
0000e0 de 94 43 bd ef 48 21 3e c0 39 9b bd 39 ac ef 3d
       -0.047749393 0.15750478 -0.07579374 0.11702771
0000f0 99 0a 24 be f5 be 68 3c 2a 74 70 3d 97 65 09 bd
       -0.16019668 0.014205684 0.058704533 -0.03354415
000100 fc 83 a2 3d 88 9d 32 be 44 cf ad bd 90 99 e5 bc
       0.0793533 -0.17442906 -0.084867984 -0.028027326
000110 34 4e e4 3d c1 2a c1 3d f0 09 f9 bd 40 6f 70 3d
       0.111477286 0.09431983 -0.121600986 0.058699846
000120 5c 53 ab 3c c4 e1 c5 bd a9 fd 04 bb 21 00 0f 3e
       0.020913772 -0.09662202 -0.0020292795 0.13964893
000130 a4 4c 22 ba a1 51 81 3c 9f 6d 34 3e 8b e6 b7 3d
       -0.000619123 0.015785994 0.17619942 0.089795195
000140 e2 cf 1f 3e 44 54 06 be bc 54 a8 3d b0 40 9d 3d
       0.15606645 -0.13118082 0.08219287 0.07678354
000150 04 f4 0c be 40 be b2 bd 3e 4d b7 bc 7f ac 0a 3e
       -0.1376496 -0.087276936 -0.0223757 0.13542365
000160 b6 03 7b bd 55 0d ee 3c 12 69 0e bd 96 68 15 be
       -0.061282836 0.029059092 -0.03476817 -0.14590678
000170 de a4 5b be b9 a7 e7 3c 84 e5 f8 3d 9c a9 1e bd
       -0.2144961 0.028278219 0.12153152 -0.03873597
000180 0a 86 25 bd 89 aa 13 bd 17 50 2b 3e 08 96 f3 bd
       -0.040411033 -0.036051307 0.1672977 -0.118938506
000190 1b 34 09 bd f0 9e 09 3e be 5b 02 bd 13 57 c2 bc
       -0.033496957 0.13439536 -0.031825773 -0.02372316
0001a0 29 19 d0 bd cb 24 28 be 64 3c 21 be 2b 8c 3e 3e
       -0.10161049 -0.16420285 -0.15745693 0.18608157
0001b0 55 b9 e7 3d fb d7 86 3d 2e 32 bc bc 70 f2 c7 3d
       0.11314646 0.06584164 -0.022973146 0.09763038
0001c0 e8 0a 48 3d 31 97 65 bd 7a 87 9d bd 95 ad 36 bd
       0.048838526 -0.05605239 -0.07691856 -0.044599134
0001d0 f5 fb 89 3d 47 23 56 bd b5 44 b5 bc 73 4f 15 bd
       0.0673751 -0.052279737 -0.022127489 -0.03645272
0001e0 22 ec 6f 3d b4 05 94 3d 0c 69 9f 3d d0 df 01 3e
       0.058574803 0.0722765 0.07783708 0.12683034
0001f0 51 de 86 bd e7 32 83 3d 2f 56 20 bd 58 98 dd bd
       -0.06585372 0.06406193 -0.03914469 -0.10820073
000200 de 12 b2 3d 19 f0 e7 bd 5a 84 d4 bd dc 6d 7c 3b
       0.08695005 -0.11325092 -0.103768066 0.003851763
000210 83 d1 1c bc 12 76 42 3e 25 c3 09 3c 62 cd f5 3d
       -0.009571436 0.18990353 0.0084083425 0.12002064
000220 79 a3 d2 3d 6c 09 52 3c 59 73 21 3d bf dc 53 3d
       0.10285086 0.012819629 0.039416645 0.05172419
000230 4d 59 ca 3d ca b5 04 be 75 10 c2 3d 1a a0 00 3e
       0.09880314 -0.12959972 0.09475795 0.12561074
000240 5c 42 40 3e e5 8a 10 be ee 90 27 3e 84 95 7c bd
       0.18775314 -0.14115484 0.1636388 -0.061666027
000250 32 93 1b be ba f0 3d 3d 67 60 62 bd a9 49 d2 3c
       -0.1519287 0.046372153 -0.055267718 0.02566989
000260 d3 e5 8e 3d 08 be ad bd 07 2f 65 bd 57 d6 ba bc
       0.06977429 -0.08483511 -0.055953052 -0.022807283
000270 5f 32 6f be e0 7f 03 3c 9d 4e 4b 3d 31 98 2b bd
       -0.23359059 0.008026093 0.04963552 -0.041893188
000280 ba 56 b3 bb d3 df 29 be d2 06 27 3e 87 c8 fc bb
       -0.005472985 -0.16589288 0.16311195 -0.0077143344
000290 b2 70 f9 3c 69 24 20 bd 27 be bf bd 6c 56 63 3d
       0.030449245 -0.039097223 -0.093624406 0.05550234
0002a0 23 52 b7 3b 9c 7b 55 3c a5 34 23 be 3e f5 1c 3e
       0.0055945083 0.013029959 -0.15938051 0.15327927
0002b0 90 ba 8c bb c2 55 9d bd 9f 78 b3 3d d7 b7 eb b9
       -0.004294701 -0.07682373 0.08763241 -0.00044959664
0002c0 33 8f 2d 3e 1b c1 26 3d d1 2b 2a bc 2f 9c 14 3e
       0.16949157 0.040711503 -0.010386423 0.14512704
0002d0 79 45 15 3e 17 da bd 3d 05 f4 1b be 60 14 11 be
       0.14577283 0.09270113 -0.15229805 -0.14167929
0002e0 71 23 28 bd 13 93 51 38 e0 81 72 3d ea 88 2d 3e
       -0.041049425 4.9966457e-05 0.05920589 0.1694676
0002f0 90 2e f1 bd e1 08 3c 3d 1f c8 b4 bd 98 43 43 be
       -0.11776459 0.045906905 -0.088272326 -0.19068754
000300 36 47 1c 3c 3b 0c 27 3e 61 3d 85 bc 30 b8 f8 3c
       0.009538462 0.1631326 -0.01626462 0.030361265
000310 92 0a 24 bd 4b 06 8a bc 23 0e de 3d 47 4d 2e be
       -0.040049143 -0.016848704 0.1084254 -0.17021666
000320 2e 7d a2 bd 9b 05 be 3c e6 da 50 3d ae ce e9 bd
       -0.079340324 0.023196032 0.050990008 -0.11416374
000330 b3 3b 47 be ee 01 27 3e ad f0 1d be 8b 90 7f 3d
       -0.19456367 0.1630933 -0.15423842 0.062393706
000340 67 18 4f bd e3 2f b1 3d 89 ac 6b bd b4 ee 75 bd
       -0.05056038 0.08651712 -0.05753759 -0.0600421
000350 aa 58 02 3e d2 44 7e 3d d8 99 34 bd 22 6b 1c bd
       0.12729135 0.06207735 -0.04409203 -0.038188107
000360 83 92 d4 3a 2a 6a 36 3b 64 55 2b 3e bd d1 2e 3d
       0.001621798 0.0027834275 0.16731793 0.04268049
000370 44 1e 98 3e 12 5e 60 3d c0 7f 78 bd f6 2b 11 be
       0.2971059 0.054777212 -0.060668707 -0.14176926
000380 e2 20 42 3d f6 70 c1 ba 91 05 02 3d 90 bd 93 3c
       0.04739464 -0.0014758396 0.03174359 0.018034726
000390 48 c0 25 bd 53 f3 2a bd 57 93 5b 3e e9 57 e2 3c
       -0.040466577 -0.04173596 0.21442924 0.02762981
0003a0 5d ee bf 3d 4e d6 73 3c 5d 18 48 3e a4 a1 e0 bb
       0.09371636 0.014882637 0.19540544 -0.0068552066
0003b0 5a 0a 46 bd 3d ce 6c be dc 46 26 be 65 3d 5e bd
       -0.048349716 -0.23125549 -0.16237968 -0.05425777
0003c0 25 79 a0 bd ea 93 b4 3d 38 94 5a bd ff be d0 bc
       -0.078356065 0.08817275 -0.05336401 -0.025481699
0003d0 68 f8 e1 bd 59 1b 1e be fb 35 d7 3d a3 52 9b 3d
       -0.11033708 -0.1544012 0.10508343 0.07584121
0003e0 40 b6 69 be e6 26 7e bd 12 c1 a9 ba 1c a8 ca 3c
       -0.22823429 -0.062048815 -0.0012951216 0.024738364
0003f0 11 dc 89 3e 85 57 c3 bd e8 e6 78 bd ae c0 2a bb
       0.2692571 -0.095381774 -0.060767084 -0.0026054787

classifier.0.bias f4 [32]
000000 13 30 1c 3e 05 e6 8b 3d c1 f6 2d 3c 20 fd ad 3c
       0.15252714 0.06830982 0.010617913 0.021238863
000010 47 40 b7 3d ef e0 bb be 31 52 08 be 81 6c c0 bd
       0.08947807 -0.36695048 -0.13312604 -0.093956955
000020 7b 09 91 be a4 b5 4f 3d 03 ba dd 3b 91 c6 14 be
       -0.28327546 0.050710335 0.006766559 -0.14528872
000030 0e ff 87 3e 1e 56 35 be 29 4c c7 3d f9 9b 85 3c
       0.2656178 -0.17708632 0.09731323 0.016309725
000040 e5 6d 30 3e 83 6d 57 be 0a 7e 0c 3e c5 97 0a 3d
       0.17229421 -0.21037869 0.13719955 0.033836145
000050 f5 88 a9 3d 9e 5e 39 be 64 7d 98 bc 8c 71 dc 3d
       0.082780756 -0.181025 -0.018614478 0.10763845
000060 8b eb c8 bd d3 88 ef 3b 16 1f a6 3d 2b b1 13 3e
       -0.09810551 0.007310012 0.08111398 0.14423053
000070 28 83 2f 3e b5 db 1a be d9 d4 30 3d 38 ed 05 be
       0.17139876 -0.15122874 0.043171737 -0.13078773

classifier.3.weight f4 [1, 32]
000000 93 6a 86 3d 83 62 dc 3d ff 2d d9 3d 73 71 59 be
       0.06563296 0.10760977 0.10604476 -0.21234684
000010 42 f1 08 3e 15 8f a4 be 34 7c 65 be 74 1a 54 be
       0.13373283 -0.32140413 -0.22410661 -0.20713216
000020 af 83 73 be 86 df 52 3e 23 e2 1f be 96 bb b5 be
       -0.23780702 0.2059308 -0.15613608 -0.3549468
000030 95 c9 40 3e 4b e1 b6 be aa 4e 5e 3e 7d 10 08 3e
       0.18826897 -0.3571876 0.21709695 0.1328754
000040 c4 7f 4f 3e 08 93 7f be ec c2 71 3e 3d 4e 00 3e
       0.20263582 -0.24958432 0.23609513 0.12529846
000050 26 21 3f 3e 15 cb 40 be 75 d5 1e be bf 0d 80 3e
       0.18664989 -0.1882747 -0.15511115 0.25010487
000060 87 9c 62 be 1a 34 99 3d 96 bc 31 3e e2 6f 1b 3e
       -0.22130023 0.07480641 0.17357096 0.15179399
000070 cf 53 f1 3d d2 e2 71 be de a1 ab 3d fa 23 4e be
       0.11783563 -0.23621681 0.08380483 -0.20130911
