cnn/prod_stage1_cnn.pt (torch, 88848 bytes, 21 tensors)

encoder.0.weight f4 [16, 1, 5]
00000000: fa53 2dbd 5bcf 95be 2b81 953e 6f7c 48be
00000010: bf2c 933d 4fbf b83e e76b e9be 2964 163e
00000020: cd28 cfbe 4966 573e b630 d8bd 3a01 bcbe
00000030: 573b c63d 837f 163d 9e0f 2f3e 52ca 9b3e
00000040: 77da f3bb cabc 32be 34f0 e53e c023 dcbd
00000050: 2c6f c13e 3282 953e 3469 e2be 814f ffbd
00000060: 2c34 993d 0ef7 abbe 9f8b 8c3d 1e98 52be
00000070: 4695 80be b2d8 a63e ec0e 583e 4de3 e23e
00000080: e85c 8fbd f981 06be 6fb8 90be 756e 923d
00000090: 7488 a73e 66ce 44bd c026 04be a4ff a43e
000000a0: 5e48 6c3d 1c2c 943d f33f e03e 17b1 ec3e
000000b0: 1a96 c83e ab0c ebbe 05fa c43c 1c03 a03e
000000c0: b11d b93e 42b3 d3be f221 a33e 10f2 5cbe
000000d0: 94c7 89be 78f7 93be 51b1 42be 663e 92bd
000000e0: 30f7 2dbd aa40 48be 91b8 843e 4359 9cbe
000000f0: 5db8 af3e 92b5 e0be 5f10 ba3d fd63 a4be
00000100: 275f a0be d95c c33d 698d a8bd cf35 b7be
00000110: d246 9cbd 3de3 8abe 7984 85be d2fc 8f3e
00000120: 6536 cf3c 9340 a4bd b99f bc3e d039 863d
00000130: 91ef bf3e 0af5 2b3e 8bc3 823d 6d09 f3bd
-0.042316414 -0.29259762 0.2920011 -0.19578718 0.07186269 0.36083457 -0.45590135 0.14686646
-0.40460816 0.21035112 -0.10556166 -0.36719686 0.09679287 0.0367427 0.17095801 0.30427796
-0.0074418145 -0.1745483 0.44909823 -0.10749006 0.3778013 0.29200894 -0.4422089 -0.12466336
0.07480654 -0.33586925 0.06862568 -0.2056584 -0.25113887 0.325872 0.21099442 0.44314042
-0.07000142 -0.13135518 -0.28265712 0.07149974 0.32721293 -0.0480484 -0.12905407 0.32226288
0.057686202 0.07234976 0.4379879 0.4622886 0.39177018 -0.45908102 0.024045 0.31252372
0.36155465 -0.413477 0.31861836 -0.21576715 -0.2691008 -0.2889974 -0.19012953 -0.07140808
-0.042472064 -0.19555917 0.25922063 -0.3053685 0.34320346 -0.43888527 0.09085154 -0.32107535
-0.31322595 0.09539194 -0.08230097 -0.3578324 -0.076306954 -0.27126494 -0.2607763 0.28122574
0.025294492 -0.08020129 0.3684061 0.065539956 0.37487462 0.16792694 0.06384953 -0.11867032

encoder.0.bias f4 [16]
00000000: a388 4cbe ff45 bf3e 56f7 bf3d aabd bf3e
00000010: 9eb1 883e 3b64 41bc c58b cebe 6520 363e
00000020: b11b c6bd 9104 a83d 6182 27be b9f1 b53e
00000030: 9882 e03e 6f59 8bbe a7b7 ccbd a177 abbe
-0.19973998 0.3735809 0.093733475 0.3744939 0.2669801 -0.011803682 -0.4034101 0.17785795
-0.096732505 0.08203996 -0.1635833 0.35535982 0.43849635 -0.2721667 -0.099959664 -0.33489707

encoder.1.weight f4 [16]
00000000: 6dea 863f 9f51 793f 9d75 813f c166 7e3f
00000010: fa73 7a3f 51c9 873f f3ae 773f b5c1 753f
00000020: 66f5 7a3f b6d2 753f 775b 833f 02af 803f
00000030: 1ee7 833f 2bc5 833f 4e14 7d3f b629 803f
1.0540291 0.9739017 1.0114018 0.9937554 0.97833216 1.0608312 0.96751326 0.959987
0.980307 0.96024644 1.0262288 1.0053408 1.0304906 1.0294546 0.9885911 1.0012729

encoder.1.bias f4 [16]
00000000: d030 0ebd 484b 09bd 3108 92bd 898c adbb
00000010: 817d 913b 80b8 49bd abc9 35ba cb13 4ebc
00000020: 5a3d 9a3b 10af 2d3d 8c33 debc 8758 b6bc
00000030: 768a d93c fed9 28bc 0df0 3cbc 83af 2b3d
-0.03471452 -0.03351906 -0.07130469 -0.005296294 0.00444001 -0.04924822 -0.0006934653 -0.012577961
0.0047070207 0.04240328 -0.027124189 -0.02225901 0.026555281 -0.01030588 -0.011531842 0.041915428

encoder.1.running_mean f4 [16]
00000000: 625d 69be cf1c b33e e018 853d 0d65 e83e
00000010: d2ea 973e ad43 a4bd 87e1 bfbe bc39 8a3e
00000020: 0ebb 163e 285f 593d 27b4 8cbe 15ad 963e
00000030: 1d50 a83e 3290 c8be d682 2ebd 78ae 75be
-0.22789529 0.34982917 0.06498885 0.45389596 0.2967134 -0.08020721 -0.3747675 0.26997173
0.14719793 0.053069264 -0.27481195 0.29428926 0.32873622 -0.39172512 -0.042605244 -0.23992336

encoder.1.running_var f4 [16]
00000000: 0e2e 423b bcd2 da3b b74e e93b 8bbf 3c3c
00000010: 313b 483c b5d3 543c a6d8 7b3c e0c9 593c
00000020: b916 bc3d b32c 4f3c ebe8 e03c 5d64 c53b
00000030: 8f82 d33c bda7 c33c b51b 153c cfdf 933c
0.0029629502 0.0066779535 0.0071199792 0.011520277 0.012221144 0.012989928 0.015371477 0.01329276
0.091840215 0.0126449345 0.027454814 0.006023927 0.025819091 0.023883695 0.009100844 0.018051056

encoder.3.weight f4 [32, 16, 5]
00000000: 07b0 953d 7454 2fbd b7ca 8ebd b308 2cbd
00000010: 9e5e 60bd 9f68 9c3d 7fd0 7bbd 0d6d 443d
00000020: 4402 8dbc 26c8 6ebc f636 fa3c 3885 3bbd
00000030: 45c7 083d 75cc f2bc c65f 443d 9684 c8bd
00000040: 01ed 033d dfc6 f03d a835 73bd b5d6 9c3c
00000050: 459a b7bd a364 f5bc 8dd4 c83d cf76 4cb9
00000060: e455 1a3d 5585 ad3d b920 4f3c af36 18bc
00000070: 4e5d fd3d f1b2 743c 0bad ed3c 1bdb 8ebd
00000080: 9b88 a43d dbb7 56bd 8c4f 5dbd 2c69 5cbd
00000090: ae2e 553d 78a1 e0bd 3495 a73d a84d e83d
000000a0: 223a 91bd 0cac cabd 6d1f b53c 3964 9cbd
000000b0: d64d d0bd 35e9 b33d 43b6 4ebd 4cca ea3c
000000c0: d20b d73a 42fa c3bd f7b6 18bd 7dc9 f83c
000000d0: a0fa bbbd 0fbc bfba d65c c63c 8d02 36bd
000000e0: c0af cd3d 6618 90bd 364f 74bd 4aea 4fbd
000000f0: dfcb 873d a3bb e1bd 40b9 9d3d c86e 183e
00000100: 53c9 0a3e 7750 043e a72b 3b3c 7573 acbd
00000110: 3040 313d 5813 a93d 0675 a63b 596a a1bd
00000120: c994 693d 6b16 1a3d 8a0f f93d e729 623c
00000130: 48a5 b9bd f5b9 ce3d 410a e2bd c70b a3bd
00000140: 699a b83d 54e5 1f3c dbe0 d93d 0952 de3d
00000150: 6e8c 073d c964 19bd c842 1b3d 829a febc
00000160: 6155 3a3d 2e3d cdbc d827 19bd ceee b3bc
00000170: 49ee 50bd f675 893c 413f 1cbd 244a 513d
00000180: 79be daba 65f0 6bbd 8405 13bd ad8b 0abc
00000190: 4ff6 2b3d 5cd7 a3ba 68ca 9d3c 928b 9bbd
000001a0: 30eb 62bd dad3 193d 540e 943d 8fea 06bd
000001b0: 662f 963d 483e 8f3d 49a4 e2bd b6ac 263d
000001c0: e81d 073c fd75 193d 5a82 74bd 9fb8 913d
000001d0: 2a57 4bbd 08d1 5bbc 8ac8 1c3d 135a 12bd
000001e0: ad0f b13d 6e23 253b cef6 73bd 34de 5abd
000001f0: 436d 053d 1864 c7bd f035 a83d 413b da3d
00000200: 86f0 893d c457 e4b9 ae7e 23bc 806c d53d
00000210: e504 8c3d 0fd8 8d3d a06a 7a3c 6c0b 1ebd
00000220: 32ae 1fbd 4f0c 003e 4494 ed3c 935f 96bc
00000230: d8aa 763d 4f27 39bd 921a 693c 29fe 133e
00000240: 2f76 db3c 11ff 8f3d f8e0 29bd ef29 dc3d
00000250: bb60 31bb 440d 043e e998 a1bc 333f 50bd
00000260: 7f30 c83c 838c d23d cbb2 913d 3f7d 973c
00000270: a625 b03d f898 fcbc 1418 e03a 5804 f43d
00000280: 4d65 9ebc 6d83 393d 4b4c dd3d 1f6a 713d
00000290: d156 90bd 496f e43c 44b1 d43b 5a86 c6bc
000002a0: 599c db3d 4255 dc3d aa2d d2bd e123 7ebc
000002b0: bc87 da3c 3bed c03d c709 27bd ebb8 ce3a
000002c0: 5a1e edbc 113c a2bd c6ec aabd f68a 95bd
000002d0: 9a96 283d 809d 583d 5e79 2fbb 5f2d c33d
000002e0: 8318 b8bc 7c9a c93d 5ed0 163b 73c8 5abd
000002f0: 9c2e e73c 0f64 bebd 14e7 6d3d 639b 543c
00000300: 8e3b 553d c446 563d b61b b33d dabf 98bd
00000310: 4d52 e1bd 474a b63c 0047 4fbd 929d d4bc
00000320: c6d7 bb3d bade b5ba a51b 6f3a 856e c7bd
00000330: 50ba ebbb 4c38 f9bd 36bd 1cbd 8e6f ad3d
00000340: a929 42bc 99f0 153d 04fc 853d 57d4 a33d
00000350: 97d9 993c 09a4 9ebd 2c75 9abc e884 543c
00000360: 3d2e 0dbd 86f9 34bd 4342 9fbd e2ae cc3b
00000370: f080 9abc d9d1 9cbc f3c8 913c 4443 c83d
00000380: dbde 173d 8dfa 8e3d 525e df3d 3458 c73c
00000390: 5fa3 16bd 309b 023d 6ba1 07bd 1dab bd3d
000003a0: b09f c3bd b946 2cbd 5bc6 723d 2683 76bd
000003b0: 6668 873d 3776 9fbd ee5e a13c 57c0 b13d
000003c0: 68eb a9bc a0a4 94bd 8e06 843d 7c4a 75bd
000003d0: 0fd8 17bd 01fe 15be daa3 19be 224d 97bb
000003e0: 66d7 883d 5f48 80bd 0574 1fbe 3daf eabd
000003f0: 978b 0c3d d8e4 d8bd aee1 afbd 6aa0 d2bb
0.07308965 -0.04280515 -0.069722585 -0.042000484 -0.054777734 0.076371424 -0.061478134 0.04795556
-0.017212994 -0.014574086 0.030543786 -0.045781344 0.033393163 -0.029638508 0.0479429 -0.09790914
0.032208446 0.11756682 -0.059377342 0.019145349 -0.089649715 -0.029955214 0.09806166 -0.00019499216
0.037679568 0.08472697 0.012642079 -0.009290381 0.12371312 0.014935241 0.029013177 -0.06975385
0.08033868 -0.052421432 -0.05403094 -0.053811237 0.05204647 -0.10968298 0.08182755 0.11342937
-0.07091166 -0.098960966 0.022109712 -0.076363035 -0.10171096 0.08784715 -0.050466787 0.028660916
0.0016406721 -0.09569217 -0.037283864 0.030369515 -0.09178662 -0.0014628189 0.02421419 -0.044436026
0.10043287 -0.07035904 -0.059645854 -0.050760545 0.06630682 -0.11022117 0.07701349 0.1488601
0.13553362 0.1292132 0.011423982 -0.08420459 0.043274105 0.08255643 0.0050798682 -0.07881612
0.05702666 0.037619036 0.12161167 0.013803936 -0.09064728 0.10094062 -0.11037112 -0.07961231
0.090138264 0.009759266 0.10638591 0.10855491 0.03309291 -0.03744963 0.037905484 -0.031079534
0.04549158 -0.025053587 -0.037391514 -0.021964457 -0.051008496 0.016779881 -0.03814626 0.051096097
-0.0016688845 -0.057602305 -0.035893932 -0.008456153 0.041982945 -0.0012500095 0.019261554 -0.0759498
-0.055400074 0.037555553 0.072292954 -0.032938536 0.07333259 0.06994301 -0.11066491 0.040692054
0.008246876 0.037466038 -0.059694625 0.07115292 -0.049643673 -0.013416536 0.038277186 -0.035730433
0.08645568 0.002519812 -0.059561543 -0.053434566 0.032574903 -0.09735888 0.08213413 0.10655833
0.06735329 -0.0004355294 -0.009978933 0.10421085 0.06836871 0.069259755 0.01528421 -0.03858511
-0.038984485 0.12504695 0.029001363 -0.01835612 0.060221523 -0.045203503 0.014227526 0.14452423
0.026789753 0.07031072 -0.041474313 0.10750186 -0.0027065712 0.12895685 -0.019726234 -0.05084152
0.024437187 0.10280707 0.0711418 0.01849234 0.08600931 -0.03083466 0.001709702 0.11914891
-0.019335413 0.045291353 0.10805567 0.058939096 -0.07047809 0.027885096 0.0064908583 -0.024233986
0.1072318 0.10758449 -0.10262616 -0.015511484 0.026676051 0.09420248 -0.04078081 0.0015771663
-0.028945137 -0.07921613 -0.08345942 -0.07301895 0.04115925 0.05288458 -0.0026775221 0.09530138
-0.022472626 0.09843919 0.002301238 -0.05341382 0.028220467 -0.092964284 0.0580817 0.0129765
0.05205875 0.05231358 0.0874552 -0.07458468 -0.11002026 0.022252215 -0.05060482 -0.025954042
0.09172015 -0.0013875582 0.0009121246 -0.09737877 -0.007193841 -0.12168941 -0.038266383 0.08468543
-0.011850753 0.036606405 0.06542209 0.07999485 0.018780513 -0.07746131 -0.0188547 0.01297114
-0.034467924 -0.044183277 -0.0777631 0.0062464336 -0.01886031 -0.019143032 0.017796015 0.09778455
0.037077766 0.069813825 0.10906662 0.02433405 -0.036776897 0.03188628 -0.033112925 0.09261153
-0.09551942 -0.042059634 0.059271198 -0.060183667 0.06611709 -0.077862196 0.019698586 0.08679264
-0.020742133 -0.07257962 0.06446563 -0.059885487 -0.037071284 -0.14647676 -0.1500391 -0.0046173492
0.06681709 -0.06263804 -0.15571602 -0.11459205 0.03431281 -0.105905235 -0.08587967 -0.0064278143

encoder.3.bias f4 [32]
00000000: 3c48 c6bd a4f6 babd a883 8d3b 81d6 68bd
00000010: d37d 0d3d dff1 be3c 4a10 b9bd a875 82bd
00000020: 4a72 e03d 998f 09bc 5c67 79bc 3eb0 20bd
00000030: dc23 223d 7ff0 243d 3340 3b3d 15d0 26bd
00000040: 1877 653d 6393 953d bcd2 da3d 41a7 d9bd
00000050: 1019 3a3d 11de 24bd 5d41 03bd e3fe a4bd
00000060: 3ae7 053d 2064 b7bd 56c8 85bd 4920 72bb
00000070: 443a 2c3d 9a38 483d 16cb 8f3d 221c e4bd
-0.09681746 -0.09129074 0.004318673 -0.056845192 0.034543823 0.023308692 -0.0903631 -0.063700974
0.10959299 -0.008396053 -0.015222397 -0.039230578 0.03958498 0.040268417 0.045715522 -0.040725786
0.05602178 0.073035024 0.10684726 -0.10627604 0.045434058 -0.04025084 -0.032044757 -0.08056428
0.032691218 -0.08954644 -0.06532352 -0.0036945513 0.042047754 0.048882104 0.070211574 -0.111381784

encoder.4.weight f4 [32]
00000000: 4aff 813f 45c6 843f d223 853f d6a3 823f
00000010: 687a 863f ed0d 833f b5b2 753f 4eb8 773f
00000020: 7827 783f f912 853f aee0 833f de14 853f
00000030: ae62 863f 6bab 7c3f 9814 7c3f 9930 843f
00000040: 3df4 823f 4be6 793f c8fe 803f 8499 7d3f
00000050: 46cf 813f 6ecb 773f 7d91 7d3f 6f5f 7a3f
00000060: a767 813f 67f4 7e3f 76c5 733f dad5 703f
00000070: cb0b 803f f91b 6f3f fbbf 753f 980b 803f
1.0156033 1.0373007 1.0401556 1.0206249 1.0506105 1.0238625 0.9597581 0.967656
0.96935225 1.0396415 1.0302942 1.0396993 1.0498865 0.98699063 0.98468924 1.0327331
1.0230786 0.97617024 1.0077753 0.9906237 1.014138 0.96794784 0.9905012 0.9780187
1.0109757 0.9959168 0.95223176 0.9407631 1.0003599 0.9340206 0.95996064 1.0003538

encoder.4.bias f4 [32]
00000000: 8aae 693c d583 45bd 5cea 603c 1df6 663d
00000010: ec4d 8ebd e8b8 553c cd61 02bd a9b0 e0bc
00000020: 939a efbc 22c4 eb3c c789 473d f6d2 26bd
00000030: 47b3 d63c 9dd9 c53c 3e82 4dbd dc1e 883c
00000040: 4155 c3bb 99db 17bd d9ed 70bd ce45 75bc
00000050: 6d9c 9abd 8a85 c0bd 027b 2f3d d238 2bbd
00000060: c521 bf3b a363 383c 4f6a 57bc 2d30 73bd
00000070: 84e8 06bd 0d7a 80bd efed b9bc 2e9a 1cbb
0.014262805 -0.048221428 0.013727751 0.056387056 -0.06948456 0.013044573 -0.03183155 -0.027427988
-0.029248511 0.028780047 0.04871538 -0.04072853 0.026208533 0.024151618 -0.050173037 0.016616277
-0.005961091 -0.03707466 -0.05882058 -0.014970256 -0.07549367 -0.094004706 0.04284192 -0.041802235
0.005832883 0.011254224 -0.013147905 -0.059372116 -0.032936588 -0.06273279 -0.022696463 -0.002389561

encoder.4.running_mean f4 [32]
00000000: 4c5a 83bd 5364 e33e 8f44 e43d 316e c0be
00000010: 709b 363f 9134 3cbe 429a e83d 2865 d83e
00000020: 2003 6db9 c243 1ebe 8f64 7bbe 2c87 2f3f
00000030: d2bb 873e 7c6f d6bd e321 d0bd 0072 cdbd
00000040: 02bb b8bd 46d1 a33e 6023 3f3f 5f2e b4be
00000050: 4f97 043f 7ea2 323f 4fef 00bf 88f5 15bf
00000060: c6d9 c1bd 2393 22bb 9c6c 8bbd a52f 043e
00000070: 6ba1 94bd 0d86 873e a884 373e a3a2 703d
-0.06413707 0.4441248 0.11145889 -0.3758407 0.7133093 -0.18379427 0.11357547 0.42264676
-0.00022603245 -0.15455535 -0.24550079 0.6856563 0.26510483 -0.10470483 -0.101627134 -0.100315094
-0.09020044 0.319956 0.7466335 -0.35191628 0.5179338 0.69779193 -0.50365156 -0.58577776
-0.09465365 -0.0024806939 -0.06807825 0.129088 -0.072573505 0.2646946 0.17921698 0.058748852

encoder.4.running_var f4 [32]
00000000: b17f 253e 6689 563d dac8 8e3d 4822 783d
00000010: fb60 893d 5044 373e 6b50 bc3d 3c99 d63d
00000020: add3 543d da4c bc3d 73cf 523e 87b9 903d
00000030: ba68 483d 6274 923d d129 6b3d 4146 1e3d
00000040: 493e 623d 9d23 3d3d 0312 d23d c053 9c3e
00000050: aa6c 6d3d 74bf 953d a660 3e3e 110d 183e
00000060: e593 543d 8bd9 963d be75 7e3e e687 503e
00000070: a8ec c03d e168 8b3e d709 b23e 2af9 fe3d
0.16161992 0.052377127 0.06971903 0.06057957 0.06707951 0.17897153 0.09195026 0.10478446
0.051959682 0.09194346 0.20586948 0.070666365 0.048928 0.071511045 0.057412926 0.038641218
0.05523518 0.04617654 0.10257342 0.30532646 0.05796496 0.073119074 0.18591556 0.14848734
0.051898856 0.07365712 0.24849603 0.20364341 0.094201386 0.27228454 0.34773132 0.12449868

encoder.6.weight f4 [128, 32, 3]
00000000: 5daf 47bb c4d0 693d 3a43 5dbd c0b3 32bd
00000010: 00f4 6bbd 8a8b 2c3d ce0c 12bc cffa 40bd
00000020: 7aa3 d3bd a6e6 0abd e942 c33d f0d8 443d
00000030: f676 de3b d13e 363b 5e6b 3ebc a126 953d
00000040: 06d9 5f3d ba33 ab3d 6a6f 4c3d 03f0 463b
00000050: 6a29 d1bc ee37 f3bd dbbf 1ebd a3bf 8ebb
00000060: 7f7a c43d 622e a13d 8c13 f3bc 6293 f2bd
00000070: c618 b93d 5a61 bdbb b29d cabd 38cd 4abd
00000080: 7d35 143d c1de 933d 1c2c c73c 28f8 9e3c
00000090: 3de4 233d 1036 a2bd 369b 87bd fd77 acbd
000000a0: 3488 173d 9fb4 6d3d 2b23 093d b7f8 9f3d
000000b0: ebcb 0abd 1748 ac3c 9ec8 7ebb f322 aa3c
000000c0: 4a1b d03d fc89 813c 221c 023e aea6 8fbd
000000d0: 4e44 3fbd 02e5 583d 1441 2c3d db08 5cbd
000000e0: cd34 08bd 8e7e 943c ac61 ca3d f07c a1bd
000000f0: b24b 78bc 9bcd bcbb 3cbd a2bd 3aa0 aabd
00000100: 5cae 07bd a5ed 05bd d665 b5bc f772 6fbd
00000110: b11f a5bc 19d8 813d eb75 3e3c 4494 303c
00000120: 69db f2bd 8959 d83d 1a59 3bbd 1593 cb3d
00000130: 1d52 66bc def7 233d a98b 2d3b fee7 3d3d
00000140: 1829 23bd f5fe 2ebd 2bc8 5bbd 01ac 363d
00000150: a82f e03d 496f 0c3e dff2 91bc ffab 8c3d
00000160: feee 943d e617 1e3c 0dcd 24bd fe6d b0bd
00000170: 15ab 8dbd 8ba9 96bd e60e 453d 4c71 133d
00000180: 8cb3 e5bb d1f2 1ebd 6de2 aa3c 2c6c 97bc
00000190: 07b5 1e3d 522f 18bd 665f 073e 9c96 583d
000001a0: 70e1 c63d 4ca9 5e3d 5250 8fbd eba4 883d
000001b0: 20c6 0a3e 88d9 583d 0cb0 38bd ea75 3ebd
000001c0: a301 dbbd f93e d7bc 116f 303d bac5 203d
000001d0: bb3d 68bd 23e6 013e 03a8 eabc 061e 9c3d
000001e0: 37a7 acbd 8f6c 13bd 3260 933c f9a8 453d
000001f0: ce0e 97ba c065 16bc 97cb d13d d86a 13be
00000200: 335f 84bd b2fc 9bbc 718d cbbb 6397 473d
00000210: f484 da3b 7854 b1bd c8b7 01bd a8bb 70bd
00000220: 1e73 ddbd d434 98bc 32a4 0cbd 5984 edbc
00000230: 4744 dbbc 610b 343d 7707 b83d 6189 b2bd
00000240: 6906 ddbd 3506 843d 7cee 05bd 0183 5d3d
00000250: b6ad d43d 0c7a e6bc 61cf e0bc a8c4 fa3c
00000260: 4454 db3d ca39 c3bb d3f8 933d 5c98 e43d
00000270: 520a 093d 7647 393d 8ff4 30bc c484 e93c
00000280: 2072 91bc ec74 e63d 6d03 1c3d 039a 883d
00000290: bdd4 86bd 8a03 193d 2a7f 733d 569e 1fbd
000002a0: a8de fa3c ccc3 833d 155f 233d 9e1e ecbc
000002b0: cf65 293c 643f d7bd c06c 953b bfb8 403b
000002c0: 3d7f 3d3c dd33 23bd 5e4f 8f3c ced1 f4bc
000002d0: 089d 403d f3f3 673d bc94 aebd 6d8b 363b
000002e0: 4ab3 69bc 49cf 0dbd 16e4 32bc 66c2 46bc
000002f0: 49b5 d63b 17fe 55bc 9698 85bd a695 a7bd
00000300: d09b a4bc 51ea 303d 10b3 52bd 3595 d13d
00000310: 54ca 953d 7e05 af3d 3eed 9e39 bf33 3a3c
00000320: bc4c e0bc fd6d 68bd a654 81bd fb91 733a
00000330: a6ac 763d 97d6 df3c 9bab 363d f69f 0cbe
00000340: df74 833d 6abc 45bd 723c 08bd 129c b33d
00000350: 6b42 253d 2346 693c f7d1 db3b e3de c13d
00000360: daa0 08bd 4b75 2abd d145 5bbd 602a 583d
00000370: b266 4b3d de4f 2f3d f0f1 993d f0ea 71bd
00000380: e87a c83d 8f65 a23d 673a 4bbc 1c7e b93d
00000390: 481e ad3d a97f 2cbd df69 9abd fdaf cabd
000003a0: cfe9 80bd f8bc 4bbd 1efb b9bd 61f1 133d
000003b0: ad5f 2ebd f223 a53b 0fc9 0ebd 15f3 95bd
000003c0: f997 c83c 6840 b33c c3ee 8d3d 88f3 44bd
000003d0: 1811 64bc ab21 0cbd aa19 c9bc fe11 a03d
000003e0: 56fa 873c f225 893d fa3f 813d 21c9 6fbd
000003f0: 1593 c43c b694 353d e6be bebc fd39 093e
-0.0030469515 0.05708386 -0.05401919 -0.043628454 -0.057605743 0.042125262 -0.008914186 -0.04711419
-0.10333915 -0.03391137 0.095342465 0.04805845 0.0067890836 0.0027808438 -0.011622278 0.072827585
0.05465033 0.083594754 0.04991094 0.003035546 -0.025532443 -0.11875902 -0.038757186 -0.004356341
0.09593677 0.07870175 -0.029672407 -0.11844517 0.09037928 -0.0057794275 -0.09893359 -0.049512118
0.036183823 0.07220221 0.024313025 0.01940544 0.040012587 -0.07920468 -0.06621401 -0.084213234
0.036995128 0.05803358 0.033480804 0.078111105 -0.033885878 0.021030469 -0.0038876901 0.020768618
0.10161455 0.015812866 0.12706044 -0.070142135 -0.046696 0.052952774 0.04205425 -0.053719383
-0.03325348 0.018126752 0.09881911 -0.07885158 -0.015154766 -0.005761815 -0.0794625 -0.08331342
-0.033125266 -0.03269734 -0.022143286 -0.05845925 -0.020156713 0.063400455 0.0116247935 0.010777537
-0.118582554 0.105639525 -0.04573927 0.09940163 -0.014057663 0.040031306 0.002648095 0.046363823
-0.039834112 -0.042723615 -0.053657692 0.04459763 0.1094659 0.13714327 -0.017816005 0.06868743
0.07272147 0.0096492525 -0.040234614 -0.08614729 -0.06917397 -0.073565565 0.04810991 0.03599672
-0.007009929 -0.038805787 0.020859921 -0.018484198 0.03874686 -0.037154503 0.13219985 0.052878007
0.097109675 0.054360673 -0.06997742 0.066720806 0.13552141 0.05294183 -0.045089766 -0.04649917
-0.106936716 -0.026275145 0.04307467 0.039251067 -0.056699496 0.12685446 -0.028644567 0.07622914
-0.08430331 -0.0359922 0.017990205 0.048256848 -0.0011524798 -0.0091795325 0.1024391 -0.14396226
-0.0646347 -0.019041393 -0.0062119295 0.048728358 0.0066686813 -0.08658689 -0.031669408 -0.058772713
-0.108129725 -0.018579878 -0.034336276 -0.028993772 -0.026765956 0.043956164 0.08985799 -0.08717609
-0.10792238 0.064464964 -0.03269814 0.054080013 0.10384695 -0.028134368 -0.027442636 0.030611351
0.10709432 -0.0059578167 0.07225194 0.11161873 0.033457108 0.045234166 -0.010800495 0.02850569
-0.017754614 0.1125277 0.038089205 0.066700004 -0.06583545 0.03735689 0.059447445 -0.03896936
0.030623749 0.0643383 0.0398856 -0.028823193 0.0103392145 -0.10510138 0.004560083 0.0029406992
0.0115659805 -0.039844383 0.0174939 -0.029885199 0.047024757 0.056629132 -0.085244626 0.00278541
-0.014263937 -0.03462151 -0.010918638 -0.012131309 0.0065523726 -0.013061068 -0.06523244 -0.0818284
-0.020093828 0.04319221 -0.0514403 0.10233537 0.07313982 0.085459694 0.00030312868 0.011364876
-0.02738034 -0.056745518 -0.063149735 0.0009291467 0.060223244 0.027324004 0.04459725 -0.13732895
0.06418776 -0.04827539 -0.03326077 0.087700024 0.040346544 0.014237913 0.0067083794 0.094663404
-0.033356525 -0.041615766 -0.05353338 0.052774787 0.049658485 0.042800777 0.07516849 -0.059061944
0.097890675 0.07929527 -0.012404061 0.090572566 0.08453041 -0.042113934 -0.075397246 -0.09896848
-0.062945955 -0.04974076 -0.090811 0.03611887 -0.042571712 0.0050396854 -0.034859713 -0.07321755
0.024486529 0.021881297 0.06930306 -0.048083812 -0.013920091 -0.034211796 -0.02454837 0.07815932
0.016598862 0.066966906 0.06311031 -0.05854142 0.023995915 0.044331275 -0.023284387 0.13401027

encoder.6.bias f4 [128]
00000000: 928c 76bd c69d ccbd 573b c0bd 885f abbb
00000010: 31bc 003c 67ee aa3d e4cc be3d 8797 cc3d
00000020: 4b83 b23d c95d a83d a6c9 dfba d9fc 3f3d
00000030: 936e e5bb 8f10 abbd 3345 0b3d ee93 c73d
00000040: b935 40bd 266f a63d 42f9 81bd ea7d 8dbd
00000050: ae58 953d 4803 aebd 1983 fa3c fcd1 463d
00000060: 373d 923d c4fb 13bd f503 b4bd 3d00 cf3d
00000070: 6267 68bc 2e87 503d c2fd 9739 4901 7fbd
00000080: 3a2a d1bd d237 ac3d 5c91 cdbd cb6b 90bd
00000090: a6f8 923d 047e 7e3c 0aac 85bb 528f 92bd
000000a0: feb1 cbbd ad22 c6bc 1495 483d 676a 203d
000000b0: 713a 353d 04fc 9f3d 5b19 2f3c c9a5 92bc
000000c0: 84bf 8bbd 9667 a6ba 11d7 3c3d b1f3 d93c
000000d0: 19fc a33d b786 b83d e269 263d b6a6 c0bd
000000e0: 0135 33bd fcd6 2d3d 332f aa3d b990 abbb
000000f0: e069 7abd bb46 073d a276 5038 a9f7 3dbd
00000100: 7f70 b63d 117b f3bb 14f4 cf3d a2c7 11bd
00000110: fe88 893d 6d44 aa3a e48d 29bd bb23 9d3d
00000120: 6142 b7bd 91f2 0cbc 4b7f b33c 520f 85bc
00000130: b201 70bd b1bb dbbc 1742 883d dd6a 42bc
00000140: aabd 2bbd 7ea9 21bd 5d27 9abd 894f 813d
00000150: 62bb c2bd 9516 42bd 7679 943c 9ef5 ba3d
00000160: 9de9 aebd d24c 483c 67e4 91bd 6306 973d
00000170: dbdb 9b3d 4fe8 7c3d 4cc6 3abd 480a a3bd
00000180: 9791 7dbd 1519 0ebd e3ef 313d 7893 77bc
00000190: 0b19 b13d d3ba c4bd a4b9 593b cfd9 b2bd
000001a0: 1268 c9bd 6384 97bd f65b 493c b920 c6bd
000001b0: eca4 57bc 7a7e 3abd 5286 7abd 0ed8 b03d
000001c0: 2d56 1bbd d42c cbbd f714 8b3d f4a2 d3bd
000001d0: 6393 f4bb 8c72 a2bd 933c 523d 5c7f 133d
000001e0: aac0 5bbc 2304 efbc c5ef 95bd 26db 91bd
000001f0: d670 183d 7534 93bd 8585 18bd 644e ad3d
-0.060192652 -0.099910304 -0.09386318 -0.005229894 0.007857368 0.08346253 0.093164235 0.09989839
0.087164484 0.08221013 -0.0017073646 0.046871994 -0.007001707 -0.08352768 0.03400154 0.09745012
-0.046926234 0.08126669 -0.0634637 -0.06908782 0.07292305 -0.084967196 0.03058009 0.0485401
0.07140582 -0.036128774 -0.08789817 0.10107467 -0.014184805 0.050910167 0.0002899003 -0.062257085
-0.10213132 0.084090844 -0.10037491 -0.0705181 0.07176332 0.015532974 -0.0040793465 -0.071562424
-0.09946059 -0.024186457 0.048970297 0.039163973 0.044245187 0.0781174 0.010687198 -0.017901318
-0.06823638 -0.0012695666 0.04610354 0.026605459 0.08007068 0.0901007 0.04062832 -0.094067976
-0.04375172 0.042441353 0.08309784 -0.005235758 -0.061136127 0.03302644 4.970155e-05 -0.046378765
0.08908176 -0.007430442 0.10153976 -0.035590775 0.06715582 0.0012990363 -0.041395083 0.07672831
-0.08948208 -0.008602754 0.021911284 -0.016242657 -0.058595367 -0.026822897 0.06653231 -0.0118662985
-0.041928925 -0.03946828 -0.07527039 0.06313998 -0.09508397 -0.047384817 0.018124323 0.09128879
-0.08540652 0.012225347 -0.071236424 0.07374265 0.076102935 0.061744984 -0.045599267 -0.07960945
-0.061906423 -0.03469189 0.043441664 -0.015110843 0.08647355 -0.096059464 0.0033222223 -0.0873295
-0.09834303 -0.07398298 0.012289992 -0.0967421 -0.013161879 -0.045530774 -0.061163254 0.08634959
-0.03792398 -0.0992066 0.06791108 -0.10333815 -0.007463859 -0.07932004 0.0513273 0.03601013
-0.013412634 -0.029176777 -0.07321123 -0.07121877 0.037216984 -0.0718774 -0.03723671 0.084622175

encoder.7.weight f4 [128]
00000000: 9a78 873f fe56 893f 2130 8a3f ed9d 893f
00000010: e929 8b3f 4dda 893f 3008 8a3f 5d01 8a3f
00000020: b2ee 893f 16a2 8a3f b263 8a3f 4019 8a3f
00000030: c6b7 8a3f a341 843f 6342 863f 4540 8a3f
00000040: d4eb 8a3f 0aac 8a3f 2540 893f 5db0 823f
00000050: c544 893f 8a05 8b3f 6410 8b3f 1b25 883f
00000060: ad35 8a3f 1852 8a3f f76d 893f 559e 893f
00000070: ff14 8b3f 6a12 883f 582f 883f 595c 853f
00000080: 407a 883f acfe 8a3f 8155 893f 05d1 893f
00000090: 60f0 8a3f 969a 803f 44f1 873f e1bd 893f
000000a0: 6ea2 893f f566 893f 7a2c 873f 3460 893f
000000b0: 08d2 883f 1a94 883f 6e6f 893f 3a48 893f
000000c0: 5af0 883f 3beb 893f 9207 893f 0ae2 893f
000000d0: 91f7 863f 4adf 8a3f e6ef 893f a8f2 893f
000000e0: ba5a 893f 523f 833f 94a0 893f 86b2 883f
000000f0: 93c3 873f b107 8a3f e3b9 873f 40e1 8a3f
00000100: e198 893f 1fd4 883f 30c5 893f bdbb 883f
00000110: f43f 893f 7610 853f e78c 883f 9939 8a3f
00000120: 14c3 883f 9133 8a3f 6281 883f 3991 8b3f
00000130: 7a6a 883f 25a0 893f 29d5 893f 7518 8a3f
00000140: 2399 893f 20ed 893f aa73 8a3f abaf 873f
00000150: b5bc 883f 95d2 883f dcaa 883f 376d 883f
00000160: a2de 873f ec60 893f 9674 8a3f cdb8 8a3f
00000170: 2683 843f 439e 893f 106b 8a3f 0262 893f
00000180: bee2 8a3f cc54 8b3f c991 893f b52e 893f
00000190: 9e19 893f 93c2 853f 9c31 893f 5989 893f
000001a0: 6cca 873f 8a47 8a3f e6ac 893f 0105 8a3f
000001b0: 7537 873f ed4c 893f d38a 893f 1bba 893f
000001c0: 0496 883f ce8b 883f aeda 8b3f 1629 883f
000001d0: 6040 893f 48a1 8a3f 8f03 8a3f b210 893f
000001e0: 7424 8a3f 8aec 863f 3fb9 883f 59e4 863f
000001f0: 83ad 873f 7836 8a3f 1089 883f 2053 8b3f
1.058368 1.0729673 1.0795938 1.075132 1.0872165 1.0769745 1.0783749 1.0781666
1.0775969 1.0830715 1.0811675 1.0788956 1.0837333 1.0332531 1.048901 1.0800864
1.0853219 1.0833752 1.07227 1.0210072 1.0724112 1.0861065 1.0864377 1.0636324
1.079763 1.0806303 1.0736684 1.0751444 1.0865782 1.063062 1.0639448 1.0418807
1.0662308 1.085897 1.0729219 1.0766913 1.0854607 1.0047176 1.0620503 1.0761071
1.0752695 1.0734545 1.0560448 1.0732484 1.0689096 1.0670197 1.0737131 1.0725167
1.069835 1.0774912 1.0705435 1.0772107 1.0544301 1.0849392 1.0776336 1.0777178
1.0730813 1.0253699 1.075213 1.0679481 1.060656 1.0783597 1.0603603 1.0849991
1.074978 1.0689734 1.0763302 1.0682293 1.0722642 1.0395648 1.0668 1.0798827
1.0684533 1.0796987 1.0664485 1.0903693 1.0657494 1.0751997 1.0768176 1.0788714
1.0749859 1.077549 1.0816548 1.0600485 1.0682589 1.0689265 1.0677142 1.065833
1.0614817 1.0732703 1.0816829 1.0837647 1.0352523 1.0751423 1.0813923 1.0733035
1.0850446 1.0885253 1.0747615 1.0717379 1.0710943 1.0450004 1.0718265 1.074504
1.0608649 1.0803082 1.075589 1.0782777 1.0563799 1.0726601 1.0745491 1.075992
1.0670781 1.0667665 1.0926111 1.0637538 1.0722771 1.0830469 1.0782336 1.070822
1.0792375 1.0540936 1.0681533 1.0538436 1.0599827 1.0797873 1.0666828 1.0884743

encoder.7.bias f4 [128]
00000000: dc05 2f3d d458 2f3d efde 403d 416d 043d
00000010: e7b8 9d3d 8ed0 293d 9666 5f3d 2b5d 7d3d
00000020: 18eb 523d 9ecd 8d3d cba5 023d b15a 1a3d
00000030: 33d8 0c3d 2eff 973b 4961 913c 5cc7 d83c
00000040: 45ab 4a3d 23c5 783d 2fc2 2d3d 4798 2bbc
00000050: fbd6 653d 4484 9e3d c248 443d e033 2b3d
00000060: 8b7e 523d 9f96 ae3d 272b 253d b10c 353d
00000070: 8ea0 5f3d c2f6 8e3c 2a15 2c3d 75a2 073d
00000080: 444f 113d cbfa 8c3d 4411 4f3c cd8e 813d
00000090: 0565 873d bf11 98bc b11e 4d3d 34ba 843d
000000a0: 2ae2 2b3d d80b 853d 97f9 6b3d 2e5e 0e3d
000000b0: a2f6 df3c 8b50 813d d713 1e3d c961 653d
000000c0: 6765 583d ba2a 073d 8589 123d e71c 9d3d
000000d0: b507 1b3d 9085 a93d ebdb 043d 3cee 4b3d
000000e0: b9be 2e3d b147 d83c d954 803d 5e57 213d
000000f0: 4ba1 933c ac43 7f3d 0c24 2b3d a778 2a3d
00000100: 6670 3f3d 26f6 323d 4aa0 393d c586 3d3d
00000110: 8c04 833d 3052 ba3c eef5 533d 4d65 323d
00000120: 9d30 3a3d 9b71 3d3d 0da7 1a3d 6a2f 973d
00000130: d80f 2f3d b200 653d e8cd 263d 2be1 913d
00000140: ee11 763d 5b12 913d a3af 113d 9b59 5e3c
00000150: a121 963d 7921 523d d4b8 c53c 1acb 593d
00000160: 78b3 0a3d b2be 7d3d c3cc 3d3d b360 503d
00000170: 3603 0d3c 6984 4d3d f31d 863d cde7 0d3d
00000180: 1753 683d be46 8e3d b9f8 5b3d 75f5 d43c
00000190: d4a4 6e3d 5592 973c 0070 0a3d 00ce 933d
000001a0: 85fa 233d 0b4d 403d 01f0 2d3d 965d 603d
000001b0: e711 873d efa8 113d 6a34 503d 358e 573d
000001c0: 4ce9 143d 35aa 093d cb1c 8e3d fee8 043d
000001d0: 5554 363d d232 673d 40d5 413d 67f1 0f3d
000001e0: 7d52 1a3d 8d64 243c 9fb4 ea3c 4abe cf3c
000001f0: fd5c 7a3d 6066 133d 433d 4e3d b582 8b3d
0.042730197 0.042809322 0.047087606 0.032330755 0.07701283 0.04145866 0.054541193 0.06185643
0.051493734 0.06923984 0.031896394 0.037684146 0.03438587 0.004638574 0.017746584 0.02646225
0.04947974 0.06073488 0.042421516 -0.0104733175 0.056113224 0.077400714 0.04792095 0.04179752
0.051390212 0.085248224 0.040324356 0.044201557 0.054596476 0.017451648 0.04201237 0.033113915
0.035475984 0.068837725 0.012638394 0.06326065 0.06611065 -0.01856315 0.050078098 0.06480828
0.041963734 0.064964 0.057611074 0.034757785 0.027339283 0.063141905 0.03859314 0.05600146
0.05283108 0.03299973 0.03577568 0.07671528 0.037849147 0.08277428 0.032436293 0.049787745
0.042662356 0.026401373 0.062661834 0.03938996 0.018021246 0.062320396 0.041782424 0.04161897
0.04673805 0.043691777 0.04531888 0.046271104 0.063973516 0.022744268 0.05174821 0.04355364
0.045456517 0.04625092 0.03775697 0.073820904 0.04273972 0.055908866 0.04072371 0.071230255
0.060075693 0.07083579 0.03556789 0.013571168 0.07330633 0.051301453 0.024135984 0.05317221
0.03386256 0.06194944 0.046337854 0.05087347 0.008606723 0.050175104 0.06548681 0.03464489
0.056719866 0.06947087 0.053703997 0.02599595 0.05826266 0.018502394 0.033798218 0.07217026
0.040033836 0.046948474 0.042465214 0.05477675 0.065952115 0.0355615 0.050831236 0.052625854
0.0363553 0.033609588 0.069390856 0.03244876 0.04451402 0.05644495 0.04732251 0.03514233
0.037676323 0.010033739 0.02865058 0.025359292 0.061123837 0.035986304 0.050351392 0.0681204

encoder.7.running_mean f4 [128]
00000000: 1016 593c bc1e 0f3d 7ef3 9b3e 06ab 233e
00000010: 375b 093e 4856 8b3e 7642 3ebe 21b2 5abe
00000020: 9624 b73e f803 fc3d a098 d13d 66bf 003e
00000030: 0679 acbc ee1c 0fbe 76be 63bd 36e3 97bd
00000040: bdfd 533e a266 da3d b82f 91be ffea babc
00000050: b222 0abe 4317 1c3e bb43 fcbc 2d65 1abe
00000060: 43ad 3c3e 28ba 293e 1c32 093e a70f a23e
00000070: bc99 983a bc58 133f 796f e63b 66e6 e43d
00000080: 8745 d1be 7b1f c0bc 190e 233e 3b4c 63be
00000090: 0dc0 28bd fdbb 4c3e d00d 44be d989 903c
000000a0: b166 613e 2d82 33be 7270 67be 3bd7 9d3d
000000b0: a4c1 8e3e 41c0 e8bd e047 4abe 3773 883e
000000c0: 9b78 19be 9aa6 923e 6eec ba3d 838e 0e3e
000000d0: a1d9 c1bd 0104 8e3d 63c3 a33e c97c 8c3c
000000e0: cc13 203e 6f90 96bd 103c 35be 13c2 443e
000000f0: 7777 0e3e 7123 5c3d 553d d93d 1f14 e4bd
00000100: 16fc 09bd c212 11be eaae 873d 194a 2dbe
00000110: 24c0 2d3f 0ac2 f6bd 358c c5bd 5eed 663e
00000120: d240 a4be d12b 05bd f003 803e 4864 a0bc
00000130: a7e1 eabd 1cb1 0d3e 2f03 463d f168 94bd
00000140: 4c14 433d 7b3b d1bc 0a0f cb3d 8cf8 5e3e
00000150: de4a 94bd 0693 33be 3da4 383e 92c1 5c3d
00000160: 0452 35be 72b6 93be 160b a33e 5588 593d
00000170: 93d4 853d a2de 34bc 5a66 803d 156a a6bd
00000180: 59be 50be 8e38 e63c 7492 3bbe 9568 833e
00000190: fddd 0bbe 99d2 7a3e bc43 fe3a 28f1 1fbe
000001a0: 7276 a53b 6530 43bd 9d06 c03e 957b 09be
000001b0: 7d2e c5be 9c73 ac3d 9588 83be b627 18be
000001c0: 239e a63e 9edb 51be 0099 76bd ebe5 5f3d
000001d0: ce41 62be 9585 4f3c 1d32 a93e e9b3 103e
000001e0: 61f9 06be 110f 013f 18cf ac3d 3336 703d
000001f0: 5042 d6bd dd35 803d 101a aa3d 6892 ba3e
0.013249889 0.03494142 0.30459207 0.15983209 0.13413702 0.27214265 -0.1858004 -0.21357013
0.357701 0.123054445 0.10234189 0.12573013 -0.021053802 -0.1397588 -0.05560156 -0.07416384
0.20702262 0.10664107 -0.2835672 -0.022817133 -0.13489798 0.15243249 -0.030794015 -0.15077658
0.18425469 0.16574919 0.13398021 0.31652567 0.0011642496 0.5755727 0.0070323315 0.111767575
-0.40873358 -0.023452511 0.15923347 -0.22197048 -0.04119878 0.19993587 -0.19145894 0.017643856
0.2201183 -0.17530127 -0.22601488 0.077070676 0.2788211 -0.113647945 -0.1975398 0.26650402
-0.14987414 0.28642732 0.09127127 0.13921551 -0.094653375 0.069343574 0.31985006 0.017149346
0.15632552 -0.07351767 -0.17698693 0.19214658 0.1391276 0.053744737 0.10607401 -0.1113665
-0.033687674 -0.14167312 0.06625159 -0.16922797 0.6787131 -0.12048729 -0.09645883 0.22551486
-0.32080704 -0.03251249 0.25003004 -0.019579068 -0.11468821 0.13837093 0.04834288 -0.072465785
0.04762678 -0.025541058 0.09914978 0.217745 -0.07240842 -0.17536554 0.18031402 0.05389554
-0.17707068 -0.28850132 0.31844395 0.053108532 0.06534686 -0.011039408 0.06269522 -0.08125702
-0.20385112 0.02810314 -0.18317586 0.25665727 -0.136589 0.24494399 0.0019398849 -0.15619338
0.00504952 -0.047653574 0.37505046 -0.13426049 -0.3851203 0.08420488 -0.2569014 -0.14858899
0.32542524 -0.20493934 -0.060204506 0.054662626 -0.22095415 0.012666126 0.33046046 0.1413113
-0.13181068 0.50413615 0.084379375 0.05864544 -0.10461867 0.062602736 0.08305752 0.36439824

encoder.7.running_var f4 [128]
00000000: 73e9 7d3d dff9 b93d 4cdd 3d3e da6f cc3d
00000010: 41e8 0f3d 9722 033e 0479 a23d b5b8 813d
00000020: 2021 f93d 8470 5c3d 5605 e63d 4b12 113e
00000030: 48c3 083e 6394 a73d 8174 2a3d a662 913d
00000040: 41ef 253e 7d9c f83d 0719 a03d 525d 773d
00000050: 66fb 4f3d 61cd 033d 6c6b 0b3d 8824 723d
00000060: c312 823e fe93 373e d835 163e 837d 223e
00000070: 660c 0e3d dc24 493e 63b8 103e f9e7 1a3d
00000080: 3334 8f3d 097e 2c3d 0cec 163e b3e1 a63d
00000090: 6aa7 a73d efed e63d 6b13 b23d 375c 363d
000000a0: 8698 123e b5b7 cc3d 4ee9 6a3d a7b2 4e3d
000000b0: 1379 1f3e 11f8 243d 2482 5a3d bd72 853e
000000c0: b2c9 6b3d 98d7 0e3e a9c6 e73d 6cb5 a13d
000000d0: 6307 9c3d 8943 2a3d 51bf f33d 898d 7d3d
000000e0: 60e7 2a3e d7b4 603e f695 6d3d 6f4c 163e
000000f0: 20c5 0e3e 36f8 833d 9bf0 7c3d 8ae3 b63d
00000100: 6f88 c93d b97f 953d 8a5f 0f3e 1259 113e
00000110: ef72 9d3e 65dd 823d 19a4 a33d f78a f43d
00000120: 6a90 4a3d c5ba d93d 3b3a 2d3d e572 503d
00000130: 063a 883d 3314 833d ec19 903d 41f5 b83d
00000140: eb83 bc3d 7011 333d fb67 fd3d abb2 fe3d
00000150: 0cc6 d73d 7b6f 553d f310 053e a545 853d
00000160: ec8f 293d b814 bd3d f610 f73d f559 dd3d
00000170: c063 193d dc82 6e3d 483c 443d 5bd9 e63d
00000180: 545f 773d 1c6d 0c3d bcd4 773d 556b f33d
00000190: a4b0 a03d a0c6 263e 6215 173d 7d19 8f3d
000001a0: 1b23 a03d 6c29 183e 6542 3d3e ef72 193d
000001b0: 2517 f93d aef4 073e 4c4c 323d d37a 423d
000001c0: f509 323e df3a be3d 1ec4 793d bf3d 023e
000001d0: 1969 c33d 43b3 373d 6dfd 4a3e debc de3d
000001e0: da05 763d 2dda 5d3e c224 1f3e 40da 0d3e
000001f0: ba02 733d 1bbb ee3d 1c39 363e 77e8 093e
0.061990213 0.09080862 0.1854145 0.099822715 0.035133604 0.12806164 0.07933238 0.06334058
0.12164521 0.05381824 0.112314865 0.14167134 0.13355744 0.081825994 0.041615013 0.07098894
0.1620455 0.12139223 0.078172736 0.06039173 0.05077686 0.032178286 0.034037992 0.05911687
0.2540494 0.17927548 0.14668977 0.15868191 0.034679793 0.19642967 0.14132838 0.037818883
0.06992378 0.042112384 0.14738482 0.081485175 0.081862286 0.11275851 0.0869511 0.044521537
0.14315996 0.09995977 0.057351403 0.050463345 0.1557353 0.040275637 0.053346768 0.260641
0.0575654 0.1394943 0.11317188 0.078959316 0.076185964 0.041568313 0.11901725 0.061902557
0.16689825 0.21943985 0.058004342 0.14677595 0.13942385 0.06443827 0.061752897 0.089301184
0.09840476 0.07299752 0.14001289 0.14194134 0.3075175 0.06389884 0.079902835 0.11940568
0.04945413 0.106313266 0.04229186 0.050890822 0.06651692 0.06400337 0.07036194 0.090311535
0.09204849 0.0437178 0.12373348 0.12436422 0.10535821 0.05210827 0.12994747 0.06507424
0.04139702 0.092324674 0.12063782 0.108081736 0.037448645 0.058230266 0.04790905 0.11271926
0.060393646 0.034283742 0.060505614 0.11885706 0.078461915 0.16286707 0.036885627 0.069872834
0.07819196 0.14859551 0.18482359 0.037463125 0.121626176 0.13276932 0.043529794 0.047480416
0.17386611 0.092885725 0.060978048 0.12718867 0.0954153 0.04484869 0.19823237 0.10875867
0.060064174 0.21665259 0.15541366 0.13852787 0.059328772 0.11656781 0.17795223 0.13467585

classifier.0.weight f4 [32, 128]
00000000: e368 b33a 23ed aabc 7eeb 89bd 0c12 ee3b
00000010: a342 573d 8461 cb3c ae13 e73d 8ec3 213d
00000020: 2954 af3b 963b b13d 56b3 91bd bae5 afbd
00000030: ac98 51bc a0af a33c 89bf a13d 3223 3e3d
00000040: 155f 283d 0fa0 adbd 4046 c6bc 30ea a2bd
00000050: 6527 b53c e803 023e 29b4 f13d bc23 923d
00000060: 3411 5b3c 28cb 463d 3233 b0bc fd5d 0abe
00000070: 7bba 0c3e f78b 81bd e2f8 093c b016 0c3a
00000080: 2836 c63d 7f58 7c3d c8dd 9fbc 1952 b43c
00000090: 2dbd 6d3c d2b1 dd3d ccab 823d ad24 e93c
000000a0: 3e90 e9bd b0d0 823c ad0e 803d 1d28 053e
000000b0: 93ab a6bd e15d 023e fdd0 103e c49a 333c
000000c0: 8e80 0f3d 12a6 e9bd 3fe1 65bd 09a0 aebc
000000d0: 2bed cf3d 45dc 173e 3d76 bf3c f1f6 343d
000000e0: 4a82 a2bd 22bf 893d 4ee0 8c3d 5a6b ea3c
000000f0: 489a e8bd 798f 0b3e 5b84 aa3d f845 823c
00000100: 0756 b3bd a01c 363c 2c60 293c 6239 3dbd
00000110: 7e38 4bbd 036c 9b3d a50c 3d3d 2d65 643d
00000120: 8ff0 bb3d c3dc 26bd 8cc2 153e e7d2 863d
00000130: e6c2 783d 5325 f83d ded6 e13d 3dc1 f83d
00000140: c303 173e b4cf 253e 7388 a0bb 0ccd 9ebc
00000150: 223f 08bd de69 633d 0710 79bd d5d1 bc3d
00000160: ce4a 203d 65dd 563d dc05 e23c 67f1 e2bd
00000170: 2304 b13d 5b1a da3d 4561 cc3d 30c8 c1bc
00000180: 287e 313e ad55 1e3e 0ad4 103e f747 98bd
00000190: d6ff 8d3c c339 833d f47c f73c 2b1e 023d
000001a0: 7c5b 1a3d b179 6fbd 701f 92bc 1aa1 013e
000001b0: e620 bf3d 4c55 d2bd d5cf ec3d 7fd8 223d
000001c0: 74e7 343b 7001 b3bd dd0d e13d 69d2 06be
000001d0: 0364 1d3e 0944 f33d f78c 83bd 1cc7 08bd
000001e0: a2cb af3d ddb8 b8bd 8859 e7bd 781d 80b8
000001f0: 88b8 0f3e 9792 84bc 595b 8f3d e1bb 8e3d
00000200: e160 aa3d 4fbb 8abd da25 95ba 2146 81bd
00000210: d59f 353d 9f57 93bd 35ab c63d e9df 3e3b
00000220: e09c 5d3d b724 c03d 14c4 1d3b 9010 163d
00000230: e678 afbc 6fd0 dbbc 80be c03d 80b3 013e
00000240: f493 073d 1cf9 6abd 00d3 05bc c261 d4bc
00000250: 48fb 033e 51d5 c33c da3b 4b3d 5ffd a63d
00000260: 6232 b3bd 7d7d 663d 4f2f 723c 3768 61bd
00000270: 2cf7 b7bc dd09 d8bd afc4 b9bd 96a8 c2bc
00000280: 2cf1 bc3d 8b1f 193d d757 72bd b41e e73d
00000290: 1aab 923d 5155 75bc 61d0 763d 7504 bf3d
000002a0: d72f 91bd b292 973d 3548 d3bb bc9c a6bc
000002b0: 1a55 98bd c91b 85ba 090a de3d 1a06 ae3d
000002c0: b132 a5ba 4b46 c43c bdd5 21bd 08e4 143c
000002d0: 6223 6a3d 1af2 9c3d 3b05 b7bc 222c f5bc
000002e0: ba1f ee3b 8edf 45bd ecd3 123e 7076 8f3d
000002f0: 5407 b9bd a82a c83d 9599 e43d a80b bcbd
00000300: 8335 8bbc 06ed 55bd b8a0 73bd 6c37 c8bc
00000310: cc7d b3bc b466 3bbd 881a 5f3d a078 b43d
00000320: bcb9 943d be97 f2bc 7adf bebc 3fd3 cb3d
00000330: bcd8 0b3e 24ed 303d bb14 0e3e 5206 0f3e
00000340: c4eb ae3d ff53 babc 5610 6cbd a20a d4bc
00000350: c2ee e93c 61be d53c bee2 86bd b1df d03c
00000360: 17bb 4d3d 5eec 8ebc 7491 8bbd cd05 30bc
00000370: bc5e fd3d f780 0b3e 0097 ee3d 4bd9 d2bd
00000380: 441c 2a3d fcec cd3c 2145 c53d 6d9f 853d
00000390: 5bd3 e33d 31a1 863d b3b5 063c 5eb2 fd3d
000003a0: 4630 a8bb 1acc cfbd c235 1c3c 5970 013e
000003b0: 8270 c33d bea1 c8bd ac88 da3d c992 d93c
000003c0: f3b6 33bb d644 33bd a54a 753c 2a5b 5bbd
000003d0: 6512 643d c30c c33d eabd aabd f237 34bd
000003e0: a4f0 d23d 35c4 4dbd ca04 cbbd eeb5 2b3c
000003f0: d7d6 b93d c585 3dbd 021f 933c 1314 b93d
0.0013687875 -0.020865029 -0.0673437 0.007265335 0.052553784 0.024826773 0.112830505 0.039493136
0.005350609 0.08653943 -0.07114284 -0.08588739 -0.0127927475 0.019981205 0.078978606 0.046420284
0.041106302 -0.084777944 -0.02420342 -0.07954824 0.022113511 0.12696803 0.11801941 0.07135722
0.013370801 0.04853359 -0.021508787 -0.13512416 0.13743012 -0.06325524 0.008421155 0.0005343957
0.09678298 0.061607834 -0.019514933 0.022011803 0.014510435 0.10824932 0.06380424 0.028459871
-0.11404465 0.01596865 0.06252799 0.13003583 -0.08138194 0.12731124 0.14142223 0.010962192
0.03503471 -0.114086285 -0.056123015 -0.021316545 0.10152658 0.1483012 0.02337181 0.044180814
-0.07935007 0.06725909 0.0687872 0.028615642 -0.11357552 0.13628949 0.08326026 0.015902504
-0.08756643 0.011115223 0.010337871 -0.046197303 -0.049614422 0.07588961 0.046154637 0.05576055
0.09176742 -0.04073788 0.14624995 0.06583195 0.060732745 0.12116494 0.11027311 0.12146232
0.14747529 0.16192514 -0.0048990785 -0.019384883 -0.033263333 0.055520885 -0.0608063 0.0921971
0.03913384 0.052457232 0.027590685 -0.110812 0.08643367 0.10649558 0.0997949 -0.023655027
0.17333281 0.1546237 0.14143386 -0.07435601 0.017333906 0.064075015 0.03021095 0.03176705
0.037684903 -0.058465663 -0.017837256 0.12659112 0.09332447 -0.10270175 0.11563078 0.039757248
0.0027603777 -0.087405086 0.10988972 -0.13166203 0.15370183 0.11878211 -0.06423371 -0.03339301
0.08583762 -0.09019635 -0.112963736 -6.1090046e-05 0.14035237 -0.01618318 0.06999845 0.06969429
0.083192594 -0.067740075 -0.0011379078 -0.06312204 0.04434188 -0.07194447 0.09700624 0.002912516
0.054104686 0.09382003 0.002407317 0.03663689 -0.021419954 -0.026832787 0.09411335 0.1266613
0.033100083 -0.057366475 -0.008167982 -0.02592552 0.12888825 0.023905428 0.049617626 0.081537955
-0.08749844 0.05627202 0.014781787 -0.055031028 -0.022456728 -0.10548756 -0.090707175 -0.023762029
0.092256874 0.037383597 -0.0591658 0.11285153 0.07161541 -0.014973954 0.06025732 0.09327022
-0.07089203 0.07401027 -0.0064478167 -0.020338409 -0.07438107 -0.0010155375 0.10841758 0.084972575
-0.0012603608 0.0239593 -0.039510477 0.00908757 0.05716265 0.07663365 -0.022341361 -0.02992827
0.0072669657 -0.0483089 0.14338654 0.07005012 -0.09034601 0.09773761 0.11162106 -0.09181911
-0.01699329 -0.052227996 -0.059479445 -0.02444049 -0.02191057 -0.045752242 0.05446866 0.0881207
0.072619885 -0.029613372 -0.023299921 0.09952401 0.13656896 0.043194905 0.13875096 0.13967255
0.085410625 -0.02274513 -0.057632767 -0.025883976 0.028556231 0.026091756 -0.065862164 0.02549729
0.05022725 -0.017446693 -0.06814852 -0.0107435705 0.12371585 0.13623415 0.11649895 -0.102953516
0.041530862 0.025137417 0.09632326 0.06524549 0.11124297 0.065737136 0.008222031 0.123875365
-0.005132708 -0.10146351 0.009534301 0.12640513 0.095429435 -0.09796475 0.10670599 0.02655925
-0.0027422279 -0.04376682 0.01497141 -0.053553738 0.055681605 0.095239185 -0.083370045 -0.043998666
0.10299805 -0.050235946 -0.09913023 0.010480387 0.090741806 -0.04627015 0.017959122 0.09037032

classifier.0.bias f4 [32]
00000000: 6bfa e9bc f8d5 c03a c24f b4bb eacf e13d
00000010: 96ca 683d 6674 f33b c966 df3d f674 2b3d
00000020: 3d05 54bd 14a3 633d 49e0 17bc 704c 24bc
00000030: 71ad 823d 4f81 8a3d c95c cebc 364c 003e
00000040: fc07 283d 936b 053d e51c 51bd c5eb 043d
00000050: 72d5 733d c3d9 50bd 0893 11bd f6f7 5f3d
00000060: 1f9a e13c 1b47 f13d 5fee df3c a6c5 183d
00000070: 25d2 06bd a237 ca3b 378b b03d f957 67bd
-0.028561791 0.0014712205 -0.005502672 0.110259846 0.056833826 0.0074296473 0.109082766 0.04185959
-0.051762808 0.055575445 -0.009269782 -0.01002799 0.063807376 0.06762945 -0.025190728 0.12529072
0.04102324 0.032573294 -0.051052947 0.03245141 0.05952973 -0.050988924 -0.03554061 0.054679833
0.027539311 0.117811404 0.027335344 0.037297867 -0.032915253 0.0061711827 0.08620303 -0.05648038

classifier.3.weight f4 [1, 32]
00000000: 4e49 ec3d f70f 4c3e 7ecb 09be c9fc 7bbe
00000010: 4f34 73be f224 39be d9e8 b93d 9cff 463e
00000020: de3d 573e d7e2 f13d 8de0 19be b8a6 033e
00000030: 68c3 e53d 0eb4 e8bd cb59 093e 329c d03d
00000040: 4f35 5f3e 94fd 1b3e 3f9e 5f3e 2f38 fb3d
00000050: 2f7c 12be fd4e 81be 8672 49be 5426 43be
00000060: ac0c 1b3e d5d9 3abe 9b9c 613e efbd 0dbe
00000070: 805f 4dbe 5078 37be 329d 1fbe 2889 39be
0.11537419 0.19927965 -0.13456532 -0.24608149 -0.23750423 -0.180805 0.09077615 0.19433445
0.21019694 0.118108444 -0.15027066 0.12856567 0.112189114 -0.11362468 0.1341316 0.10186042
0.2179768 0.15233451 0.2183771 0.122665755 -0.14305185 -0.25255576 -0.19672593 -0.1905759
0.15141553 -0.18247159 0.22032396 -0.13841985 -0.20055962 -0.1791699 -0.15587309 -0.18118727
